<?xml version="1.0" ?>
<net name="person-reidentification-retail-0103" version="10">
	<layers>
		<layer id="0" name="data" type="Parameter" version="opset1">
			<data element_type="f32" shape="1,3,256,128"/>
			<output>
				<port id="0" precision="FP32">
					<dim>1</dim>
					<dim>3</dim>
					<dim>256</dim>
					<dim>128</dim>
				</port>
			</output>
		</layer>
		<layer id="1" name="data/reverse_input_channels3103231036/Split/value31066_const1012_const" type="Const" version="opset1">
			<data element_type="i64" offset="0" shape="" size="8"/>
			<output>
				<port id="1" precision="I64"/>
			</output>
		</layer>
		<layer id="2" name="data/reverse_input_channels3103231036/Split" type="Split" version="opset1">
			<data num_splits="3"/>
			<input>
				<port id="0">
					<dim>1</dim>
					<dim>3</dim>
					<dim>256</dim>
					<dim>128</dim>
				</port>
				<port id="1"/>
			</input>
			<output>
				<port id="2" precision="FP32">
					<dim>1</dim>
					<dim>1</dim>
					<dim>256</dim>
					<dim>128</dim>
				</port>
				<port id="3" precision="FP32">
					<dim>1</dim>
					<dim>1</dim>
					<dim>256</dim>
					<dim>128</dim>
				</port>
				<port id="4" precision="FP32">
					<dim>1</dim>
					<dim>1</dim>
					<dim>256</dim>
					<dim>128</dim>
				</port>
			</output>
		</layer>
		<layer id="3" name="data/reverse_input_channels3103231036/Concat" type="Concat" version="opset1">
			<data axis="1"/>
			<input>
				<port id="0">
					<dim>1</dim>
					<dim>1</dim>
					<dim>256</dim>
					<dim>128</dim>
				</port>
				<port id="1">
					<dim>1</dim>
					<dim>1</dim>
					<dim>256</dim>
					<dim>128</dim>
				</port>
				<port id="2">
					<dim>1</dim>
					<dim>1</dim>
					<dim>256</dim>
					<dim>128</dim>
				</port>
			</input>
			<output>
				<port id="3" precision="FP32">
					<dim>1</dim>
					<dim>3</dim>
					<dim>256</dim>
					<dim>128</dim>
				</port>
			</output>
		</layer>
		<layer id="4" name="data/reverse_input_channels3103231038/Concat31079_const1017_const" type="Const" version="opset1">
			<data element_type="f32" offset="8" shape="1,3,1,1" size="12"/>
			<output>
				<port id="1" precision="FP32">
					<dim>1</dim>
					<dim>3</dim>
					<dim>1</dim>
					<dim>1</dim>
				</port>
			</output>
		</layer>
		<layer id="5" name="Mul_/Fused_Mul_" type="Multiply" version="opset1">
			<input>
				<port id="0">
					<dim>1</dim>
					<dim>3</dim>
					<dim>256</dim>
					<dim>128</dim>
				</port>
				<port id="1">
					<dim>1</dim>
					<dim>3</dim>
					<dim>1</dim>
					<dim>1</dim>
				</port>
			</input>
			<output>
				<port id="2" precision="FP32">
					<dim>1</dim>
					<dim>3</dim>
					<dim>256</dim>
					<dim>128</dim>
				</port>
			</output>
		</layer>
		<layer id="6" name="data/reverse_input_channels31034/Concat31063_const1019_const" type="Const" version="opset1">
			<data element_type="f32" offset="20" shape="1,3,1,1" size="12"/>
			<output>
				<port id="1" precision="FP32">
					<dim>1</dim>
					<dim>3</dim>
					<dim>1</dim>
					<dim>1</dim>
				</port>
			</output>
		</layer>
		<layer id="7" name="Add_/Fused_Add_" type="Add" version="opset1">
			<input>
				<port id="0">
					<dim>1</dim>
					<dim>3</dim>
					<dim>256</dim>
					<dim>128</dim>
				</port>
				<port id="1">
					<dim>1</dim>
					<dim>3</dim>
					<dim>1</dim>
					<dim>1</dim>
				</port>
			</input>
			<output>
				<port id="2" precision="FP32">
					<dim>1</dim>
					<dim>3</dim>
					<dim>256</dim>
					<dim>128</dim>
				</port>
			</output>
		</layer>
		<layer id="8" name="33113315_const" type="Const" version="opset1">
			<data element_type="f32" offset="32" shape="" size="4"/>
			<output>
				<port id="1" precision="FP32"/>
			</output>
		</layer>
		<layer id="9" name="33123316_const" type="Const" version="opset1">
			<data element_type="f32" offset="36" shape="" size="4"/>
			<output>
				<port id="1" precision="FP32"/>
			</output>
		</layer>
		<layer id="10" name="33133317_const" type="Const" version="opset1">
			<data element_type="f32" offset="32" shape="" size="4"/>
			<output>
				<port id="1" precision="FP32"/>
			</output>
		</layer>
		<layer id="11" name="33143318_const" type="Const" version="opset1">
			<data element_type="f32" offset="36" shape="" size="4"/>
			<output>
				<port id="1" precision="FP32"/>
			</output>
		</layer>
		<layer id="12" name="569/Ins_Norm/MVN_/fq_input_0" type="FakeQuantize" version="opset1">
			<data levels="256"/>
			<input>
				<port id="0">
					<dim>1</dim>
					<dim>3</dim>
					<dim>256</dim>
					<dim>128</dim>
				</port>
				<port id="1"/>
				<port id="2"/>
				<port id="3"/>
				<port id="4"/>
			</input>
			<output>
				<port id="5" precision="FP32">
					<dim>1</dim>
					<dim>3</dim>
					<dim>256</dim>
					<dim>128</dim>
				</port>
			</output>
		</layer>
		<layer id="13" name="569/Ins_Norm/MVN_" type="MVN" version="opset1">
			<data across_channels="0" eps="9.999999747378752e-06" normalize_variance="1"/>
			<input>
				<port id="0">
					<dim>1</dim>
					<dim>3</dim>
					<dim>256</dim>
					<dim>128</dim>
				</port>
			</input>
			<output>
				<port id="1" precision="FP32">
					<dim>1</dim>
					<dim>3</dim>
					<dim>256</dim>
					<dim>128</dim>
				</port>
			</output>
		</layer>
		<layer id="14" name="onnx_initializer_node_in_first.weight/Output_0/Data_/copy/copy_const1022_const" type="Const" version="opset1">
			<data element_type="f32" offset="40" shape="1,3,1,1" size="12"/>
			<output>
				<port id="1" precision="FP32">
					<dim>1</dim>
					<dim>3</dim>
					<dim>1</dim>
					<dim>1</dim>
				</port>
			</output>
		</layer>
		<layer id="15" name="569/Ins_Norm/mul_" type="Multiply" version="opset1">
			<input>
				<port id="0">
					<dim>1</dim>
					<dim>3</dim>
					<dim>256</dim>
					<dim>128</dim>
				</port>
				<port id="1">
					<dim>1</dim>
					<dim>3</dim>
					<dim>1</dim>
					<dim>1</dim>
				</port>
			</input>
			<output>
				<port id="2" precision="FP32">
					<dim>1</dim>
					<dim>3</dim>
					<dim>256</dim>
					<dim>128</dim>
				</port>
			</output>
		</layer>
		<layer id="16" name="onnx_initializer_node_in_first.bias/Output_0/Data_/copy/copy_const1024_const" type="Const" version="opset1">
			<data element_type="f32" offset="52" shape="1,3,1,1" size="12"/>
			<output>
				<port id="1" precision="FP32">
					<dim>1</dim>
					<dim>3</dim>
					<dim>1</dim>
					<dim>1</dim>
				</port>
			</output>
		</layer>
		<layer id="17" name="569/Ins_Norm/add_" type="Add" version="opset1">
			<input>
				<port id="0">
					<dim>1</dim>
					<dim>3</dim>
					<dim>256</dim>
					<dim>128</dim>
				</port>
				<port id="1">
					<dim>1</dim>
					<dim>3</dim>
					<dim>1</dim>
					<dim>1</dim>
				</port>
			</input>
			<output>
				<port id="2" precision="FP32">
					<dim>1</dim>
					<dim>3</dim>
					<dim>256</dim>
					<dim>128</dim>
				</port>
			</output>
		</layer>
		<layer id="18" name="58715875_const" type="Const" version="opset1">
			<data element_type="f32" offset="64" shape="" size="4"/>
			<output>
				<port id="1" precision="FP32"/>
			</output>
		</layer>
		<layer id="19" name="58725876_const" type="Const" version="opset1">
			<data element_type="f32" offset="68" shape="" size="4"/>
			<output>
				<port id="1" precision="FP32"/>
			</output>
		</layer>
		<layer id="20" name="58735877_const" type="Const" version="opset1">
			<data element_type="f32" offset="64" shape="" size="4"/>
			<output>
				<port id="1" precision="FP32"/>
			</output>
		</layer>
		<layer id="21" name="58745878_const" type="Const" version="opset1">
			<data element_type="f32" offset="68" shape="" size="4"/>
			<output>
				<port id="1" precision="FP32"/>
			</output>
		</layer>
		<layer id="22" name="570/fq_input_0" type="FakeQuantize" version="opset1">
			<data levels="256"/>
			<input>
				<port id="0">
					<dim>1</dim>
					<dim>3</dim>
					<dim>256</dim>
					<dim>128</dim>
				</port>
				<port id="1"/>
				<port id="2"/>
				<port id="3"/>
				<port id="4"/>
			</input>
			<output>
				<port id="5" precision="FP32">
					<dim>1</dim>
					<dim>3</dim>
					<dim>256</dim>
					<dim>128</dim>
				</port>
			</output>
		</layer>
		<layer id="23" name="onnx_initializer_node_conv1.conv.weight/Output_0/Data__const1026_const" type="Const" version="opset1">
			<data element_type="f32" offset="72" shape="32,3,7,7" size="18816"/>
			<output>
				<port id="1" precision="FP32">
					<dim>32</dim>
					<dim>3</dim>
					<dim>7</dim>
					<dim>7</dim>
				</port>
			</output>
		</layer>
		<layer id="24" name="58815885_const" type="Const" version="opset1">
			<data element_type="f32" offset="18888" shape="32,1,1,1" size="128"/>
			<output>
				<port id="1" precision="FP32">
					<dim>32</dim>
					<dim>1</dim>
					<dim>1</dim>
					<dim>1</dim>
				</port>
			</output>
		</layer>
		<layer id="25" name="58825886_const" type="Const" version="opset1">
			<data element_type="f32" offset="19016" shape="32,1,1,1" size="128"/>
			<output>
				<port id="1" precision="FP32">
					<dim>32</dim>
					<dim>1</dim>
					<dim>1</dim>
					<dim>1</dim>
				</port>
			</output>
		</layer>
		<layer id="26" name="58835887_const" type="Const" version="opset1">
			<data element_type="f32" offset="19144" shape="32,1,1,1" size="128"/>
			<output>
				<port id="1" precision="FP32">
					<dim>32</dim>
					<dim>1</dim>
					<dim>1</dim>
					<dim>1</dim>
				</port>
			</output>
		</layer>
		<layer id="27" name="58845888_const" type="Const" version="opset1">
			<data element_type="f32" offset="19272" shape="32,1,1,1" size="128"/>
			<output>
				<port id="1" precision="FP32">
					<dim>32</dim>
					<dim>1</dim>
					<dim>1</dim>
					<dim>1</dim>
				</port>
			</output>
		</layer>
		<layer id="28" name="570/fq_weights_1" type="FakeQuantize" version="opset1">
			<data levels="255"/>
			<input>
				<port id="0">
					<dim>32</dim>
					<dim>3</dim>
					<dim>7</dim>
					<dim>7</dim>
				</port>
				<port id="1">
					<dim>32</dim>
					<dim>1</dim>
					<dim>1</dim>
					<dim>1</dim>
				</port>
				<port id="2">
					<dim>32</dim>
					<dim>1</dim>
					<dim>1</dim>
					<dim>1</dim>
				</port>
				<port id="3">
					<dim>32</dim>
					<dim>1</dim>
					<dim>1</dim>
					<dim>1</dim>
				</port>
				<port id="4">
					<dim>32</dim>
					<dim>1</dim>
					<dim>1</dim>
					<dim>1</dim>
				</port>
			</input>
			<output>
				<port id="5" precision="FP32">
					<dim>32</dim>
					<dim>3</dim>
					<dim>7</dim>
					<dim>7</dim>
				</port>
			</output>
		</layer>
		<layer id="29" name="570" type="Convolution" version="opset1">
			<data dilations="1,1" output_padding="0,0" pads_begin="3,3" pads_end="3,3" strides="2,2"/>
			<input>
				<port id="0">
					<dim>1</dim>
					<dim>3</dim>
					<dim>256</dim>
					<dim>128</dim>
				</port>
				<port id="1">
					<dim>32</dim>
					<dim>3</dim>
					<dim>7</dim>
					<dim>7</dim>
				</port>
			</input>
			<output>
				<port id="2" precision="FP32">
					<dim>1</dim>
					<dim>32</dim>
					<dim>128</dim>
					<dim>64</dim>
				</port>
			</output>
		</layer>
		<layer id="30" name="55315535_const" type="Const" version="opset1">
			<data element_type="f32" offset="19400" shape="" size="4"/>
			<output>
				<port id="1" precision="FP32"/>
			</output>
		</layer>
		<layer id="31" name="55325536_const" type="Const" version="opset1">
			<data element_type="f32" offset="19404" shape="" size="4"/>
			<output>
				<port id="1" precision="FP32"/>
			</output>
		</layer>
		<layer id="32" name="55335537_const" type="Const" version="opset1">
			<data element_type="f32" offset="19400" shape="" size="4"/>
			<output>
				<port id="1" precision="FP32"/>
			</output>
		</layer>
		<layer id="33" name="55345538_const" type="Const" version="opset1">
			<data element_type="f32" offset="19404" shape="" size="4"/>
			<output>
				<port id="1" precision="FP32"/>
			</output>
		</layer>
		<layer id="34" name="571/Ins_Norm/MVN_/fq_input_0" type="FakeQuantize" version="opset1">
			<data levels="256"/>
			<input>
				<port id="0">
					<dim>1</dim>
					<dim>32</dim>
					<dim>128</dim>
					<dim>64</dim>
				</port>
				<port id="1"/>
				<port id="2"/>
				<port id="3"/>
				<port id="4"/>
			</input>
			<output>
				<port id="5" precision="FP32">
					<dim>1</dim>
					<dim>32</dim>
					<dim>128</dim>
					<dim>64</dim>
				</port>
			</output>
		</layer>
		<layer id="35" name="571/Ins_Norm/MVN_" type="MVN" version="opset1">
			<data across_channels="0" eps="9.999999747378752e-06" normalize_variance="1"/>
			<input>
				<port id="0">
					<dim>1</dim>
					<dim>32</dim>
					<dim>128</dim>
					<dim>64</dim>
				</port>
			</input>
			<output>
				<port id="1" precision="FP32">
					<dim>1</dim>
					<dim>32</dim>
					<dim>128</dim>
					<dim>64</dim>
				</port>
			</output>
		</layer>
		<layer id="36" name="onnx_initializer_node_conv1.bn.weight/Output_0/Data_/copy/copy_const1029_const" type="Const" version="opset1">
			<data element_type="f32" offset="19408" shape="1,32,1,1" size="128"/>
			<output>
				<port id="1" precision="FP32">
					<dim>1</dim>
					<dim>32</dim>
					<dim>1</dim>
					<dim>1</dim>
				</port>
			</output>
		</layer>
		<layer id="37" name="571/Ins_Norm/mul_" type="Multiply" version="opset1">
			<input>
				<port id="0">
					<dim>1</dim>
					<dim>32</dim>
					<dim>128</dim>
					<dim>64</dim>
				</port>
				<port id="1">
					<dim>1</dim>
					<dim>32</dim>
					<dim>1</dim>
					<dim>1</dim>
				</port>
			</input>
			<output>
				<port id="2" precision="FP32">
					<dim>1</dim>
					<dim>32</dim>
					<dim>128</dim>
					<dim>64</dim>
				</port>
			</output>
		</layer>
		<layer id="38" name="onnx_initializer_node_conv1.bn.bias/Output_0/Data_/copy/copy_const1031_const" type="Const" version="opset1">
			<data element_type="f32" offset="19536" shape="1,32,1,1" size="128"/>
			<output>
				<port id="1" precision="FP32">
					<dim>1</dim>
					<dim>32</dim>
					<dim>1</dim>
					<dim>1</dim>
				</port>
			</output>
		</layer>
		<layer id="39" name="571/Ins_Norm/add_" type="Add" version="opset1">
			<input>
				<port id="0">
					<dim>1</dim>
					<dim>32</dim>
					<dim>128</dim>
					<dim>64</dim>
				</port>
				<port id="1">
					<dim>1</dim>
					<dim>32</dim>
					<dim>1</dim>
					<dim>1</dim>
				</port>
			</input>
			<output>
				<port id="2" precision="FP32">
					<dim>1</dim>
					<dim>32</dim>
					<dim>128</dim>
					<dim>64</dim>
				</port>
			</output>
		</layer>
		<layer id="40" name="572" type="ReLU" version="opset1">
			<input>
				<port id="0">
					<dim>1</dim>
					<dim>32</dim>
					<dim>128</dim>
					<dim>64</dim>
				</port>
			</input>
			<output>
				<port id="1" precision="FP32">
					<dim>1</dim>
					<dim>32</dim>
					<dim>128</dim>
					<dim>64</dim>
				</port>
			</output>
		</layer>
		<layer id="41" name="87938797_const" type="Const" version="opset1">
			<data element_type="f32" offset="19664" shape="" size="4"/>
			<output>
				<port id="1" precision="FP32"/>
			</output>
		</layer>
		<layer id="42" name="87948798_const" type="Const" version="opset1">
			<data element_type="f32" offset="19668" shape="" size="4"/>
			<output>
				<port id="1" precision="FP32"/>
			</output>
		</layer>
		<layer id="43" name="87958799_const" type="Const" version="opset1">
			<data element_type="f32" offset="19664" shape="" size="4"/>
			<output>
				<port id="1" precision="FP32"/>
			</output>
		</layer>
		<layer id="44" name="87968800_const" type="Const" version="opset1">
			<data element_type="f32" offset="19668" shape="" size="4"/>
			<output>
				<port id="1" precision="FP32"/>
			</output>
		</layer>
		<layer id="45" name="573/fq_input_0" type="FakeQuantize" version="opset1">
			<data levels="256"/>
			<input>
				<port id="0">
					<dim>1</dim>
					<dim>32</dim>
					<dim>128</dim>
					<dim>64</dim>
				</port>
				<port id="1"/>
				<port id="2"/>
				<port id="3"/>
				<port id="4"/>
			</input>
			<output>
				<port id="5" precision="FP32">
					<dim>1</dim>
					<dim>32</dim>
					<dim>128</dim>
					<dim>64</dim>
				</port>
			</output>
		</layer>
		<layer id="46" name="573" type="MaxPool" version="opset1">
			<data kernel="3,3" pads_begin="1,1" pads_end="1,1" rounding_type="floor" strides="2,2"/>
			<input>
				<port id="0">
					<dim>1</dim>
					<dim>32</dim>
					<dim>128</dim>
					<dim>64</dim>
				</port>
			</input>
			<output>
				<port id="1" precision="FP32">
					<dim>1</dim>
					<dim>32</dim>
					<dim>64</dim>
					<dim>32</dim>
				</port>
			</output>
		</layer>
		<layer id="47" name="Mul1_/Fused_Mul_2012920131_const1035_const" type="Const" version="opset1">
			<data element_type="f32" offset="19672" shape="32,32,1,1" size="4096"/>
			<output>
				<port id="1" precision="FP32">
					<dim>32</dim>
					<dim>32</dim>
					<dim>1</dim>
					<dim>1</dim>
				</port>
			</output>
		</layer>
		<layer id="48" name="54715475_const" type="Const" version="opset1">
			<data element_type="f32" offset="23768" shape="32,1,1,1" size="128"/>
			<output>
				<port id="1" precision="FP32">
					<dim>32</dim>
					<dim>1</dim>
					<dim>1</dim>
					<dim>1</dim>
				</port>
			</output>
		</layer>
		<layer id="49" name="54725476_const" type="Const" version="opset1">
			<data element_type="f32" offset="23896" shape="32,1,1,1" size="128"/>
			<output>
				<port id="1" precision="FP32">
					<dim>32</dim>
					<dim>1</dim>
					<dim>1</dim>
					<dim>1</dim>
				</port>
			</output>
		</layer>
		<layer id="50" name="54735477_const" type="Const" version="opset1">
			<data element_type="f32" offset="23768" shape="32,1,1,1" size="128"/>
			<output>
				<port id="1" precision="FP32">
					<dim>32</dim>
					<dim>1</dim>
					<dim>1</dim>
					<dim>1</dim>
				</port>
			</output>
		</layer>
		<layer id="51" name="54745478_const" type="Const" version="opset1">
			<data element_type="f32" offset="23896" shape="32,1,1,1" size="128"/>
			<output>
				<port id="1" precision="FP32">
					<dim>32</dim>
					<dim>1</dim>
					<dim>1</dim>
					<dim>1</dim>
				</port>
			</output>
		</layer>
		<layer id="52" name="574/fq_weights_1" type="FakeQuantize" version="opset1">
			<data levels="255"/>
			<input>
				<port id="0">
					<dim>32</dim>
					<dim>32</dim>
					<dim>1</dim>
					<dim>1</dim>
				</port>
				<port id="1">
					<dim>32</dim>
					<dim>1</dim>
					<dim>1</dim>
					<dim>1</dim>
				</port>
				<port id="2">
					<dim>32</dim>
					<dim>1</dim>
					<dim>1</dim>
					<dim>1</dim>
				</port>
				<port id="3">
					<dim>32</dim>
					<dim>1</dim>
					<dim>1</dim>
					<dim>1</dim>
				</port>
				<port id="4">
					<dim>32</dim>
					<dim>1</dim>
					<dim>1</dim>
					<dim>1</dim>
				</port>
			</input>
			<output>
				<port id="5" precision="FP32">
					<dim>32</dim>
					<dim>32</dim>
					<dim>1</dim>
					<dim>1</dim>
				</port>
			</output>
		</layer>
		<layer id="53" name="574" type="Convolution" version="opset1">
			<data dilations="1,1" output_padding="0,0" pads_begin="0,0" pads_end="0,0" strides="1,1"/>
			<input>
				<port id="0">
					<dim>1</dim>
					<dim>32</dim>
					<dim>64</dim>
					<dim>32</dim>
				</port>
				<port id="1">
					<dim>32</dim>
					<dim>32</dim>
					<dim>1</dim>
					<dim>1</dim>
				</port>
			</input>
			<output>
				<port id="2" precision="FP32">
					<dim>1</dim>
					<dim>32</dim>
					<dim>64</dim>
					<dim>32</dim>
				</port>
			</output>
		</layer>
		<layer id="54" name="data_add_1842518430/copy_const1037_const" type="Const" version="opset1">
			<data element_type="f32" offset="24024" shape="1,32,1,1" size="128"/>
			<output>
				<port id="1" precision="FP32">
					<dim>1</dim>
					<dim>32</dim>
					<dim>1</dim>
					<dim>1</dim>
				</port>
			</output>
		</layer>
		<layer id="55" name="Add1_/Fused_Add_" type="Add" version="opset1">
			<input>
				<port id="0">
					<dim>1</dim>
					<dim>32</dim>
					<dim>64</dim>
					<dim>32</dim>
				</port>
				<port id="1">
					<dim>1</dim>
					<dim>32</dim>
					<dim>1</dim>
					<dim>1</dim>
				</port>
			</input>
			<output>
				<port id="2" precision="FP32">
					<dim>1</dim>
					<dim>32</dim>
					<dim>64</dim>
					<dim>32</dim>
				</port>
			</output>
		</layer>
		<layer id="56" name="576" type="ReLU" version="opset1">
			<input>
				<port id="0">
					<dim>1</dim>
					<dim>32</dim>
					<dim>64</dim>
					<dim>32</dim>
				</port>
			</input>
			<output>
				<port id="1" precision="FP32">
					<dim>1</dim>
					<dim>32</dim>
					<dim>64</dim>
					<dim>32</dim>
				</port>
			</output>
		</layer>
		<layer id="57" name="33913395_const" type="Const" version="opset1">
			<data element_type="f32" offset="19664" shape="" size="4"/>
			<output>
				<port id="1" precision="FP32"/>
			</output>
		</layer>
		<layer id="58" name="33923396_const" type="Const" version="opset1">
			<data element_type="f32" offset="24152" shape="" size="4"/>
			<output>
				<port id="1" precision="FP32"/>
			</output>
		</layer>
		<layer id="59" name="33933397_const" type="Const" version="opset1">
			<data element_type="f32" offset="19664" shape="" size="4"/>
			<output>
				<port id="1" precision="FP32"/>
			</output>
		</layer>
		<layer id="60" name="33943398_const" type="Const" version="opset1">
			<data element_type="f32" offset="24152" shape="" size="4"/>
			<output>
				<port id="1" precision="FP32"/>
			</output>
		</layer>
		<layer id="61" name="577/fq_input_0" type="FakeQuantize" version="opset1">
			<data levels="256"/>
			<input>
				<port id="0">
					<dim>1</dim>
					<dim>32</dim>
					<dim>64</dim>
					<dim>32</dim>
				</port>
				<port id="1"/>
				<port id="2"/>
				<port id="3"/>
				<port id="4"/>
			</input>
			<output>
				<port id="5" precision="FP32">
					<dim>1</dim>
					<dim>32</dim>
					<dim>64</dim>
					<dim>32</dim>
				</port>
			</output>
		</layer>
		<layer id="62" name="onnx_initializer_node_conv2.0.conv2a.conv1.weight/Output_0/Data__const1040_const" type="Const" version="opset1">
			<data element_type="f32" offset="24156" shape="32,32,1,1" size="4096"/>
			<output>
				<port id="1" precision="FP32">
					<dim>32</dim>
					<dim>32</dim>
					<dim>1</dim>
					<dim>1</dim>
				</port>
			</output>
		</layer>
		<layer id="63" name="34013405_const" type="Const" version="opset1">
			<data element_type="f32" offset="28252" shape="32,1,1,1" size="128"/>
			<output>
				<port id="1" precision="FP32">
					<dim>32</dim>
					<dim>1</dim>
					<dim>1</dim>
					<dim>1</dim>
				</port>
			</output>
		</layer>
		<layer id="64" name="34023406_const" type="Const" version="opset1">
			<data element_type="f32" offset="28380" shape="32,1,1,1" size="128"/>
			<output>
				<port id="1" precision="FP32">
					<dim>32</dim>
					<dim>1</dim>
					<dim>1</dim>
					<dim>1</dim>
				</port>
			</output>
		</layer>
		<layer id="65" name="34033407_const" type="Const" version="opset1">
			<data element_type="f32" offset="28252" shape="32,1,1,1" size="128"/>
			<output>
				<port id="1" precision="FP32">
					<dim>32</dim>
					<dim>1</dim>
					<dim>1</dim>
					<dim>1</dim>
				</port>
			</output>
		</layer>
		<layer id="66" name="34043408_const" type="Const" version="opset1">
			<data element_type="f32" offset="28380" shape="32,1,1,1" size="128"/>
			<output>
				<port id="1" precision="FP32">
					<dim>32</dim>
					<dim>1</dim>
					<dim>1</dim>
					<dim>1</dim>
				</port>
			</output>
		</layer>
		<layer id="67" name="577/fq_weights_1" type="FakeQuantize" version="opset1">
			<data levels="255"/>
			<input>
				<port id="0">
					<dim>32</dim>
					<dim>32</dim>
					<dim>1</dim>
					<dim>1</dim>
				</port>
				<port id="1">
					<dim>32</dim>
					<dim>1</dim>
					<dim>1</dim>
					<dim>1</dim>
				</port>
				<port id="2">
					<dim>32</dim>
					<dim>1</dim>
					<dim>1</dim>
					<dim>1</dim>
				</port>
				<port id="3">
					<dim>32</dim>
					<dim>1</dim>
					<dim>1</dim>
					<dim>1</dim>
				</port>
				<port id="4">
					<dim>32</dim>
					<dim>1</dim>
					<dim>1</dim>
					<dim>1</dim>
				</port>
			</input>
			<output>
				<port id="5" precision="FP32">
					<dim>32</dim>
					<dim>32</dim>
					<dim>1</dim>
					<dim>1</dim>
				</port>
			</output>
		</layer>
		<layer id="68" name="577" type="Convolution" version="opset1">
			<data dilations="1,1" output_padding="0,0" pads_begin="0,0" pads_end="0,0" strides="1,1"/>
			<input>
				<port id="0">
					<dim>1</dim>
					<dim>32</dim>
					<dim>64</dim>
					<dim>32</dim>
				</port>
				<port id="1">
					<dim>32</dim>
					<dim>32</dim>
					<dim>1</dim>
					<dim>1</dim>
				</port>
			</input>
			<output>
				<port id="2" precision="FP32">
					<dim>1</dim>
					<dim>32</dim>
					<dim>64</dim>
					<dim>32</dim>
				</port>
			</output>
		</layer>
		<layer id="69" name="61116115_const" type="Const" version="opset1">
			<data element_type="f32" offset="28508" shape="1,32,1,1" size="128"/>
			<output>
				<port id="1" precision="FP32">
					<dim>1</dim>
					<dim>32</dim>
					<dim>1</dim>
					<dim>1</dim>
				</port>
			</output>
		</layer>
		<layer id="70" name="61126116_const" type="Const" version="opset1">
			<data element_type="f32" offset="28636" shape="1,32,1,1" size="128"/>
			<output>
				<port id="1" precision="FP32">
					<dim>1</dim>
					<dim>32</dim>
					<dim>1</dim>
					<dim>1</dim>
				</port>
			</output>
		</layer>
		<layer id="71" name="61136117_const" type="Const" version="opset1">
			<data element_type="f32" offset="28508" shape="1,32,1,1" size="128"/>
			<output>
				<port id="1" precision="FP32">
					<dim>1</dim>
					<dim>32</dim>
					<dim>1</dim>
					<dim>1</dim>
				</port>
			</output>
		</layer>
		<layer id="72" name="61146118_const" type="Const" version="opset1">
			<data element_type="f32" offset="28636" shape="1,32,1,1" size="128"/>
			<output>
				<port id="1" precision="FP32">
					<dim>1</dim>
					<dim>32</dim>
					<dim>1</dim>
					<dim>1</dim>
				</port>
			</output>
		</layer>
		<layer id="73" name="578/fq_input_0" type="FakeQuantize" version="opset1">
			<data levels="256"/>
			<input>
				<port id="0">
					<dim>1</dim>
					<dim>32</dim>
					<dim>64</dim>
					<dim>32</dim>
				</port>
				<port id="1">
					<dim>1</dim>
					<dim>32</dim>
					<dim>1</dim>
					<dim>1</dim>
				</port>
				<port id="2">
					<dim>1</dim>
					<dim>32</dim>
					<dim>1</dim>
					<dim>1</dim>
				</port>
				<port id="3">
					<dim>1</dim>
					<dim>32</dim>
					<dim>1</dim>
					<dim>1</dim>
				</port>
				<port id="4">
					<dim>1</dim>
					<dim>32</dim>
					<dim>1</dim>
					<dim>1</dim>
				</port>
			</input>
			<output>
				<port id="5" precision="FP32">
					<dim>1</dim>
					<dim>32</dim>
					<dim>64</dim>
					<dim>32</dim>
				</port>
			</output>
		</layer>
		<layer id="74" name="21321900_const" type="Const" version="opset1">
			<data element_type="f32" offset="28764" shape="32,1,3,3" size="1152"/>
			<output>
				<port id="1" precision="FP32">
					<dim>32</dim>
					<dim>1</dim>
					<dim>3</dim>
					<dim>3</dim>
				</port>
			</output>
		</layer>
		<layer id="75" name="61216125_const" type="Const" version="opset1">
			<data element_type="f32" offset="29916" shape="32,1,1,1" size="128"/>
			<output>
				<port id="1" precision="FP32">
					<dim>32</dim>
					<dim>1</dim>
					<dim>1</dim>
					<dim>1</dim>
				</port>
			</output>
		</layer>
		<layer id="76" name="61226126_const" type="Const" version="opset1">
			<data element_type="f32" offset="30044" shape="32,1,1,1" size="128"/>
			<output>
				<port id="1" precision="FP32">
					<dim>32</dim>
					<dim>1</dim>
					<dim>1</dim>
					<dim>1</dim>
				</port>
			</output>
		</layer>
		<layer id="77" name="61236127_const" type="Const" version="opset1">
			<data element_type="f32" offset="29916" shape="32,1,1,1" size="128"/>
			<output>
				<port id="1" precision="FP32">
					<dim>32</dim>
					<dim>1</dim>
					<dim>1</dim>
					<dim>1</dim>
				</port>
			</output>
		</layer>
		<layer id="78" name="61246128_const" type="Const" version="opset1">
			<data element_type="f32" offset="30044" shape="32,1,1,1" size="128"/>
			<output>
				<port id="1" precision="FP32">
					<dim>32</dim>
					<dim>1</dim>
					<dim>1</dim>
					<dim>1</dim>
				</port>
			</output>
		</layer>
		<layer id="79" name="578/fq_weights_1" type="FakeQuantize" version="opset1">
			<data levels="255"/>
			<input>
				<port id="0">
					<dim>32</dim>
					<dim>1</dim>
					<dim>3</dim>
					<dim>3</dim>
				</port>
				<port id="1">
					<dim>32</dim>
					<dim>1</dim>
					<dim>1</dim>
					<dim>1</dim>
				</port>
				<port id="2">
					<dim>32</dim>
					<dim>1</dim>
					<dim>1</dim>
					<dim>1</dim>
				</port>
				<port id="3">
					<dim>32</dim>
					<dim>1</dim>
					<dim>1</dim>
					<dim>1</dim>
				</port>
				<port id="4">
					<dim>32</dim>
					<dim>1</dim>
					<dim>1</dim>
					<dim>1</dim>
				</port>
			</input>
			<output>
				<port id="5" precision="FP32">
					<dim>32</dim>
					<dim>1</dim>
					<dim>3</dim>
					<dim>3</dim>
				</port>
			</output>
		</layer>
		<layer id="80" name="12770/value12772_const" type="Const" version="opset1">
			<data element_type="i64" offset="30172" shape="5" size="40"/>
			<output>
				<port id="1" precision="I64">
					<dim>5</dim>
				</port>
			</output>
		</layer>
		<layer id="81" name="12770" type="Reshape" version="opset1">
			<data special_zero="True"/>
			<input>
				<port id="0">
					<dim>32</dim>
					<dim>1</dim>
					<dim>3</dim>
					<dim>3</dim>
				</port>
				<port id="1">
					<dim>5</dim>
				</port>
			</input>
			<output>
				<port id="2" precision="FP32">
					<dim>32</dim>
					<dim>1</dim>
					<dim>1</dim>
					<dim>3</dim>
					<dim>3</dim>
				</port>
			</output>
		</layer>
		<layer id="82" name="578" type="GroupConvolution" version="opset1">
			<data dilations="1,1" output_padding="0,0" pads_begin="1,1" pads_end="1,1" strides="1,1"/>
			<input>
				<port id="0">
					<dim>1</dim>
					<dim>32</dim>
					<dim>64</dim>
					<dim>32</dim>
				</port>
				<port id="1">
					<dim>32</dim>
					<dim>1</dim>
					<dim>1</dim>
					<dim>3</dim>
					<dim>3</dim>
				</port>
			</input>
			<output>
				<port id="2" precision="FP32">
					<dim>1</dim>
					<dim>32</dim>
					<dim>64</dim>
					<dim>32</dim>
				</port>
			</output>
		</layer>
		<layer id="83" name="data_add_1850518510/copy_const1044_const" type="Const" version="opset1">
			<data element_type="f32" offset="30212" shape="1,32,1,1" size="128"/>
			<output>
				<port id="1" precision="FP32">
					<dim>1</dim>
					<dim>32</dim>
					<dim>1</dim>
					<dim>1</dim>
				</port>
			</output>
		</layer>
		<layer id="84" name="Add1_16295/Fused_Add_" type="Add" version="opset1">
			<input>
				<port id="0">
					<dim>1</dim>
					<dim>32</dim>
					<dim>64</dim>
					<dim>32</dim>
				</port>
				<port id="1">
					<dim>1</dim>
					<dim>32</dim>
					<dim>1</dim>
					<dim>1</dim>
				</port>
			</input>
			<output>
				<port id="2" precision="FP32">
					<dim>1</dim>
					<dim>32</dim>
					<dim>64</dim>
					<dim>32</dim>
				</port>
			</output>
		</layer>
		<layer id="85" name="580" type="ReLU" version="opset1">
			<input>
				<port id="0">
					<dim>1</dim>
					<dim>32</dim>
					<dim>64</dim>
					<dim>32</dim>
				</port>
			</input>
			<output>
				<port id="1" precision="FP32">
					<dim>1</dim>
					<dim>32</dim>
					<dim>64</dim>
					<dim>32</dim>
				</port>
			</output>
		</layer>
		<layer id="86" name="64016405_const" type="Const" version="opset1">
			<data element_type="f32" offset="19664" shape="" size="4"/>
			<output>
				<port id="1" precision="FP32"/>
			</output>
		</layer>
		<layer id="87" name="64026406_const" type="Const" version="opset1">
			<data element_type="f32" offset="30340" shape="" size="4"/>
			<output>
				<port id="1" precision="FP32"/>
			</output>
		</layer>
		<layer id="88" name="64036407_const" type="Const" version="opset1">
			<data element_type="f32" offset="19664" shape="" size="4"/>
			<output>
				<port id="1" precision="FP32"/>
			</output>
		</layer>
		<layer id="89" name="64046408_const" type="Const" version="opset1">
			<data element_type="f32" offset="30340" shape="" size="4"/>
			<output>
				<port id="1" precision="FP32"/>
			</output>
		</layer>
		<layer id="90" name="617/reduce/fq_input_0" type="FakeQuantize" version="opset1">
			<data levels="256"/>
			<input>
				<port id="0">
					<dim>1</dim>
					<dim>32</dim>
					<dim>64</dim>
					<dim>32</dim>
				</port>
				<port id="1"/>
				<port id="2"/>
				<port id="3"/>
				<port id="4"/>
			</input>
			<output>
				<port id="5" precision="FP32">
					<dim>1</dim>
					<dim>32</dim>
					<dim>64</dim>
					<dim>32</dim>
				</port>
			</output>
		</layer>
		<layer id="91" name="617/reduce/Cast_133253_const1047_const" type="Const" version="opset1">
			<data element_type="i64" offset="30344" shape="2" size="16"/>
			<output>
				<port id="1" precision="I64">
					<dim>2</dim>
				</port>
			</output>
		</layer>
		<layer id="92" name="617/reduce" type="ReduceMean" version="opset1">
			<data keep_dims="True"/>
			<input>
				<port id="0">
					<dim>1</dim>
					<dim>32</dim>
					<dim>64</dim>
					<dim>32</dim>
				</port>
				<port id="1">
					<dim>2</dim>
				</port>
			</input>
			<output>
				<port id="2" precision="FP32">
					<dim>1</dim>
					<dim>32</dim>
					<dim>1</dim>
					<dim>1</dim>
				</port>
			</output>
		</layer>
		<layer id="93" name="Copy_onnx_initializer_node_conv2.0.gate.fc1.weight/Output_0/Data__const1049_const" type="Const" version="opset1">
			<data element_type="f32" offset="30360" shape="2,32,1,1" size="256"/>
			<output>
				<port id="1" precision="FP32">
					<dim>2</dim>
					<dim>32</dim>
					<dim>1</dim>
					<dim>1</dim>
				</port>
			</output>
		</layer>
		<layer id="94" name="618/WithoutBiases" type="Convolution" version="opset1">
			<data dilations="1,1" output_padding="0,0" pads_begin="0,0" pads_end="0,0" strides="1,1"/>
			<input>
				<port id="0">
					<dim>1</dim>
					<dim>32</dim>
					<dim>1</dim>
					<dim>1</dim>
				</port>
				<port id="1">
					<dim>2</dim>
					<dim>32</dim>
					<dim>1</dim>
					<dim>1</dim>
				</port>
			</input>
			<output>
				<port id="2" precision="FP32">
					<dim>1</dim>
					<dim>2</dim>
					<dim>1</dim>
					<dim>1</dim>
				</port>
			</output>
		</layer>
		<layer id="95" name="618/Dims11461/copy_const1051_const" type="Const" version="opset1">
			<data element_type="f32" offset="30616" shape="1,2,1,1" size="8"/>
			<output>
				<port id="1" precision="FP32">
					<dim>1</dim>
					<dim>2</dim>
					<dim>1</dim>
					<dim>1</dim>
				</port>
			</output>
		</layer>
		<layer id="96" name="618" type="Add" version="opset1">
			<input>
				<port id="0">
					<dim>1</dim>
					<dim>2</dim>
					<dim>1</dim>
					<dim>1</dim>
				</port>
				<port id="1">
					<dim>1</dim>
					<dim>2</dim>
					<dim>1</dim>
					<dim>1</dim>
				</port>
			</input>
			<output>
				<port id="2" precision="FP32">
					<dim>1</dim>
					<dim>2</dim>
					<dim>1</dim>
					<dim>1</dim>
				</port>
			</output>
		</layer>
		<layer id="97" name="619" type="ReLU" version="opset1">
			<input>
				<port id="0">
					<dim>1</dim>
					<dim>2</dim>
					<dim>1</dim>
					<dim>1</dim>
				</port>
			</input>
			<output>
				<port id="1" precision="FP32">
					<dim>1</dim>
					<dim>2</dim>
					<dim>1</dim>
					<dim>1</dim>
				</port>
			</output>
		</layer>
		<layer id="98" name="Copy_onnx_initializer_node_conv2.0.gate.fc2.weight/Output_0/Data__const1054_const" type="Const" version="opset1">
			<data element_type="f32" offset="30624" shape="32,2,1,1" size="256"/>
			<output>
				<port id="1" precision="FP32">
					<dim>32</dim>
					<dim>2</dim>
					<dim>1</dim>
					<dim>1</dim>
				</port>
			</output>
		</layer>
		<layer id="99" name="620/WithoutBiases" type="Convolution" version="opset1">
			<data dilations="1,1" output_padding="0,0" pads_begin="0,0" pads_end="0,0" strides="1,1"/>
			<input>
				<port id="0">
					<dim>1</dim>
					<dim>2</dim>
					<dim>1</dim>
					<dim>1</dim>
				</port>
				<port id="1">
					<dim>32</dim>
					<dim>2</dim>
					<dim>1</dim>
					<dim>1</dim>
				</port>
			</input>
			<output>
				<port id="2" precision="FP32">
					<dim>1</dim>
					<dim>32</dim>
					<dim>1</dim>
					<dim>1</dim>
				</port>
			</output>
		</layer>
		<layer id="100" name="620/Dims11287/copy_const1056_const" type="Const" version="opset1">
			<data element_type="f32" offset="30880" shape="1,32,1,1" size="128"/>
			<output>
				<port id="1" precision="FP32">
					<dim>1</dim>
					<dim>32</dim>
					<dim>1</dim>
					<dim>1</dim>
				</port>
			</output>
		</layer>
		<layer id="101" name="620" type="Add" version="opset1">
			<input>
				<port id="0">
					<dim>1</dim>
					<dim>32</dim>
					<dim>1</dim>
					<dim>1</dim>
				</port>
				<port id="1">
					<dim>1</dim>
					<dim>32</dim>
					<dim>1</dim>
					<dim>1</dim>
				</port>
			</input>
			<output>
				<port id="2" precision="FP32">
					<dim>1</dim>
					<dim>32</dim>
					<dim>1</dim>
					<dim>1</dim>
				</port>
			</output>
		</layer>
		<layer id="102" name="621" type="Sigmoid" version="opset1">
			<input>
				<port id="0">
					<dim>1</dim>
					<dim>32</dim>
					<dim>1</dim>
					<dim>1</dim>
				</port>
			</input>
			<output>
				<port id="1" precision="FP32">
					<dim>1</dim>
					<dim>32</dim>
					<dim>1</dim>
					<dim>1</dim>
				</port>
			</output>
		</layer>
		<layer id="103" name="51315135_const" type="Const" version="opset1">
			<data element_type="f32" offset="19664" shape="" size="4"/>
			<output>
				<port id="1" precision="FP32"/>
			</output>
		</layer>
		<layer id="104" name="51325136_const" type="Const" version="opset1">
			<data element_type="f32" offset="31008" shape="" size="4"/>
			<output>
				<port id="1" precision="FP32"/>
			</output>
		</layer>
		<layer id="105" name="51335137_const" type="Const" version="opset1">
			<data element_type="f32" offset="19664" shape="" size="4"/>
			<output>
				<port id="1" precision="FP32"/>
			</output>
		</layer>
		<layer id="106" name="51345138_const" type="Const" version="opset1">
			<data element_type="f32" offset="31008" shape="" size="4"/>
			<output>
				<port id="1" precision="FP32"/>
			</output>
		</layer>
		<layer id="107" name="622/fq_input_1" type="FakeQuantize" version="opset1">
			<data levels="256"/>
			<input>
				<port id="0">
					<dim>1</dim>
					<dim>32</dim>
					<dim>1</dim>
					<dim>1</dim>
				</port>
				<port id="1"/>
				<port id="2"/>
				<port id="3"/>
				<port id="4"/>
			</input>
			<output>
				<port id="5" precision="FP32">
					<dim>1</dim>
					<dim>32</dim>
					<dim>1</dim>
					<dim>1</dim>
				</port>
			</output>
		</layer>
		<layer id="108" name="622" type="Multiply" version="opset1">
			<input>
				<port id="0">
					<dim>1</dim>
					<dim>32</dim>
					<dim>64</dim>
					<dim>32</dim>
				</port>
				<port id="1">
					<dim>1</dim>
					<dim>32</dim>
					<dim>1</dim>
					<dim>1</dim>
				</port>
			</input>
			<output>
				<port id="2" precision="FP32">
					<dim>1</dim>
					<dim>32</dim>
					<dim>64</dim>
					<dim>32</dim>
				</port>
			</output>
		</layer>
		<layer id="109" name="32913295_const" type="Const" version="opset1">
			<data element_type="f32" offset="19664" shape="" size="4"/>
			<output>
				<port id="1" precision="FP32"/>
			</output>
		</layer>
		<layer id="110" name="32923296_const" type="Const" version="opset1">
			<data element_type="f32" offset="31012" shape="" size="4"/>
			<output>
				<port id="1" precision="FP32"/>
			</output>
		</layer>
		<layer id="111" name="32933297_const" type="Const" version="opset1">
			<data element_type="f32" offset="19664" shape="" size="4"/>
			<output>
				<port id="1" precision="FP32"/>
			</output>
		</layer>
		<layer id="112" name="32943298_const" type="Const" version="opset1">
			<data element_type="f32" offset="31012" shape="" size="4"/>
			<output>
				<port id="1" precision="FP32"/>
			</output>
		</layer>
		<layer id="113" name="629/fq_input_0" type="FakeQuantize" version="opset1">
			<data levels="256"/>
			<input>
				<port id="0">
					<dim>1</dim>
					<dim>32</dim>
					<dim>64</dim>
					<dim>32</dim>
				</port>
				<port id="1"/>
				<port id="2"/>
				<port id="3"/>
				<port id="4"/>
			</input>
			<output>
				<port id="5" precision="FP32">
					<dim>1</dim>
					<dim>32</dim>
					<dim>64</dim>
					<dim>32</dim>
				</port>
			</output>
		</layer>
		<layer id="114" name="onnx_initializer_node_conv2.0.conv2b.0.conv1.weight/Output_0/Data__const1060_const" type="Const" version="opset1">
			<data element_type="f32" offset="31016" shape="32,32,1,1" size="4096"/>
			<output>
				<port id="1" precision="FP32">
					<dim>32</dim>
					<dim>32</dim>
					<dim>1</dim>
					<dim>1</dim>
				</port>
			</output>
		</layer>
		<layer id="115" name="66316635_const" type="Const" version="opset1">
			<data element_type="f32" offset="35112" shape="32,1,1,1" size="128"/>
			<output>
				<port id="1" precision="FP32">
					<dim>32</dim>
					<dim>1</dim>
					<dim>1</dim>
					<dim>1</dim>
				</port>
			</output>
		</layer>
		<layer id="116" name="66326636_const" type="Const" version="opset1">
			<data element_type="f32" offset="35240" shape="32,1,1,1" size="128"/>
			<output>
				<port id="1" precision="FP32">
					<dim>32</dim>
					<dim>1</dim>
					<dim>1</dim>
					<dim>1</dim>
				</port>
			</output>
		</layer>
		<layer id="117" name="66336637_const" type="Const" version="opset1">
			<data element_type="f32" offset="35112" shape="32,1,1,1" size="128"/>
			<output>
				<port id="1" precision="FP32">
					<dim>32</dim>
					<dim>1</dim>
					<dim>1</dim>
					<dim>1</dim>
				</port>
			</output>
		</layer>
		<layer id="118" name="66346638_const" type="Const" version="opset1">
			<data element_type="f32" offset="35240" shape="32,1,1,1" size="128"/>
			<output>
				<port id="1" precision="FP32">
					<dim>32</dim>
					<dim>1</dim>
					<dim>1</dim>
					<dim>1</dim>
				</port>
			</output>
		</layer>
		<layer id="119" name="581/fq_weights_1" type="FakeQuantize" version="opset1">
			<data levels="255"/>
			<input>
				<port id="0">
					<dim>32</dim>
					<dim>32</dim>
					<dim>1</dim>
					<dim>1</dim>
				</port>
				<port id="1">
					<dim>32</dim>
					<dim>1</dim>
					<dim>1</dim>
					<dim>1</dim>
				</port>
				<port id="2">
					<dim>32</dim>
					<dim>1</dim>
					<dim>1</dim>
					<dim>1</dim>
				</port>
				<port id="3">
					<dim>32</dim>
					<dim>1</dim>
					<dim>1</dim>
					<dim>1</dim>
				</port>
				<port id="4">
					<dim>32</dim>
					<dim>1</dim>
					<dim>1</dim>
					<dim>1</dim>
				</port>
			</input>
			<output>
				<port id="5" precision="FP32">
					<dim>32</dim>
					<dim>32</dim>
					<dim>1</dim>
					<dim>1</dim>
				</port>
			</output>
		</layer>
		<layer id="120" name="581" type="Convolution" version="opset1">
			<data dilations="1,1" output_padding="0,0" pads_begin="0,0" pads_end="0,0" strides="1,1"/>
			<input>
				<port id="0">
					<dim>1</dim>
					<dim>32</dim>
					<dim>64</dim>
					<dim>32</dim>
				</port>
				<port id="1">
					<dim>32</dim>
					<dim>32</dim>
					<dim>1</dim>
					<dim>1</dim>
				</port>
			</input>
			<output>
				<port id="2" precision="FP32">
					<dim>1</dim>
					<dim>32</dim>
					<dim>64</dim>
					<dim>32</dim>
				</port>
			</output>
		</layer>
		<layer id="121" name="60716075_const" type="Const" version="opset1">
			<data element_type="f32" offset="35368" shape="1,32,1,1" size="128"/>
			<output>
				<port id="1" precision="FP32">
					<dim>1</dim>
					<dim>32</dim>
					<dim>1</dim>
					<dim>1</dim>
				</port>
			</output>
		</layer>
		<layer id="122" name="60726076_const" type="Const" version="opset1">
			<data element_type="f32" offset="35496" shape="1,32,1,1" size="128"/>
			<output>
				<port id="1" precision="FP32">
					<dim>1</dim>
					<dim>32</dim>
					<dim>1</dim>
					<dim>1</dim>
				</port>
			</output>
		</layer>
		<layer id="123" name="60736077_const" type="Const" version="opset1">
			<data element_type="f32" offset="35368" shape="1,32,1,1" size="128"/>
			<output>
				<port id="1" precision="FP32">
					<dim>1</dim>
					<dim>32</dim>
					<dim>1</dim>
					<dim>1</dim>
				</port>
			</output>
		</layer>
		<layer id="124" name="60746078_const" type="Const" version="opset1">
			<data element_type="f32" offset="35496" shape="1,32,1,1" size="128"/>
			<output>
				<port id="1" precision="FP32">
					<dim>1</dim>
					<dim>32</dim>
					<dim>1</dim>
					<dim>1</dim>
				</port>
			</output>
		</layer>
		<layer id="125" name="582/fq_input_0" type="FakeQuantize" version="opset1">
			<data levels="256"/>
			<input>
				<port id="0">
					<dim>1</dim>
					<dim>32</dim>
					<dim>64</dim>
					<dim>32</dim>
				</port>
				<port id="1">
					<dim>1</dim>
					<dim>32</dim>
					<dim>1</dim>
					<dim>1</dim>
				</port>
				<port id="2">
					<dim>1</dim>
					<dim>32</dim>
					<dim>1</dim>
					<dim>1</dim>
				</port>
				<port id="3">
					<dim>1</dim>
					<dim>32</dim>
					<dim>1</dim>
					<dim>1</dim>
				</port>
				<port id="4">
					<dim>1</dim>
					<dim>32</dim>
					<dim>1</dim>
					<dim>1</dim>
				</port>
			</input>
			<output>
				<port id="5" precision="FP32">
					<dim>1</dim>
					<dim>32</dim>
					<dim>64</dim>
					<dim>32</dim>
				</port>
			</output>
		</layer>
		<layer id="126" name="21361902_const" type="Const" version="opset1">
			<data element_type="f32" offset="35624" shape="32,1,3,3" size="1152"/>
			<output>
				<port id="1" precision="FP32">
					<dim>32</dim>
					<dim>1</dim>
					<dim>3</dim>
					<dim>3</dim>
				</port>
			</output>
		</layer>
		<layer id="127" name="60816085_const" type="Const" version="opset1">
			<data element_type="f32" offset="36776" shape="32,1,1,1" size="128"/>
			<output>
				<port id="1" precision="FP32">
					<dim>32</dim>
					<dim>1</dim>
					<dim>1</dim>
					<dim>1</dim>
				</port>
			</output>
		</layer>
		<layer id="128" name="60826086_const" type="Const" version="opset1">
			<data element_type="f32" offset="36904" shape="32,1,1,1" size="128"/>
			<output>
				<port id="1" precision="FP32">
					<dim>32</dim>
					<dim>1</dim>
					<dim>1</dim>
					<dim>1</dim>
				</port>
			</output>
		</layer>
		<layer id="129" name="60836087_const" type="Const" version="opset1">
			<data element_type="f32" offset="36776" shape="32,1,1,1" size="128"/>
			<output>
				<port id="1" precision="FP32">
					<dim>32</dim>
					<dim>1</dim>
					<dim>1</dim>
					<dim>1</dim>
				</port>
			</output>
		</layer>
		<layer id="130" name="60846088_const" type="Const" version="opset1">
			<data element_type="f32" offset="36904" shape="32,1,1,1" size="128"/>
			<output>
				<port id="1" precision="FP32">
					<dim>32</dim>
					<dim>1</dim>
					<dim>1</dim>
					<dim>1</dim>
				</port>
			</output>
		</layer>
		<layer id="131" name="582/fq_weights_1" type="FakeQuantize" version="opset1">
			<data levels="255"/>
			<input>
				<port id="0">
					<dim>32</dim>
					<dim>1</dim>
					<dim>3</dim>
					<dim>3</dim>
				</port>
				<port id="1">
					<dim>32</dim>
					<dim>1</dim>
					<dim>1</dim>
					<dim>1</dim>
				</port>
				<port id="2">
					<dim>32</dim>
					<dim>1</dim>
					<dim>1</dim>
					<dim>1</dim>
				</port>
				<port id="3">
					<dim>32</dim>
					<dim>1</dim>
					<dim>1</dim>
					<dim>1</dim>
				</port>
				<port id="4">
					<dim>32</dim>
					<dim>1</dim>
					<dim>1</dim>
					<dim>1</dim>
				</port>
			</input>
			<output>
				<port id="5" precision="FP32">
					<dim>32</dim>
					<dim>1</dim>
					<dim>3</dim>
					<dim>3</dim>
				</port>
			</output>
		</layer>
		<layer id="132" name="12766/value12768_const" type="Const" version="opset1">
			<data element_type="i64" offset="30172" shape="5" size="40"/>
			<output>
				<port id="1" precision="I64">
					<dim>5</dim>
				</port>
			</output>
		</layer>
		<layer id="133" name="12766" type="Reshape" version="opset1">
			<data special_zero="True"/>
			<input>
				<port id="0">
					<dim>32</dim>
					<dim>1</dim>
					<dim>3</dim>
					<dim>3</dim>
				</port>
				<port id="1">
					<dim>5</dim>
				</port>
			</input>
			<output>
				<port id="2" precision="FP32">
					<dim>32</dim>
					<dim>1</dim>
					<dim>1</dim>
					<dim>3</dim>
					<dim>3</dim>
				</port>
			</output>
		</layer>
		<layer id="134" name="582" type="GroupConvolution" version="opset1">
			<data dilations="1,1" output_padding="0,0" pads_begin="1,1" pads_end="1,1" strides="1,1"/>
			<input>
				<port id="0">
					<dim>1</dim>
					<dim>32</dim>
					<dim>64</dim>
					<dim>32</dim>
				</port>
				<port id="1">
					<dim>32</dim>
					<dim>1</dim>
					<dim>1</dim>
					<dim>3</dim>
					<dim>3</dim>
				</port>
			</input>
			<output>
				<port id="2" precision="FP32">
					<dim>1</dim>
					<dim>32</dim>
					<dim>64</dim>
					<dim>32</dim>
				</port>
			</output>
		</layer>
		<layer id="135" name="data_add_1848918494/copy_const1064_const" type="Const" version="opset1">
			<data element_type="f32" offset="37032" shape="1,32,1,1" size="128"/>
			<output>
				<port id="1" precision="FP32">
					<dim>1</dim>
					<dim>32</dim>
					<dim>1</dim>
					<dim>1</dim>
				</port>
			</output>
		</layer>
		<layer id="136" name="Add1_16307/Fused_Add_" type="Add" version="opset1">
			<input>
				<port id="0">
					<dim>1</dim>
					<dim>32</dim>
					<dim>64</dim>
					<dim>32</dim>
				</port>
				<port id="1">
					<dim>1</dim>
					<dim>32</dim>
					<dim>1</dim>
					<dim>1</dim>
				</port>
			</input>
			<output>
				<port id="2" precision="FP32">
					<dim>1</dim>
					<dim>32</dim>
					<dim>64</dim>
					<dim>32</dim>
				</port>
			</output>
		</layer>
		<layer id="137" name="584" type="ReLU" version="opset1">
			<input>
				<port id="0">
					<dim>1</dim>
					<dim>32</dim>
					<dim>64</dim>
					<dim>32</dim>
				</port>
			</input>
			<output>
				<port id="1" precision="FP32">
					<dim>1</dim>
					<dim>32</dim>
					<dim>64</dim>
					<dim>32</dim>
				</port>
			</output>
		</layer>
		<layer id="138" name="34313435_const" type="Const" version="opset1">
			<data element_type="f32" offset="19664" shape="" size="4"/>
			<output>
				<port id="1" precision="FP32"/>
			</output>
		</layer>
		<layer id="139" name="34323436_const" type="Const" version="opset1">
			<data element_type="f32" offset="37160" shape="" size="4"/>
			<output>
				<port id="1" precision="FP32"/>
			</output>
		</layer>
		<layer id="140" name="34333437_const" type="Const" version="opset1">
			<data element_type="f32" offset="19664" shape="" size="4"/>
			<output>
				<port id="1" precision="FP32"/>
			</output>
		</layer>
		<layer id="141" name="34343438_const" type="Const" version="opset1">
			<data element_type="f32" offset="37160" shape="" size="4"/>
			<output>
				<port id="1" precision="FP32"/>
			</output>
		</layer>
		<layer id="142" name="585/fq_input_0" type="FakeQuantize" version="opset1">
			<data levels="256"/>
			<input>
				<port id="0">
					<dim>1</dim>
					<dim>32</dim>
					<dim>64</dim>
					<dim>32</dim>
				</port>
				<port id="1"/>
				<port id="2"/>
				<port id="3"/>
				<port id="4"/>
			</input>
			<output>
				<port id="5" precision="FP32">
					<dim>1</dim>
					<dim>32</dim>
					<dim>64</dim>
					<dim>32</dim>
				</port>
			</output>
		</layer>
		<layer id="143" name="onnx_initializer_node_conv2.0.conv2b.1.conv1.weight/Output_0/Data__const1067_const" type="Const" version="opset1">
			<data element_type="f32" offset="37164" shape="32,32,1,1" size="4096"/>
			<output>
				<port id="1" precision="FP32">
					<dim>32</dim>
					<dim>32</dim>
					<dim>1</dim>
					<dim>1</dim>
				</port>
			</output>
		</layer>
		<layer id="144" name="34413445_const" type="Const" version="opset1">
			<data element_type="f32" offset="41260" shape="32,1,1,1" size="128"/>
			<output>
				<port id="1" precision="FP32">
					<dim>32</dim>
					<dim>1</dim>
					<dim>1</dim>
					<dim>1</dim>
				</port>
			</output>
		</layer>
		<layer id="145" name="34423446_const" type="Const" version="opset1">
			<data element_type="f32" offset="41388" shape="32,1,1,1" size="128"/>
			<output>
				<port id="1" precision="FP32">
					<dim>32</dim>
					<dim>1</dim>
					<dim>1</dim>
					<dim>1</dim>
				</port>
			</output>
		</layer>
		<layer id="146" name="34433447_const" type="Const" version="opset1">
			<data element_type="f32" offset="41260" shape="32,1,1,1" size="128"/>
			<output>
				<port id="1" precision="FP32">
					<dim>32</dim>
					<dim>1</dim>
					<dim>1</dim>
					<dim>1</dim>
				</port>
			</output>
		</layer>
		<layer id="147" name="34443448_const" type="Const" version="opset1">
			<data element_type="f32" offset="41388" shape="32,1,1,1" size="128"/>
			<output>
				<port id="1" precision="FP32">
					<dim>32</dim>
					<dim>1</dim>
					<dim>1</dim>
					<dim>1</dim>
				</port>
			</output>
		</layer>
		<layer id="148" name="585/fq_weights_1" type="FakeQuantize" version="opset1">
			<data levels="255"/>
			<input>
				<port id="0">
					<dim>32</dim>
					<dim>32</dim>
					<dim>1</dim>
					<dim>1</dim>
				</port>
				<port id="1">
					<dim>32</dim>
					<dim>1</dim>
					<dim>1</dim>
					<dim>1</dim>
				</port>
				<port id="2">
					<dim>32</dim>
					<dim>1</dim>
					<dim>1</dim>
					<dim>1</dim>
				</port>
				<port id="3">
					<dim>32</dim>
					<dim>1</dim>
					<dim>1</dim>
					<dim>1</dim>
				</port>
				<port id="4">
					<dim>32</dim>
					<dim>1</dim>
					<dim>1</dim>
					<dim>1</dim>
				</port>
			</input>
			<output>
				<port id="5" precision="FP32">
					<dim>32</dim>
					<dim>32</dim>
					<dim>1</dim>
					<dim>1</dim>
				</port>
			</output>
		</layer>
		<layer id="149" name="585" type="Convolution" version="opset1">
			<data dilations="1,1" output_padding="0,0" pads_begin="0,0" pads_end="0,0" strides="1,1"/>
			<input>
				<port id="0">
					<dim>1</dim>
					<dim>32</dim>
					<dim>64</dim>
					<dim>32</dim>
				</port>
				<port id="1">
					<dim>32</dim>
					<dim>32</dim>
					<dim>1</dim>
					<dim>1</dim>
				</port>
			</input>
			<output>
				<port id="2" precision="FP32">
					<dim>1</dim>
					<dim>32</dim>
					<dim>64</dim>
					<dim>32</dim>
				</port>
			</output>
		</layer>
		<layer id="150" name="56015605_const" type="Const" version="opset1">
			<data element_type="f32" offset="41516" shape="1,32,1,1" size="128"/>
			<output>
				<port id="1" precision="FP32">
					<dim>1</dim>
					<dim>32</dim>
					<dim>1</dim>
					<dim>1</dim>
				</port>
			</output>
		</layer>
		<layer id="151" name="56025606_const" type="Const" version="opset1">
			<data element_type="f32" offset="41644" shape="1,32,1,1" size="128"/>
			<output>
				<port id="1" precision="FP32">
					<dim>1</dim>
					<dim>32</dim>
					<dim>1</dim>
					<dim>1</dim>
				</port>
			</output>
		</layer>
		<layer id="152" name="56035607_const" type="Const" version="opset1">
			<data element_type="f32" offset="41516" shape="1,32,1,1" size="128"/>
			<output>
				<port id="1" precision="FP32">
					<dim>1</dim>
					<dim>32</dim>
					<dim>1</dim>
					<dim>1</dim>
				</port>
			</output>
		</layer>
		<layer id="153" name="56045608_const" type="Const" version="opset1">
			<data element_type="f32" offset="41644" shape="1,32,1,1" size="128"/>
			<output>
				<port id="1" precision="FP32">
					<dim>1</dim>
					<dim>32</dim>
					<dim>1</dim>
					<dim>1</dim>
				</port>
			</output>
		</layer>
		<layer id="154" name="586/fq_input_0" type="FakeQuantize" version="opset1">
			<data levels="256"/>
			<input>
				<port id="0">
					<dim>1</dim>
					<dim>32</dim>
					<dim>64</dim>
					<dim>32</dim>
				</port>
				<port id="1">
					<dim>1</dim>
					<dim>32</dim>
					<dim>1</dim>
					<dim>1</dim>
				</port>
				<port id="2">
					<dim>1</dim>
					<dim>32</dim>
					<dim>1</dim>
					<dim>1</dim>
				</port>
				<port id="3">
					<dim>1</dim>
					<dim>32</dim>
					<dim>1</dim>
					<dim>1</dim>
				</port>
				<port id="4">
					<dim>1</dim>
					<dim>32</dim>
					<dim>1</dim>
					<dim>1</dim>
				</port>
			</input>
			<output>
				<port id="5" precision="FP32">
					<dim>1</dim>
					<dim>32</dim>
					<dim>64</dim>
					<dim>32</dim>
				</port>
			</output>
		</layer>
		<layer id="155" name="21401904_const" type="Const" version="opset1">
			<data element_type="f32" offset="41772" shape="32,1,3,3" size="1152"/>
			<output>
				<port id="1" precision="FP32">
					<dim>32</dim>
					<dim>1</dim>
					<dim>3</dim>
					<dim>3</dim>
				</port>
			</output>
		</layer>
		<layer id="156" name="56115615_const" type="Const" version="opset1">
			<data element_type="f32" offset="42924" shape="32,1,1,1" size="128"/>
			<output>
				<port id="1" precision="FP32">
					<dim>32</dim>
					<dim>1</dim>
					<dim>1</dim>
					<dim>1</dim>
				</port>
			</output>
		</layer>
		<layer id="157" name="56125616_const" type="Const" version="opset1">
			<data element_type="f32" offset="43052" shape="32,1,1,1" size="128"/>
			<output>
				<port id="1" precision="FP32">
					<dim>32</dim>
					<dim>1</dim>
					<dim>1</dim>
					<dim>1</dim>
				</port>
			</output>
		</layer>
		<layer id="158" name="56135617_const" type="Const" version="opset1">
			<data element_type="f32" offset="42924" shape="32,1,1,1" size="128"/>
			<output>
				<port id="1" precision="FP32">
					<dim>32</dim>
					<dim>1</dim>
					<dim>1</dim>
					<dim>1</dim>
				</port>
			</output>
		</layer>
		<layer id="159" name="56145618_const" type="Const" version="opset1">
			<data element_type="f32" offset="43052" shape="32,1,1,1" size="128"/>
			<output>
				<port id="1" precision="FP32">
					<dim>32</dim>
					<dim>1</dim>
					<dim>1</dim>
					<dim>1</dim>
				</port>
			</output>
		</layer>
		<layer id="160" name="586/fq_weights_1" type="FakeQuantize" version="opset1">
			<data levels="255"/>
			<input>
				<port id="0">
					<dim>32</dim>
					<dim>1</dim>
					<dim>3</dim>
					<dim>3</dim>
				</port>
				<port id="1">
					<dim>32</dim>
					<dim>1</dim>
					<dim>1</dim>
					<dim>1</dim>
				</port>
				<port id="2">
					<dim>32</dim>
					<dim>1</dim>
					<dim>1</dim>
					<dim>1</dim>
				</port>
				<port id="3">
					<dim>32</dim>
					<dim>1</dim>
					<dim>1</dim>
					<dim>1</dim>
				</port>
				<port id="4">
					<dim>32</dim>
					<dim>1</dim>
					<dim>1</dim>
					<dim>1</dim>
				</port>
			</input>
			<output>
				<port id="5" precision="FP32">
					<dim>32</dim>
					<dim>1</dim>
					<dim>3</dim>
					<dim>3</dim>
				</port>
			</output>
		</layer>
		<layer id="161" name="12738/value12740_const" type="Const" version="opset1">
			<data element_type="i64" offset="30172" shape="5" size="40"/>
			<output>
				<port id="1" precision="I64">
					<dim>5</dim>
				</port>
			</output>
		</layer>
		<layer id="162" name="12738" type="Reshape" version="opset1">
			<data special_zero="True"/>
			<input>
				<port id="0">
					<dim>32</dim>
					<dim>1</dim>
					<dim>3</dim>
					<dim>3</dim>
				</port>
				<port id="1">
					<dim>5</dim>
				</port>
			</input>
			<output>
				<port id="2" precision="FP32">
					<dim>32</dim>
					<dim>1</dim>
					<dim>1</dim>
					<dim>3</dim>
					<dim>3</dim>
				</port>
			</output>
		</layer>
		<layer id="163" name="586" type="GroupConvolution" version="opset1">
			<data dilations="1,1" output_padding="0,0" pads_begin="1,1" pads_end="1,1" strides="1,1"/>
			<input>
				<port id="0">
					<dim>1</dim>
					<dim>32</dim>
					<dim>64</dim>
					<dim>32</dim>
				</port>
				<port id="1">
					<dim>32</dim>
					<dim>1</dim>
					<dim>1</dim>
					<dim>3</dim>
					<dim>3</dim>
				</port>
			</input>
			<output>
				<port id="2" precision="FP32">
					<dim>1</dim>
					<dim>32</dim>
					<dim>64</dim>
					<dim>32</dim>
				</port>
			</output>
		</layer>
		<layer id="164" name="data_add_1849718502/copy_const1071_const" type="Const" version="opset1">
			<data element_type="f32" offset="43180" shape="1,32,1,1" size="128"/>
			<output>
				<port id="1" precision="FP32">
					<dim>1</dim>
					<dim>32</dim>
					<dim>1</dim>
					<dim>1</dim>
				</port>
			</output>
		</layer>
		<layer id="165" name="Add1_16319/Fused_Add_" type="Add" version="opset1">
			<input>
				<port id="0">
					<dim>1</dim>
					<dim>32</dim>
					<dim>64</dim>
					<dim>32</dim>
				</port>
				<port id="1">
					<dim>1</dim>
					<dim>32</dim>
					<dim>1</dim>
					<dim>1</dim>
				</port>
			</input>
			<output>
				<port id="2" precision="FP32">
					<dim>1</dim>
					<dim>32</dim>
					<dim>64</dim>
					<dim>32</dim>
				</port>
			</output>
		</layer>
		<layer id="166" name="588" type="ReLU" version="opset1">
			<input>
				<port id="0">
					<dim>1</dim>
					<dim>32</dim>
					<dim>64</dim>
					<dim>32</dim>
				</port>
			</input>
			<output>
				<port id="1" precision="FP32">
					<dim>1</dim>
					<dim>32</dim>
					<dim>64</dim>
					<dim>32</dim>
				</port>
			</output>
		</layer>
		<layer id="167" name="40114015_const" type="Const" version="opset1">
			<data element_type="f32" offset="19664" shape="" size="4"/>
			<output>
				<port id="1" precision="FP32"/>
			</output>
		</layer>
		<layer id="168" name="40124016_const" type="Const" version="opset1">
			<data element_type="f32" offset="43308" shape="" size="4"/>
			<output>
				<port id="1" precision="FP32"/>
			</output>
		</layer>
		<layer id="169" name="40134017_const" type="Const" version="opset1">
			<data element_type="f32" offset="19664" shape="" size="4"/>
			<output>
				<port id="1" precision="FP32"/>
			</output>
		</layer>
		<layer id="170" name="40144018_const" type="Const" version="opset1">
			<data element_type="f32" offset="43308" shape="" size="4"/>
			<output>
				<port id="1" precision="FP32"/>
			</output>
		</layer>
		<layer id="171" name="623/reduce/fq_input_0" type="FakeQuantize" version="opset1">
			<data levels="256"/>
			<input>
				<port id="0">
					<dim>1</dim>
					<dim>32</dim>
					<dim>64</dim>
					<dim>32</dim>
				</port>
				<port id="1"/>
				<port id="2"/>
				<port id="3"/>
				<port id="4"/>
			</input>
			<output>
				<port id="5" precision="FP32">
					<dim>1</dim>
					<dim>32</dim>
					<dim>64</dim>
					<dim>32</dim>
				</port>
			</output>
		</layer>
		<layer id="172" name="623/reduce/Cast_133223_const1074_const" type="Const" version="opset1">
			<data element_type="i64" offset="30344" shape="2" size="16"/>
			<output>
				<port id="1" precision="I64">
					<dim>2</dim>
				</port>
			</output>
		</layer>
		<layer id="173" name="623/reduce" type="ReduceMean" version="opset1">
			<data keep_dims="True"/>
			<input>
				<port id="0">
					<dim>1</dim>
					<dim>32</dim>
					<dim>64</dim>
					<dim>32</dim>
				</port>
				<port id="1">
					<dim>2</dim>
				</port>
			</input>
			<output>
				<port id="2" precision="FP32">
					<dim>1</dim>
					<dim>32</dim>
					<dim>1</dim>
					<dim>1</dim>
				</port>
			</output>
		</layer>
		<layer id="174" name="Copy_onnx_initializer_node_conv2.0.gate.fc1.weight/Output_0/Data_3522_const1076_const" type="Const" version="opset1">
			<data element_type="f32" offset="30360" shape="2,32,1,1" size="256"/>
			<output>
				<port id="1" precision="FP32">
					<dim>2</dim>
					<dim>32</dim>
					<dim>1</dim>
					<dim>1</dim>
				</port>
			</output>
		</layer>
		<layer id="175" name="624/WithoutBiases" type="Convolution" version="opset1">
			<data dilations="1,1" output_padding="0,0" pads_begin="0,0" pads_end="0,0" strides="1,1"/>
			<input>
				<port id="0">
					<dim>1</dim>
					<dim>32</dim>
					<dim>1</dim>
					<dim>1</dim>
				</port>
				<port id="1">
					<dim>2</dim>
					<dim>32</dim>
					<dim>1</dim>
					<dim>1</dim>
				</port>
			</input>
			<output>
				<port id="2" precision="FP32">
					<dim>1</dim>
					<dim>2</dim>
					<dim>1</dim>
					<dim>1</dim>
				</port>
			</output>
		</layer>
		<layer id="176" name="624/Dims11521/copy_const1078_const" type="Const" version="opset1">
			<data element_type="f32" offset="30616" shape="1,2,1,1" size="8"/>
			<output>
				<port id="1" precision="FP32">
					<dim>1</dim>
					<dim>2</dim>
					<dim>1</dim>
					<dim>1</dim>
				</port>
			</output>
		</layer>
		<layer id="177" name="624" type="Add" version="opset1">
			<input>
				<port id="0">
					<dim>1</dim>
					<dim>2</dim>
					<dim>1</dim>
					<dim>1</dim>
				</port>
				<port id="1">
					<dim>1</dim>
					<dim>2</dim>
					<dim>1</dim>
					<dim>1</dim>
				</port>
			</input>
			<output>
				<port id="2" precision="FP32">
					<dim>1</dim>
					<dim>2</dim>
					<dim>1</dim>
					<dim>1</dim>
				</port>
			</output>
		</layer>
		<layer id="178" name="625" type="ReLU" version="opset1">
			<input>
				<port id="0">
					<dim>1</dim>
					<dim>2</dim>
					<dim>1</dim>
					<dim>1</dim>
				</port>
			</input>
			<output>
				<port id="1" precision="FP32">
					<dim>1</dim>
					<dim>2</dim>
					<dim>1</dim>
					<dim>1</dim>
				</port>
			</output>
		</layer>
		<layer id="179" name="Copy_onnx_initializer_node_conv2.0.gate.fc2.weight/Output_0/Data_3530_const1081_const" type="Const" version="opset1">
			<data element_type="f32" offset="30624" shape="32,2,1,1" size="256"/>
			<output>
				<port id="1" precision="FP32">
					<dim>32</dim>
					<dim>2</dim>
					<dim>1</dim>
					<dim>1</dim>
				</port>
			</output>
		</layer>
		<layer id="180" name="626/WithoutBiases" type="Convolution" version="opset1">
			<data dilations="1,1" output_padding="0,0" pads_begin="0,0" pads_end="0,0" strides="1,1"/>
			<input>
				<port id="0">
					<dim>1</dim>
					<dim>2</dim>
					<dim>1</dim>
					<dim>1</dim>
				</port>
				<port id="1">
					<dim>32</dim>
					<dim>2</dim>
					<dim>1</dim>
					<dim>1</dim>
				</port>
			</input>
			<output>
				<port id="2" precision="FP32">
					<dim>1</dim>
					<dim>32</dim>
					<dim>1</dim>
					<dim>1</dim>
				</port>
			</output>
		</layer>
		<layer id="181" name="626/Dims11449/copy_const1083_const" type="Const" version="opset1">
			<data element_type="f32" offset="30880" shape="1,32,1,1" size="128"/>
			<output>
				<port id="1" precision="FP32">
					<dim>1</dim>
					<dim>32</dim>
					<dim>1</dim>
					<dim>1</dim>
				</port>
			</output>
		</layer>
		<layer id="182" name="626" type="Add" version="opset1">
			<input>
				<port id="0">
					<dim>1</dim>
					<dim>32</dim>
					<dim>1</dim>
					<dim>1</dim>
				</port>
				<port id="1">
					<dim>1</dim>
					<dim>32</dim>
					<dim>1</dim>
					<dim>1</dim>
				</port>
			</input>
			<output>
				<port id="2" precision="FP32">
					<dim>1</dim>
					<dim>32</dim>
					<dim>1</dim>
					<dim>1</dim>
				</port>
			</output>
		</layer>
		<layer id="183" name="627" type="Sigmoid" version="opset1">
			<input>
				<port id="0">
					<dim>1</dim>
					<dim>32</dim>
					<dim>1</dim>
					<dim>1</dim>
				</port>
			</input>
			<output>
				<port id="1" precision="FP32">
					<dim>1</dim>
					<dim>32</dim>
					<dim>1</dim>
					<dim>1</dim>
				</port>
			</output>
		</layer>
		<layer id="184" name="48014805_const" type="Const" version="opset1">
			<data element_type="f32" offset="19664" shape="" size="4"/>
			<output>
				<port id="1" precision="FP32"/>
			</output>
		</layer>
		<layer id="185" name="48024806_const" type="Const" version="opset1">
			<data element_type="f32" offset="43312" shape="" size="4"/>
			<output>
				<port id="1" precision="FP32"/>
			</output>
		</layer>
		<layer id="186" name="48034807_const" type="Const" version="opset1">
			<data element_type="f32" offset="19664" shape="" size="4"/>
			<output>
				<port id="1" precision="FP32"/>
			</output>
		</layer>
		<layer id="187" name="48044808_const" type="Const" version="opset1">
			<data element_type="f32" offset="43312" shape="" size="4"/>
			<output>
				<port id="1" precision="FP32"/>
			</output>
		</layer>
		<layer id="188" name="628/fq_input_1" type="FakeQuantize" version="opset1">
			<data levels="256"/>
			<input>
				<port id="0">
					<dim>1</dim>
					<dim>32</dim>
					<dim>1</dim>
					<dim>1</dim>
				</port>
				<port id="1"/>
				<port id="2"/>
				<port id="3"/>
				<port id="4"/>
			</input>
			<output>
				<port id="5" precision="FP32">
					<dim>1</dim>
					<dim>32</dim>
					<dim>1</dim>
					<dim>1</dim>
				</port>
			</output>
		</layer>
		<layer id="189" name="628" type="Multiply" version="opset1">
			<input>
				<port id="0">
					<dim>1</dim>
					<dim>32</dim>
					<dim>64</dim>
					<dim>32</dim>
				</port>
				<port id="1">
					<dim>1</dim>
					<dim>32</dim>
					<dim>1</dim>
					<dim>1</dim>
				</port>
			</input>
			<output>
				<port id="2" precision="FP32">
					<dim>1</dim>
					<dim>32</dim>
					<dim>64</dim>
					<dim>32</dim>
				</port>
			</output>
		</layer>
		<layer id="190" name="33013305_const" type="Const" version="opset1">
			<data element_type="f32" offset="19664" shape="" size="4"/>
			<output>
				<port id="1" precision="FP32"/>
			</output>
		</layer>
		<layer id="191" name="33023306_const" type="Const" version="opset1">
			<data element_type="f32" offset="43316" shape="" size="4"/>
			<output>
				<port id="1" precision="FP32"/>
			</output>
		</layer>
		<layer id="192" name="33033307_const" type="Const" version="opset1">
			<data element_type="f32" offset="19664" shape="" size="4"/>
			<output>
				<port id="1" precision="FP32"/>
			</output>
		</layer>
		<layer id="193" name="33043308_const" type="Const" version="opset1">
			<data element_type="f32" offset="43316" shape="" size="4"/>
			<output>
				<port id="1" precision="FP32"/>
			</output>
		</layer>
		<layer id="194" name="629/fq_input_1" type="FakeQuantize" version="opset1">
			<data levels="256"/>
			<input>
				<port id="0">
					<dim>1</dim>
					<dim>32</dim>
					<dim>64</dim>
					<dim>32</dim>
				</port>
				<port id="1"/>
				<port id="2"/>
				<port id="3"/>
				<port id="4"/>
			</input>
			<output>
				<port id="5" precision="FP32">
					<dim>1</dim>
					<dim>32</dim>
					<dim>64</dim>
					<dim>32</dim>
				</port>
			</output>
		</layer>
		<layer id="195" name="629" type="Add" version="opset1">
			<input>
				<port id="0">
					<dim>1</dim>
					<dim>32</dim>
					<dim>64</dim>
					<dim>32</dim>
				</port>
				<port id="1">
					<dim>1</dim>
					<dim>32</dim>
					<dim>64</dim>
					<dim>32</dim>
				</port>
			</input>
			<output>
				<port id="2" precision="FP32">
					<dim>1</dim>
					<dim>32</dim>
					<dim>64</dim>
					<dim>32</dim>
				</port>
			</output>
		</layer>
		<layer id="196" name="27812785_const" type="Const" version="opset1">
			<data element_type="f32" offset="19664" shape="" size="4"/>
			<output>
				<port id="1" precision="FP32"/>
			</output>
		</layer>
		<layer id="197" name="27822786_const" type="Const" version="opset1">
			<data element_type="f32" offset="43320" shape="" size="4"/>
			<output>
				<port id="1" precision="FP32"/>
			</output>
		</layer>
		<layer id="198" name="27832787_const" type="Const" version="opset1">
			<data element_type="f32" offset="19664" shape="" size="4"/>
			<output>
				<port id="1" precision="FP32"/>
			</output>
		</layer>
		<layer id="199" name="27842788_const" type="Const" version="opset1">
			<data element_type="f32" offset="43320" shape="" size="4"/>
			<output>
				<port id="1" precision="FP32"/>
			</output>
		</layer>
		<layer id="200" name="636/fq_input_0" type="FakeQuantize" version="opset1">
			<data levels="256"/>
			<input>
				<port id="0">
					<dim>1</dim>
					<dim>32</dim>
					<dim>64</dim>
					<dim>32</dim>
				</port>
				<port id="1"/>
				<port id="2"/>
				<port id="3"/>
				<port id="4"/>
			</input>
			<output>
				<port id="5" precision="FP32">
					<dim>1</dim>
					<dim>32</dim>
					<dim>64</dim>
					<dim>32</dim>
				</port>
			</output>
		</layer>
		<layer id="201" name="onnx_initializer_node_conv2.0.conv2c.0.conv1.weight/Output_0/Data__const1088_const" type="Const" version="opset1">
			<data element_type="f32" offset="43324" shape="32,32,1,1" size="4096"/>
			<output>
				<port id="1" precision="FP32">
					<dim>32</dim>
					<dim>32</dim>
					<dim>1</dim>
					<dim>1</dim>
				</port>
			</output>
		</layer>
		<layer id="202" name="51715175_const" type="Const" version="opset1">
			<data element_type="f32" offset="47420" shape="32,1,1,1" size="128"/>
			<output>
				<port id="1" precision="FP32">
					<dim>32</dim>
					<dim>1</dim>
					<dim>1</dim>
					<dim>1</dim>
				</port>
			</output>
		</layer>
		<layer id="203" name="51725176_const" type="Const" version="opset1">
			<data element_type="f32" offset="47548" shape="32,1,1,1" size="128"/>
			<output>
				<port id="1" precision="FP32">
					<dim>32</dim>
					<dim>1</dim>
					<dim>1</dim>
					<dim>1</dim>
				</port>
			</output>
		</layer>
		<layer id="204" name="51735177_const" type="Const" version="opset1">
			<data element_type="f32" offset="47420" shape="32,1,1,1" size="128"/>
			<output>
				<port id="1" precision="FP32">
					<dim>32</dim>
					<dim>1</dim>
					<dim>1</dim>
					<dim>1</dim>
				</port>
			</output>
		</layer>
		<layer id="205" name="51745178_const" type="Const" version="opset1">
			<data element_type="f32" offset="47548" shape="32,1,1,1" size="128"/>
			<output>
				<port id="1" precision="FP32">
					<dim>32</dim>
					<dim>1</dim>
					<dim>1</dim>
					<dim>1</dim>
				</port>
			</output>
		</layer>
		<layer id="206" name="589/fq_weights_1" type="FakeQuantize" version="opset1">
			<data levels="255"/>
			<input>
				<port id="0">
					<dim>32</dim>
					<dim>32</dim>
					<dim>1</dim>
					<dim>1</dim>
				</port>
				<port id="1">
					<dim>32</dim>
					<dim>1</dim>
					<dim>1</dim>
					<dim>1</dim>
				</port>
				<port id="2">
					<dim>32</dim>
					<dim>1</dim>
					<dim>1</dim>
					<dim>1</dim>
				</port>
				<port id="3">
					<dim>32</dim>
					<dim>1</dim>
					<dim>1</dim>
					<dim>1</dim>
				</port>
				<port id="4">
					<dim>32</dim>
					<dim>1</dim>
					<dim>1</dim>
					<dim>1</dim>
				</port>
			</input>
			<output>
				<port id="5" precision="FP32">
					<dim>32</dim>
					<dim>32</dim>
					<dim>1</dim>
					<dim>1</dim>
				</port>
			</output>
		</layer>
		<layer id="207" name="589" type="Convolution" version="opset1">
			<data dilations="1,1" output_padding="0,0" pads_begin="0,0" pads_end="0,0" strides="1,1"/>
			<input>
				<port id="0">
					<dim>1</dim>
					<dim>32</dim>
					<dim>64</dim>
					<dim>32</dim>
				</port>
				<port id="1">
					<dim>32</dim>
					<dim>32</dim>
					<dim>1</dim>
					<dim>1</dim>
				</port>
			</input>
			<output>
				<port id="2" precision="FP32">
					<dim>1</dim>
					<dim>32</dim>
					<dim>64</dim>
					<dim>32</dim>
				</port>
			</output>
		</layer>
		<layer id="208" name="49614965_const" type="Const" version="opset1">
			<data element_type="f32" offset="47676" shape="1,32,1,1" size="128"/>
			<output>
				<port id="1" precision="FP32">
					<dim>1</dim>
					<dim>32</dim>
					<dim>1</dim>
					<dim>1</dim>
				</port>
			</output>
		</layer>
		<layer id="209" name="49624966_const" type="Const" version="opset1">
			<data element_type="f32" offset="47804" shape="1,32,1,1" size="128"/>
			<output>
				<port id="1" precision="FP32">
					<dim>1</dim>
					<dim>32</dim>
					<dim>1</dim>
					<dim>1</dim>
				</port>
			</output>
		</layer>
		<layer id="210" name="49634967_const" type="Const" version="opset1">
			<data element_type="f32" offset="47676" shape="1,32,1,1" size="128"/>
			<output>
				<port id="1" precision="FP32">
					<dim>1</dim>
					<dim>32</dim>
					<dim>1</dim>
					<dim>1</dim>
				</port>
			</output>
		</layer>
		<layer id="211" name="49644968_const" type="Const" version="opset1">
			<data element_type="f32" offset="47804" shape="1,32,1,1" size="128"/>
			<output>
				<port id="1" precision="FP32">
					<dim>1</dim>
					<dim>32</dim>
					<dim>1</dim>
					<dim>1</dim>
				</port>
			</output>
		</layer>
		<layer id="212" name="590/fq_input_0" type="FakeQuantize" version="opset1">
			<data levels="256"/>
			<input>
				<port id="0">
					<dim>1</dim>
					<dim>32</dim>
					<dim>64</dim>
					<dim>32</dim>
				</port>
				<port id="1">
					<dim>1</dim>
					<dim>32</dim>
					<dim>1</dim>
					<dim>1</dim>
				</port>
				<port id="2">
					<dim>1</dim>
					<dim>32</dim>
					<dim>1</dim>
					<dim>1</dim>
				</port>
				<port id="3">
					<dim>1</dim>
					<dim>32</dim>
					<dim>1</dim>
					<dim>1</dim>
				</port>
				<port id="4">
					<dim>1</dim>
					<dim>32</dim>
					<dim>1</dim>
					<dim>1</dim>
				</port>
			</input>
			<output>
				<port id="5" precision="FP32">
					<dim>1</dim>
					<dim>32</dim>
					<dim>64</dim>
					<dim>32</dim>
				</port>
			</output>
		</layer>
		<layer id="213" name="21441906_const" type="Const" version="opset1">
			<data element_type="f32" offset="47932" shape="32,1,3,3" size="1152"/>
			<output>
				<port id="1" precision="FP32">
					<dim>32</dim>
					<dim>1</dim>
					<dim>3</dim>
					<dim>3</dim>
				</port>
			</output>
		</layer>
		<layer id="214" name="49714975_const" type="Const" version="opset1">
			<data element_type="f32" offset="49084" shape="32,1,1,1" size="128"/>
			<output>
				<port id="1" precision="FP32">
					<dim>32</dim>
					<dim>1</dim>
					<dim>1</dim>
					<dim>1</dim>
				</port>
			</output>
		</layer>
		<layer id="215" name="49724976_const" type="Const" version="opset1">
			<data element_type="f32" offset="49212" shape="32,1,1,1" size="128"/>
			<output>
				<port id="1" precision="FP32">
					<dim>32</dim>
					<dim>1</dim>
					<dim>1</dim>
					<dim>1</dim>
				</port>
			</output>
		</layer>
		<layer id="216" name="49734977_const" type="Const" version="opset1">
			<data element_type="f32" offset="49084" shape="32,1,1,1" size="128"/>
			<output>
				<port id="1" precision="FP32">
					<dim>32</dim>
					<dim>1</dim>
					<dim>1</dim>
					<dim>1</dim>
				</port>
			</output>
		</layer>
		<layer id="217" name="49744978_const" type="Const" version="opset1">
			<data element_type="f32" offset="49212" shape="32,1,1,1" size="128"/>
			<output>
				<port id="1" precision="FP32">
					<dim>32</dim>
					<dim>1</dim>
					<dim>1</dim>
					<dim>1</dim>
				</port>
			</output>
		</layer>
		<layer id="218" name="590/fq_weights_1" type="FakeQuantize" version="opset1">
			<data levels="255"/>
			<input>
				<port id="0">
					<dim>32</dim>
					<dim>1</dim>
					<dim>3</dim>
					<dim>3</dim>
				</port>
				<port id="1">
					<dim>32</dim>
					<dim>1</dim>
					<dim>1</dim>
					<dim>1</dim>
				</port>
				<port id="2">
					<dim>32</dim>
					<dim>1</dim>
					<dim>1</dim>
					<dim>1</dim>
				</port>
				<port id="3">
					<dim>32</dim>
					<dim>1</dim>
					<dim>1</dim>
					<dim>1</dim>
				</port>
				<port id="4">
					<dim>32</dim>
					<dim>1</dim>
					<dim>1</dim>
					<dim>1</dim>
				</port>
			</input>
			<output>
				<port id="5" precision="FP32">
					<dim>32</dim>
					<dim>1</dim>
					<dim>3</dim>
					<dim>3</dim>
				</port>
			</output>
		</layer>
		<layer id="219" name="12722/value12724_const" type="Const" version="opset1">
			<data element_type="i64" offset="30172" shape="5" size="40"/>
			<output>
				<port id="1" precision="I64">
					<dim>5</dim>
				</port>
			</output>
		</layer>
		<layer id="220" name="12722" type="Reshape" version="opset1">
			<data special_zero="True"/>
			<input>
				<port id="0">
					<dim>32</dim>
					<dim>1</dim>
					<dim>3</dim>
					<dim>3</dim>
				</port>
				<port id="1">
					<dim>5</dim>
				</port>
			</input>
			<output>
				<port id="2" precision="FP32">
					<dim>32</dim>
					<dim>1</dim>
					<dim>1</dim>
					<dim>3</dim>
					<dim>3</dim>
				</port>
			</output>
		</layer>
		<layer id="221" name="590" type="GroupConvolution" version="opset1">
			<data dilations="1,1" output_padding="0,0" pads_begin="1,1" pads_end="1,1" strides="1,1"/>
			<input>
				<port id="0">
					<dim>1</dim>
					<dim>32</dim>
					<dim>64</dim>
					<dim>32</dim>
				</port>
				<port id="1">
					<dim>32</dim>
					<dim>1</dim>
					<dim>1</dim>
					<dim>3</dim>
					<dim>3</dim>
				</port>
			</input>
			<output>
				<port id="2" precision="FP32">
					<dim>1</dim>
					<dim>32</dim>
					<dim>64</dim>
					<dim>32</dim>
				</port>
			</output>
		</layer>
		<layer id="222" name="data_add_1846518470/copy_const1092_const" type="Const" version="opset1">
			<data element_type="f32" offset="49340" shape="1,32,1,1" size="128"/>
			<output>
				<port id="1" precision="FP32">
					<dim>1</dim>
					<dim>32</dim>
					<dim>1</dim>
					<dim>1</dim>
				</port>
			</output>
		</layer>
		<layer id="223" name="Add1_16331/Fused_Add_" type="Add" version="opset1">
			<input>
				<port id="0">
					<dim>1</dim>
					<dim>32</dim>
					<dim>64</dim>
					<dim>32</dim>
				</port>
				<port id="1">
					<dim>1</dim>
					<dim>32</dim>
					<dim>1</dim>
					<dim>1</dim>
				</port>
			</input>
			<output>
				<port id="2" precision="FP32">
					<dim>1</dim>
					<dim>32</dim>
					<dim>64</dim>
					<dim>32</dim>
				</port>
			</output>
		</layer>
		<layer id="224" name="592" type="ReLU" version="opset1">
			<input>
				<port id="0">
					<dim>1</dim>
					<dim>32</dim>
					<dim>64</dim>
					<dim>32</dim>
				</port>
			</input>
			<output>
				<port id="1" precision="FP32">
					<dim>1</dim>
					<dim>32</dim>
					<dim>64</dim>
					<dim>32</dim>
				</port>
			</output>
		</layer>
		<layer id="225" name="34113415_const" type="Const" version="opset1">
			<data element_type="f32" offset="19664" shape="" size="4"/>
			<output>
				<port id="1" precision="FP32"/>
			</output>
		</layer>
		<layer id="226" name="34123416_const" type="Const" version="opset1">
			<data element_type="f32" offset="49468" shape="" size="4"/>
			<output>
				<port id="1" precision="FP32"/>
			</output>
		</layer>
		<layer id="227" name="34133417_const" type="Const" version="opset1">
			<data element_type="f32" offset="19664" shape="" size="4"/>
			<output>
				<port id="1" precision="FP32"/>
			</output>
		</layer>
		<layer id="228" name="34143418_const" type="Const" version="opset1">
			<data element_type="f32" offset="49468" shape="" size="4"/>
			<output>
				<port id="1" precision="FP32"/>
			</output>
		</layer>
		<layer id="229" name="593/fq_input_0" type="FakeQuantize" version="opset1">
			<data levels="256"/>
			<input>
				<port id="0">
					<dim>1</dim>
					<dim>32</dim>
					<dim>64</dim>
					<dim>32</dim>
				</port>
				<port id="1"/>
				<port id="2"/>
				<port id="3"/>
				<port id="4"/>
			</input>
			<output>
				<port id="5" precision="FP32">
					<dim>1</dim>
					<dim>32</dim>
					<dim>64</dim>
					<dim>32</dim>
				</port>
			</output>
		</layer>
		<layer id="230" name="onnx_initializer_node_conv2.0.conv2c.1.conv1.weight/Output_0/Data__const1095_const" type="Const" version="opset1">
			<data element_type="f32" offset="49472" shape="32,32,1,1" size="4096"/>
			<output>
				<port id="1" precision="FP32">
					<dim>32</dim>
					<dim>32</dim>
					<dim>1</dim>
					<dim>1</dim>
				</port>
			</output>
		</layer>
		<layer id="231" name="34213425_const" type="Const" version="opset1">
			<data element_type="f32" offset="53568" shape="32,1,1,1" size="128"/>
			<output>
				<port id="1" precision="FP32">
					<dim>32</dim>
					<dim>1</dim>
					<dim>1</dim>
					<dim>1</dim>
				</port>
			</output>
		</layer>
		<layer id="232" name="34223426_const" type="Const" version="opset1">
			<data element_type="f32" offset="53696" shape="32,1,1,1" size="128"/>
			<output>
				<port id="1" precision="FP32">
					<dim>32</dim>
					<dim>1</dim>
					<dim>1</dim>
					<dim>1</dim>
				</port>
			</output>
		</layer>
		<layer id="233" name="34233427_const" type="Const" version="opset1">
			<data element_type="f32" offset="53568" shape="32,1,1,1" size="128"/>
			<output>
				<port id="1" precision="FP32">
					<dim>32</dim>
					<dim>1</dim>
					<dim>1</dim>
					<dim>1</dim>
				</port>
			</output>
		</layer>
		<layer id="234" name="34243428_const" type="Const" version="opset1">
			<data element_type="f32" offset="53696" shape="32,1,1,1" size="128"/>
			<output>
				<port id="1" precision="FP32">
					<dim>32</dim>
					<dim>1</dim>
					<dim>1</dim>
					<dim>1</dim>
				</port>
			</output>
		</layer>
		<layer id="235" name="593/fq_weights_1" type="FakeQuantize" version="opset1">
			<data levels="255"/>
			<input>
				<port id="0">
					<dim>32</dim>
					<dim>32</dim>
					<dim>1</dim>
					<dim>1</dim>
				</port>
				<port id="1">
					<dim>32</dim>
					<dim>1</dim>
					<dim>1</dim>
					<dim>1</dim>
				</port>
				<port id="2">
					<dim>32</dim>
					<dim>1</dim>
					<dim>1</dim>
					<dim>1</dim>
				</port>
				<port id="3">
					<dim>32</dim>
					<dim>1</dim>
					<dim>1</dim>
					<dim>1</dim>
				</port>
				<port id="4">
					<dim>32</dim>
					<dim>1</dim>
					<dim>1</dim>
					<dim>1</dim>
				</port>
			</input>
			<output>
				<port id="5" precision="FP32">
					<dim>32</dim>
					<dim>32</dim>
					<dim>1</dim>
					<dim>1</dim>
				</port>
			</output>
		</layer>
		<layer id="236" name="593" type="Convolution" version="opset1">
			<data dilations="1,1" output_padding="0,0" pads_begin="0,0" pads_end="0,0" strides="1,1"/>
			<input>
				<port id="0">
					<dim>1</dim>
					<dim>32</dim>
					<dim>64</dim>
					<dim>32</dim>
				</port>
				<port id="1">
					<dim>32</dim>
					<dim>32</dim>
					<dim>1</dim>
					<dim>1</dim>
				</port>
			</input>
			<output>
				<port id="2" precision="FP32">
					<dim>1</dim>
					<dim>32</dim>
					<dim>64</dim>
					<dim>32</dim>
				</port>
			</output>
		</layer>
		<layer id="237" name="31213125_const" type="Const" version="opset1">
			<data element_type="f32" offset="53824" shape="1,32,1,1" size="128"/>
			<output>
				<port id="1" precision="FP32">
					<dim>1</dim>
					<dim>32</dim>
					<dim>1</dim>
					<dim>1</dim>
				</port>
			</output>
		</layer>
		<layer id="238" name="31223126_const" type="Const" version="opset1">
			<data element_type="f32" offset="53952" shape="1,32,1,1" size="128"/>
			<output>
				<port id="1" precision="FP32">
					<dim>1</dim>
					<dim>32</dim>
					<dim>1</dim>
					<dim>1</dim>
				</port>
			</output>
		</layer>
		<layer id="239" name="31233127_const" type="Const" version="opset1">
			<data element_type="f32" offset="53824" shape="1,32,1,1" size="128"/>
			<output>
				<port id="1" precision="FP32">
					<dim>1</dim>
					<dim>32</dim>
					<dim>1</dim>
					<dim>1</dim>
				</port>
			</output>
		</layer>
		<layer id="240" name="31243128_const" type="Const" version="opset1">
			<data element_type="f32" offset="53952" shape="1,32,1,1" size="128"/>
			<output>
				<port id="1" precision="FP32">
					<dim>1</dim>
					<dim>32</dim>
					<dim>1</dim>
					<dim>1</dim>
				</port>
			</output>
		</layer>
		<layer id="241" name="594/fq_input_0" type="FakeQuantize" version="opset1">
			<data levels="256"/>
			<input>
				<port id="0">
					<dim>1</dim>
					<dim>32</dim>
					<dim>64</dim>
					<dim>32</dim>
				</port>
				<port id="1">
					<dim>1</dim>
					<dim>32</dim>
					<dim>1</dim>
					<dim>1</dim>
				</port>
				<port id="2">
					<dim>1</dim>
					<dim>32</dim>
					<dim>1</dim>
					<dim>1</dim>
				</port>
				<port id="3">
					<dim>1</dim>
					<dim>32</dim>
					<dim>1</dim>
					<dim>1</dim>
				</port>
				<port id="4">
					<dim>1</dim>
					<dim>32</dim>
					<dim>1</dim>
					<dim>1</dim>
				</port>
			</input>
			<output>
				<port id="5" precision="FP32">
					<dim>1</dim>
					<dim>32</dim>
					<dim>64</dim>
					<dim>32</dim>
				</port>
			</output>
		</layer>
		<layer id="242" name="21481908_const" type="Const" version="opset1">
			<data element_type="f32" offset="54080" shape="32,1,3,3" size="1152"/>
			<output>
				<port id="1" precision="FP32">
					<dim>32</dim>
					<dim>1</dim>
					<dim>3</dim>
					<dim>3</dim>
				</port>
			</output>
		</layer>
		<layer id="243" name="31313135_const" type="Const" version="opset1">
			<data element_type="f32" offset="55232" shape="32,1,1,1" size="128"/>
			<output>
				<port id="1" precision="FP32">
					<dim>32</dim>
					<dim>1</dim>
					<dim>1</dim>
					<dim>1</dim>
				</port>
			</output>
		</layer>
		<layer id="244" name="31323136_const" type="Const" version="opset1">
			<data element_type="f32" offset="55360" shape="32,1,1,1" size="128"/>
			<output>
				<port id="1" precision="FP32">
					<dim>32</dim>
					<dim>1</dim>
					<dim>1</dim>
					<dim>1</dim>
				</port>
			</output>
		</layer>
		<layer id="245" name="31333137_const" type="Const" version="opset1">
			<data element_type="f32" offset="55232" shape="32,1,1,1" size="128"/>
			<output>
				<port id="1" precision="FP32">
					<dim>32</dim>
					<dim>1</dim>
					<dim>1</dim>
					<dim>1</dim>
				</port>
			</output>
		</layer>
		<layer id="246" name="31343138_const" type="Const" version="opset1">
			<data element_type="f32" offset="55360" shape="32,1,1,1" size="128"/>
			<output>
				<port id="1" precision="FP32">
					<dim>32</dim>
					<dim>1</dim>
					<dim>1</dim>
					<dim>1</dim>
				</port>
			</output>
		</layer>
		<layer id="247" name="594/fq_weights_1" type="FakeQuantize" version="opset1">
			<data levels="255"/>
			<input>
				<port id="0">
					<dim>32</dim>
					<dim>1</dim>
					<dim>3</dim>
					<dim>3</dim>
				</port>
				<port id="1">
					<dim>32</dim>
					<dim>1</dim>
					<dim>1</dim>
					<dim>1</dim>
				</port>
				<port id="2">
					<dim>32</dim>
					<dim>1</dim>
					<dim>1</dim>
					<dim>1</dim>
				</port>
				<port id="3">
					<dim>32</dim>
					<dim>1</dim>
					<dim>1</dim>
					<dim>1</dim>
				</port>
				<port id="4">
					<dim>32</dim>
					<dim>1</dim>
					<dim>1</dim>
					<dim>1</dim>
				</port>
			</input>
			<output>
				<port id="5" precision="FP32">
					<dim>32</dim>
					<dim>1</dim>
					<dim>3</dim>
					<dim>3</dim>
				</port>
			</output>
		</layer>
		<layer id="248" name="12618/value12620_const" type="Const" version="opset1">
			<data element_type="i64" offset="30172" shape="5" size="40"/>
			<output>
				<port id="1" precision="I64">
					<dim>5</dim>
				</port>
			</output>
		</layer>
		<layer id="249" name="12618" type="Reshape" version="opset1">
			<data special_zero="True"/>
			<input>
				<port id="0">
					<dim>32</dim>
					<dim>1</dim>
					<dim>3</dim>
					<dim>3</dim>
				</port>
				<port id="1">
					<dim>5</dim>
				</port>
			</input>
			<output>
				<port id="2" precision="FP32">
					<dim>32</dim>
					<dim>1</dim>
					<dim>1</dim>
					<dim>3</dim>
					<dim>3</dim>
				</port>
			</output>
		</layer>
		<layer id="250" name="594" type="GroupConvolution" version="opset1">
			<data dilations="1,1" output_padding="0,0" pads_begin="1,1" pads_end="1,1" strides="1,1"/>
			<input>
				<port id="0">
					<dim>1</dim>
					<dim>32</dim>
					<dim>64</dim>
					<dim>32</dim>
				</port>
				<port id="1">
					<dim>32</dim>
					<dim>1</dim>
					<dim>1</dim>
					<dim>3</dim>
					<dim>3</dim>
				</port>
			</input>
			<output>
				<port id="2" precision="FP32">
					<dim>1</dim>
					<dim>32</dim>
					<dim>64</dim>
					<dim>32</dim>
				</port>
			</output>
		</layer>
		<layer id="251" name="data_add_1847318478/copy_const1099_const" type="Const" version="opset1">
			<data element_type="f32" offset="55488" shape="1,32,1,1" size="128"/>
			<output>
				<port id="1" precision="FP32">
					<dim>1</dim>
					<dim>32</dim>
					<dim>1</dim>
					<dim>1</dim>
				</port>
			</output>
		</layer>
		<layer id="252" name="Add1_16343/Fused_Add_" type="Add" version="opset1">
			<input>
				<port id="0">
					<dim>1</dim>
					<dim>32</dim>
					<dim>64</dim>
					<dim>32</dim>
				</port>
				<port id="1">
					<dim>1</dim>
					<dim>32</dim>
					<dim>1</dim>
					<dim>1</dim>
				</port>
			</input>
			<output>
				<port id="2" precision="FP32">
					<dim>1</dim>
					<dim>32</dim>
					<dim>64</dim>
					<dim>32</dim>
				</port>
			</output>
		</layer>
		<layer id="253" name="596" type="ReLU" version="opset1">
			<input>
				<port id="0">
					<dim>1</dim>
					<dim>32</dim>
					<dim>64</dim>
					<dim>32</dim>
				</port>
			</input>
			<output>
				<port id="1" precision="FP32">
					<dim>1</dim>
					<dim>32</dim>
					<dim>64</dim>
					<dim>32</dim>
				</port>
			</output>
		</layer>
		<layer id="254" name="45014505_const" type="Const" version="opset1">
			<data element_type="f32" offset="19664" shape="" size="4"/>
			<output>
				<port id="1" precision="FP32"/>
			</output>
		</layer>
		<layer id="255" name="45024506_const" type="Const" version="opset1">
			<data element_type="f32" offset="55616" shape="" size="4"/>
			<output>
				<port id="1" precision="FP32"/>
			</output>
		</layer>
		<layer id="256" name="45034507_const" type="Const" version="opset1">
			<data element_type="f32" offset="19664" shape="" size="4"/>
			<output>
				<port id="1" precision="FP32"/>
			</output>
		</layer>
		<layer id="257" name="45044508_const" type="Const" version="opset1">
			<data element_type="f32" offset="55616" shape="" size="4"/>
			<output>
				<port id="1" precision="FP32"/>
			</output>
		</layer>
		<layer id="258" name="597/fq_input_0" type="FakeQuantize" version="opset1">
			<data levels="256"/>
			<input>
				<port id="0">
					<dim>1</dim>
					<dim>32</dim>
					<dim>64</dim>
					<dim>32</dim>
				</port>
				<port id="1"/>
				<port id="2"/>
				<port id="3"/>
				<port id="4"/>
			</input>
			<output>
				<port id="5" precision="FP32">
					<dim>1</dim>
					<dim>32</dim>
					<dim>64</dim>
					<dim>32</dim>
				</port>
			</output>
		</layer>
		<layer id="259" name="onnx_initializer_node_conv2.0.conv2c.2.conv1.weight/Output_0/Data__const1102_const" type="Const" version="opset1">
			<data element_type="f32" offset="55620" shape="32,32,1,1" size="4096"/>
			<output>
				<port id="1" precision="FP32">
					<dim>32</dim>
					<dim>32</dim>
					<dim>1</dim>
					<dim>1</dim>
				</port>
			</output>
		</layer>
		<layer id="260" name="45114515_const" type="Const" version="opset1">
			<data element_type="f32" offset="59716" shape="32,1,1,1" size="128"/>
			<output>
				<port id="1" precision="FP32">
					<dim>32</dim>
					<dim>1</dim>
					<dim>1</dim>
					<dim>1</dim>
				</port>
			</output>
		</layer>
		<layer id="261" name="45124516_const" type="Const" version="opset1">
			<data element_type="f32" offset="59844" shape="32,1,1,1" size="128"/>
			<output>
				<port id="1" precision="FP32">
					<dim>32</dim>
					<dim>1</dim>
					<dim>1</dim>
					<dim>1</dim>
				</port>
			</output>
		</layer>
		<layer id="262" name="45134517_const" type="Const" version="opset1">
			<data element_type="f32" offset="59716" shape="32,1,1,1" size="128"/>
			<output>
				<port id="1" precision="FP32">
					<dim>32</dim>
					<dim>1</dim>
					<dim>1</dim>
					<dim>1</dim>
				</port>
			</output>
		</layer>
		<layer id="263" name="45144518_const" type="Const" version="opset1">
			<data element_type="f32" offset="59844" shape="32,1,1,1" size="128"/>
			<output>
				<port id="1" precision="FP32">
					<dim>32</dim>
					<dim>1</dim>
					<dim>1</dim>
					<dim>1</dim>
				</port>
			</output>
		</layer>
		<layer id="264" name="597/fq_weights_1" type="FakeQuantize" version="opset1">
			<data levels="255"/>
			<input>
				<port id="0">
					<dim>32</dim>
					<dim>32</dim>
					<dim>1</dim>
					<dim>1</dim>
				</port>
				<port id="1">
					<dim>32</dim>
					<dim>1</dim>
					<dim>1</dim>
					<dim>1</dim>
				</port>
				<port id="2">
					<dim>32</dim>
					<dim>1</dim>
					<dim>1</dim>
					<dim>1</dim>
				</port>
				<port id="3">
					<dim>32</dim>
					<dim>1</dim>
					<dim>1</dim>
					<dim>1</dim>
				</port>
				<port id="4">
					<dim>32</dim>
					<dim>1</dim>
					<dim>1</dim>
					<dim>1</dim>
				</port>
			</input>
			<output>
				<port id="5" precision="FP32">
					<dim>32</dim>
					<dim>32</dim>
					<dim>1</dim>
					<dim>1</dim>
				</port>
			</output>
		</layer>
		<layer id="265" name="597" type="Convolution" version="opset1">
			<data dilations="1,1" output_padding="0,0" pads_begin="0,0" pads_end="0,0" strides="1,1"/>
			<input>
				<port id="0">
					<dim>1</dim>
					<dim>32</dim>
					<dim>64</dim>
					<dim>32</dim>
				</port>
				<port id="1">
					<dim>32</dim>
					<dim>32</dim>
					<dim>1</dim>
					<dim>1</dim>
				</port>
			</input>
			<output>
				<port id="2" precision="FP32">
					<dim>1</dim>
					<dim>32</dim>
					<dim>64</dim>
					<dim>32</dim>
				</port>
			</output>
		</layer>
		<layer id="266" name="42514255_const" type="Const" version="opset1">
			<data element_type="f32" offset="59972" shape="1,32,1,1" size="128"/>
			<output>
				<port id="1" precision="FP32">
					<dim>1</dim>
					<dim>32</dim>
					<dim>1</dim>
					<dim>1</dim>
				</port>
			</output>
		</layer>
		<layer id="267" name="42524256_const" type="Const" version="opset1">
			<data element_type="f32" offset="60100" shape="1,32,1,1" size="128"/>
			<output>
				<port id="1" precision="FP32">
					<dim>1</dim>
					<dim>32</dim>
					<dim>1</dim>
					<dim>1</dim>
				</port>
			</output>
		</layer>
		<layer id="268" name="42534257_const" type="Const" version="opset1">
			<data element_type="f32" offset="59972" shape="1,32,1,1" size="128"/>
			<output>
				<port id="1" precision="FP32">
					<dim>1</dim>
					<dim>32</dim>
					<dim>1</dim>
					<dim>1</dim>
				</port>
			</output>
		</layer>
		<layer id="269" name="42544258_const" type="Const" version="opset1">
			<data element_type="f32" offset="60100" shape="1,32,1,1" size="128"/>
			<output>
				<port id="1" precision="FP32">
					<dim>1</dim>
					<dim>32</dim>
					<dim>1</dim>
					<dim>1</dim>
				</port>
			</output>
		</layer>
		<layer id="270" name="598/fq_input_0" type="FakeQuantize" version="opset1">
			<data levels="256"/>
			<input>
				<port id="0">
					<dim>1</dim>
					<dim>32</dim>
					<dim>64</dim>
					<dim>32</dim>
				</port>
				<port id="1">
					<dim>1</dim>
					<dim>32</dim>
					<dim>1</dim>
					<dim>1</dim>
				</port>
				<port id="2">
					<dim>1</dim>
					<dim>32</dim>
					<dim>1</dim>
					<dim>1</dim>
				</port>
				<port id="3">
					<dim>1</dim>
					<dim>32</dim>
					<dim>1</dim>
					<dim>1</dim>
				</port>
				<port id="4">
					<dim>1</dim>
					<dim>32</dim>
					<dim>1</dim>
					<dim>1</dim>
				</port>
			</input>
			<output>
				<port id="5" precision="FP32">
					<dim>1</dim>
					<dim>32</dim>
					<dim>64</dim>
					<dim>32</dim>
				</port>
			</output>
		</layer>
		<layer id="271" name="21521910_const" type="Const" version="opset1">
			<data element_type="f32" offset="60228" shape="32,1,3,3" size="1152"/>
			<output>
				<port id="1" precision="FP32">
					<dim>32</dim>
					<dim>1</dim>
					<dim>3</dim>
					<dim>3</dim>
				</port>
			</output>
		</layer>
		<layer id="272" name="42614265_const" type="Const" version="opset1">
			<data element_type="f32" offset="61380" shape="32,1,1,1" size="128"/>
			<output>
				<port id="1" precision="FP32">
					<dim>32</dim>
					<dim>1</dim>
					<dim>1</dim>
					<dim>1</dim>
				</port>
			</output>
		</layer>
		<layer id="273" name="42624266_const" type="Const" version="opset1">
			<data element_type="f32" offset="61508" shape="32,1,1,1" size="128"/>
			<output>
				<port id="1" precision="FP32">
					<dim>32</dim>
					<dim>1</dim>
					<dim>1</dim>
					<dim>1</dim>
				</port>
			</output>
		</layer>
		<layer id="274" name="42634267_const" type="Const" version="opset1">
			<data element_type="f32" offset="61380" shape="32,1,1,1" size="128"/>
			<output>
				<port id="1" precision="FP32">
					<dim>32</dim>
					<dim>1</dim>
					<dim>1</dim>
					<dim>1</dim>
				</port>
			</output>
		</layer>
		<layer id="275" name="42644268_const" type="Const" version="opset1">
			<data element_type="f32" offset="61508" shape="32,1,1,1" size="128"/>
			<output>
				<port id="1" precision="FP32">
					<dim>32</dim>
					<dim>1</dim>
					<dim>1</dim>
					<dim>1</dim>
				</port>
			</output>
		</layer>
		<layer id="276" name="598/fq_weights_1" type="FakeQuantize" version="opset1">
			<data levels="255"/>
			<input>
				<port id="0">
					<dim>32</dim>
					<dim>1</dim>
					<dim>3</dim>
					<dim>3</dim>
				</port>
				<port id="1">
					<dim>32</dim>
					<dim>1</dim>
					<dim>1</dim>
					<dim>1</dim>
				</port>
				<port id="2">
					<dim>32</dim>
					<dim>1</dim>
					<dim>1</dim>
					<dim>1</dim>
				</port>
				<port id="3">
					<dim>32</dim>
					<dim>1</dim>
					<dim>1</dim>
					<dim>1</dim>
				</port>
				<port id="4">
					<dim>32</dim>
					<dim>1</dim>
					<dim>1</dim>
					<dim>1</dim>
				</port>
			</input>
			<output>
				<port id="5" precision="FP32">
					<dim>32</dim>
					<dim>1</dim>
					<dim>3</dim>
					<dim>3</dim>
				</port>
			</output>
		</layer>
		<layer id="277" name="12694/value12696_const" type="Const" version="opset1">
			<data element_type="i64" offset="30172" shape="5" size="40"/>
			<output>
				<port id="1" precision="I64">
					<dim>5</dim>
				</port>
			</output>
		</layer>
		<layer id="278" name="12694" type="Reshape" version="opset1">
			<data special_zero="True"/>
			<input>
				<port id="0">
					<dim>32</dim>
					<dim>1</dim>
					<dim>3</dim>
					<dim>3</dim>
				</port>
				<port id="1">
					<dim>5</dim>
				</port>
			</input>
			<output>
				<port id="2" precision="FP32">
					<dim>32</dim>
					<dim>1</dim>
					<dim>1</dim>
					<dim>3</dim>
					<dim>3</dim>
				</port>
			</output>
		</layer>
		<layer id="279" name="598" type="GroupConvolution" version="opset1">
			<data dilations="1,1" output_padding="0,0" pads_begin="1,1" pads_end="1,1" strides="1,1"/>
			<input>
				<port id="0">
					<dim>1</dim>
					<dim>32</dim>
					<dim>64</dim>
					<dim>32</dim>
				</port>
				<port id="1">
					<dim>32</dim>
					<dim>1</dim>
					<dim>1</dim>
					<dim>3</dim>
					<dim>3</dim>
				</port>
			</input>
			<output>
				<port id="2" precision="FP32">
					<dim>1</dim>
					<dim>32</dim>
					<dim>64</dim>
					<dim>32</dim>
				</port>
			</output>
		</layer>
		<layer id="280" name="data_add_1848118486/copy_const1106_const" type="Const" version="opset1">
			<data element_type="f32" offset="61636" shape="1,32,1,1" size="128"/>
			<output>
				<port id="1" precision="FP32">
					<dim>1</dim>
					<dim>32</dim>
					<dim>1</dim>
					<dim>1</dim>
				</port>
			</output>
		</layer>
		<layer id="281" name="Add1_16355/Fused_Add_" type="Add" version="opset1">
			<input>
				<port id="0">
					<dim>1</dim>
					<dim>32</dim>
					<dim>64</dim>
					<dim>32</dim>
				</port>
				<port id="1">
					<dim>1</dim>
					<dim>32</dim>
					<dim>1</dim>
					<dim>1</dim>
				</port>
			</input>
			<output>
				<port id="2" precision="FP32">
					<dim>1</dim>
					<dim>32</dim>
					<dim>64</dim>
					<dim>32</dim>
				</port>
			</output>
		</layer>
		<layer id="282" name="600" type="ReLU" version="opset1">
			<input>
				<port id="0">
					<dim>1</dim>
					<dim>32</dim>
					<dim>64</dim>
					<dim>32</dim>
				</port>
			</input>
			<output>
				<port id="1" precision="FP32">
					<dim>1</dim>
					<dim>32</dim>
					<dim>64</dim>
					<dim>32</dim>
				</port>
			</output>
		</layer>
		<layer id="283" name="31113115_const" type="Const" version="opset1">
			<data element_type="f32" offset="19664" shape="" size="4"/>
			<output>
				<port id="1" precision="FP32"/>
			</output>
		</layer>
		<layer id="284" name="31123116_const" type="Const" version="opset1">
			<data element_type="f32" offset="61764" shape="" size="4"/>
			<output>
				<port id="1" precision="FP32"/>
			</output>
		</layer>
		<layer id="285" name="31133117_const" type="Const" version="opset1">
			<data element_type="f32" offset="19664" shape="" size="4"/>
			<output>
				<port id="1" precision="FP32"/>
			</output>
		</layer>
		<layer id="286" name="31143118_const" type="Const" version="opset1">
			<data element_type="f32" offset="61764" shape="" size="4"/>
			<output>
				<port id="1" precision="FP32"/>
			</output>
		</layer>
		<layer id="287" name="630/reduce/fq_input_0" type="FakeQuantize" version="opset1">
			<data levels="256"/>
			<input>
				<port id="0">
					<dim>1</dim>
					<dim>32</dim>
					<dim>64</dim>
					<dim>32</dim>
				</port>
				<port id="1"/>
				<port id="2"/>
				<port id="3"/>
				<port id="4"/>
			</input>
			<output>
				<port id="5" precision="FP32">
					<dim>1</dim>
					<dim>32</dim>
					<dim>64</dim>
					<dim>32</dim>
				</port>
			</output>
		</layer>
		<layer id="288" name="630/reduce/Cast_133235_const1109_const" type="Const" version="opset1">
			<data element_type="i64" offset="30344" shape="2" size="16"/>
			<output>
				<port id="1" precision="I64">
					<dim>2</dim>
				</port>
			</output>
		</layer>
		<layer id="289" name="630/reduce" type="ReduceMean" version="opset1">
			<data keep_dims="True"/>
			<input>
				<port id="0">
					<dim>1</dim>
					<dim>32</dim>
					<dim>64</dim>
					<dim>32</dim>
				</port>
				<port id="1">
					<dim>2</dim>
				</port>
			</input>
			<output>
				<port id="2" precision="FP32">
					<dim>1</dim>
					<dim>32</dim>
					<dim>1</dim>
					<dim>1</dim>
				</port>
			</output>
		</layer>
		<layer id="290" name="Copy_onnx_initializer_node_conv2.0.gate.fc1.weight/Output_0/Data_3523_const1111_const" type="Const" version="opset1">
			<data element_type="f32" offset="30360" shape="2,32,1,1" size="256"/>
			<output>
				<port id="1" precision="FP32">
					<dim>2</dim>
					<dim>32</dim>
					<dim>1</dim>
					<dim>1</dim>
				</port>
			</output>
		</layer>
		<layer id="291" name="631/WithoutBiases" type="Convolution" version="opset1">
			<data dilations="1,1" output_padding="0,0" pads_begin="0,0" pads_end="0,0" strides="1,1"/>
			<input>
				<port id="0">
					<dim>1</dim>
					<dim>32</dim>
					<dim>1</dim>
					<dim>1</dim>
				</port>
				<port id="1">
					<dim>2</dim>
					<dim>32</dim>
					<dim>1</dim>
					<dim>1</dim>
				</port>
			</input>
			<output>
				<port id="2" precision="FP32">
					<dim>1</dim>
					<dim>2</dim>
					<dim>1</dim>
					<dim>1</dim>
				</port>
			</output>
		</layer>
		<layer id="292" name="631/Dims11413/copy_const1113_const" type="Const" version="opset1">
			<data element_type="f32" offset="30616" shape="1,2,1,1" size="8"/>
			<output>
				<port id="1" precision="FP32">
					<dim>1</dim>
					<dim>2</dim>
					<dim>1</dim>
					<dim>1</dim>
				</port>
			</output>
		</layer>
		<layer id="293" name="631" type="Add" version="opset1">
			<input>
				<port id="0">
					<dim>1</dim>
					<dim>2</dim>
					<dim>1</dim>
					<dim>1</dim>
				</port>
				<port id="1">
					<dim>1</dim>
					<dim>2</dim>
					<dim>1</dim>
					<dim>1</dim>
				</port>
			</input>
			<output>
				<port id="2" precision="FP32">
					<dim>1</dim>
					<dim>2</dim>
					<dim>1</dim>
					<dim>1</dim>
				</port>
			</output>
		</layer>
		<layer id="294" name="632" type="ReLU" version="opset1">
			<input>
				<port id="0">
					<dim>1</dim>
					<dim>2</dim>
					<dim>1</dim>
					<dim>1</dim>
				</port>
			</input>
			<output>
				<port id="1" precision="FP32">
					<dim>1</dim>
					<dim>2</dim>
					<dim>1</dim>
					<dim>1</dim>
				</port>
			</output>
		</layer>
		<layer id="295" name="Copy_onnx_initializer_node_conv2.0.gate.fc2.weight/Output_0/Data_3531_const1116_const" type="Const" version="opset1">
			<data element_type="f32" offset="30624" shape="32,2,1,1" size="256"/>
			<output>
				<port id="1" precision="FP32">
					<dim>32</dim>
					<dim>2</dim>
					<dim>1</dim>
					<dim>1</dim>
				</port>
			</output>
		</layer>
		<layer id="296" name="633/WithoutBiases" type="Convolution" version="opset1">
			<data dilations="1,1" output_padding="0,0" pads_begin="0,0" pads_end="0,0" strides="1,1"/>
			<input>
				<port id="0">
					<dim>1</dim>
					<dim>2</dim>
					<dim>1</dim>
					<dim>1</dim>
				</port>
				<port id="1">
					<dim>32</dim>
					<dim>2</dim>
					<dim>1</dim>
					<dim>1</dim>
				</port>
			</input>
			<output>
				<port id="2" precision="FP32">
					<dim>1</dim>
					<dim>32</dim>
					<dim>1</dim>
					<dim>1</dim>
				</port>
			</output>
		</layer>
		<layer id="297" name="633/Dims11509/copy_const1118_const" type="Const" version="opset1">
			<data element_type="f32" offset="30880" shape="1,32,1,1" size="128"/>
			<output>
				<port id="1" precision="FP32">
					<dim>1</dim>
					<dim>32</dim>
					<dim>1</dim>
					<dim>1</dim>
				</port>
			</output>
		</layer>
		<layer id="298" name="633" type="Add" version="opset1">
			<input>
				<port id="0">
					<dim>1</dim>
					<dim>32</dim>
					<dim>1</dim>
					<dim>1</dim>
				</port>
				<port id="1">
					<dim>1</dim>
					<dim>32</dim>
					<dim>1</dim>
					<dim>1</dim>
				</port>
			</input>
			<output>
				<port id="2" precision="FP32">
					<dim>1</dim>
					<dim>32</dim>
					<dim>1</dim>
					<dim>1</dim>
				</port>
			</output>
		</layer>
		<layer id="299" name="634" type="Sigmoid" version="opset1">
			<input>
				<port id="0">
					<dim>1</dim>
					<dim>32</dim>
					<dim>1</dim>
					<dim>1</dim>
				</port>
			</input>
			<output>
				<port id="1" precision="FP32">
					<dim>1</dim>
					<dim>32</dim>
					<dim>1</dim>
					<dim>1</dim>
				</port>
			</output>
		</layer>
		<layer id="300" name="61416145_const" type="Const" version="opset1">
			<data element_type="f32" offset="19664" shape="" size="4"/>
			<output>
				<port id="1" precision="FP32"/>
			</output>
		</layer>
		<layer id="301" name="61426146_const" type="Const" version="opset1">
			<data element_type="f32" offset="61768" shape="" size="4"/>
			<output>
				<port id="1" precision="FP32"/>
			</output>
		</layer>
		<layer id="302" name="61436147_const" type="Const" version="opset1">
			<data element_type="f32" offset="19664" shape="" size="4"/>
			<output>
				<port id="1" precision="FP32"/>
			</output>
		</layer>
		<layer id="303" name="61446148_const" type="Const" version="opset1">
			<data element_type="f32" offset="61768" shape="" size="4"/>
			<output>
				<port id="1" precision="FP32"/>
			</output>
		</layer>
		<layer id="304" name="635/fq_input_1" type="FakeQuantize" version="opset1">
			<data levels="256"/>
			<input>
				<port id="0">
					<dim>1</dim>
					<dim>32</dim>
					<dim>1</dim>
					<dim>1</dim>
				</port>
				<port id="1"/>
				<port id="2"/>
				<port id="3"/>
				<port id="4"/>
			</input>
			<output>
				<port id="5" precision="FP32">
					<dim>1</dim>
					<dim>32</dim>
					<dim>1</dim>
					<dim>1</dim>
				</port>
			</output>
		</layer>
		<layer id="305" name="635" type="Multiply" version="opset1">
			<input>
				<port id="0">
					<dim>1</dim>
					<dim>32</dim>
					<dim>64</dim>
					<dim>32</dim>
				</port>
				<port id="1">
					<dim>1</dim>
					<dim>32</dim>
					<dim>1</dim>
					<dim>1</dim>
				</port>
			</input>
			<output>
				<port id="2" precision="FP32">
					<dim>1</dim>
					<dim>32</dim>
					<dim>64</dim>
					<dim>32</dim>
				</port>
			</output>
		</layer>
		<layer id="306" name="27912795_const" type="Const" version="opset1">
			<data element_type="f32" offset="19664" shape="" size="4"/>
			<output>
				<port id="1" precision="FP32"/>
			</output>
		</layer>
		<layer id="307" name="27922796_const" type="Const" version="opset1">
			<data element_type="f32" offset="61772" shape="" size="4"/>
			<output>
				<port id="1" precision="FP32"/>
			</output>
		</layer>
		<layer id="308" name="27932797_const" type="Const" version="opset1">
			<data element_type="f32" offset="19664" shape="" size="4"/>
			<output>
				<port id="1" precision="FP32"/>
			</output>
		</layer>
		<layer id="309" name="27942798_const" type="Const" version="opset1">
			<data element_type="f32" offset="61772" shape="" size="4"/>
			<output>
				<port id="1" precision="FP32"/>
			</output>
		</layer>
		<layer id="310" name="636/fq_input_1" type="FakeQuantize" version="opset1">
			<data levels="256"/>
			<input>
				<port id="0">
					<dim>1</dim>
					<dim>32</dim>
					<dim>64</dim>
					<dim>32</dim>
				</port>
				<port id="1"/>
				<port id="2"/>
				<port id="3"/>
				<port id="4"/>
			</input>
			<output>
				<port id="5" precision="FP32">
					<dim>1</dim>
					<dim>32</dim>
					<dim>64</dim>
					<dim>32</dim>
				</port>
			</output>
		</layer>
		<layer id="311" name="636" type="Add" version="opset1">
			<input>
				<port id="0">
					<dim>1</dim>
					<dim>32</dim>
					<dim>64</dim>
					<dim>32</dim>
				</port>
				<port id="1">
					<dim>1</dim>
					<dim>32</dim>
					<dim>64</dim>
					<dim>32</dim>
				</port>
			</input>
			<output>
				<port id="2" precision="FP32">
					<dim>1</dim>
					<dim>32</dim>
					<dim>64</dim>
					<dim>32</dim>
				</port>
			</output>
		</layer>
		<layer id="312" name="48814885_const" type="Const" version="opset1">
			<data element_type="f32" offset="19664" shape="" size="4"/>
			<output>
				<port id="1" precision="FP32"/>
			</output>
		</layer>
		<layer id="313" name="48824886_const" type="Const" version="opset1">
			<data element_type="f32" offset="61776" shape="" size="4"/>
			<output>
				<port id="1" precision="FP32"/>
			</output>
		</layer>
		<layer id="314" name="48834887_const" type="Const" version="opset1">
			<data element_type="f32" offset="19664" shape="" size="4"/>
			<output>
				<port id="1" precision="FP32"/>
			</output>
		</layer>
		<layer id="315" name="48844888_const" type="Const" version="opset1">
			<data element_type="f32" offset="61776" shape="" size="4"/>
			<output>
				<port id="1" precision="FP32"/>
			</output>
		</layer>
		<layer id="316" name="643/fq_input_0" type="FakeQuantize" version="opset1">
			<data levels="256"/>
			<input>
				<port id="0">
					<dim>1</dim>
					<dim>32</dim>
					<dim>64</dim>
					<dim>32</dim>
				</port>
				<port id="1"/>
				<port id="2"/>
				<port id="3"/>
				<port id="4"/>
			</input>
			<output>
				<port id="5" precision="FP32">
					<dim>1</dim>
					<dim>32</dim>
					<dim>64</dim>
					<dim>32</dim>
				</port>
			</output>
		</layer>
		<layer id="317" name="onnx_initializer_node_conv2.0.conv2d.0.conv1.weight/Output_0/Data__const1123_const" type="Const" version="opset1">
			<data element_type="f32" offset="61780" shape="32,32,1,1" size="4096"/>
			<output>
				<port id="1" precision="FP32">
					<dim>32</dim>
					<dim>32</dim>
					<dim>1</dim>
					<dim>1</dim>
				</port>
			</output>
		</layer>
		<layer id="318" name="29512955_const" type="Const" version="opset1">
			<data element_type="f32" offset="65876" shape="32,1,1,1" size="128"/>
			<output>
				<port id="1" precision="FP32">
					<dim>32</dim>
					<dim>1</dim>
					<dim>1</dim>
					<dim>1</dim>
				</port>
			</output>
		</layer>
		<layer id="319" name="29522956_const" type="Const" version="opset1">
			<data element_type="f32" offset="66004" shape="32,1,1,1" size="128"/>
			<output>
				<port id="1" precision="FP32">
					<dim>32</dim>
					<dim>1</dim>
					<dim>1</dim>
					<dim>1</dim>
				</port>
			</output>
		</layer>
		<layer id="320" name="29532957_const" type="Const" version="opset1">
			<data element_type="f32" offset="65876" shape="32,1,1,1" size="128"/>
			<output>
				<port id="1" precision="FP32">
					<dim>32</dim>
					<dim>1</dim>
					<dim>1</dim>
					<dim>1</dim>
				</port>
			</output>
		</layer>
		<layer id="321" name="29542958_const" type="Const" version="opset1">
			<data element_type="f32" offset="66004" shape="32,1,1,1" size="128"/>
			<output>
				<port id="1" precision="FP32">
					<dim>32</dim>
					<dim>1</dim>
					<dim>1</dim>
					<dim>1</dim>
				</port>
			</output>
		</layer>
		<layer id="322" name="601/fq_weights_1" type="FakeQuantize" version="opset1">
			<data levels="255"/>
			<input>
				<port id="0">
					<dim>32</dim>
					<dim>32</dim>
					<dim>1</dim>
					<dim>1</dim>
				</port>
				<port id="1">
					<dim>32</dim>
					<dim>1</dim>
					<dim>1</dim>
					<dim>1</dim>
				</port>
				<port id="2">
					<dim>32</dim>
					<dim>1</dim>
					<dim>1</dim>
					<dim>1</dim>
				</port>
				<port id="3">
					<dim>32</dim>
					<dim>1</dim>
					<dim>1</dim>
					<dim>1</dim>
				</port>
				<port id="4">
					<dim>32</dim>
					<dim>1</dim>
					<dim>1</dim>
					<dim>1</dim>
				</port>
			</input>
			<output>
				<port id="5" precision="FP32">
					<dim>32</dim>
					<dim>32</dim>
					<dim>1</dim>
					<dim>1</dim>
				</port>
			</output>
		</layer>
		<layer id="323" name="601" type="Convolution" version="opset1">
			<data dilations="1,1" output_padding="0,0" pads_begin="0,0" pads_end="0,0" strides="1,1"/>
			<input>
				<port id="0">
					<dim>1</dim>
					<dim>32</dim>
					<dim>64</dim>
					<dim>32</dim>
				</port>
				<port id="1">
					<dim>32</dim>
					<dim>32</dim>
					<dim>1</dim>
					<dim>1</dim>
				</port>
			</input>
			<output>
				<port id="2" precision="FP32">
					<dim>1</dim>
					<dim>32</dim>
					<dim>64</dim>
					<dim>32</dim>
				</port>
			</output>
		</layer>
		<layer id="324" name="60116015_const" type="Const" version="opset1">
			<data element_type="f32" offset="66132" shape="1,32,1,1" size="128"/>
			<output>
				<port id="1" precision="FP32">
					<dim>1</dim>
					<dim>32</dim>
					<dim>1</dim>
					<dim>1</dim>
				</port>
			</output>
		</layer>
		<layer id="325" name="60126016_const" type="Const" version="opset1">
			<data element_type="f32" offset="66260" shape="1,32,1,1" size="128"/>
			<output>
				<port id="1" precision="FP32">
					<dim>1</dim>
					<dim>32</dim>
					<dim>1</dim>
					<dim>1</dim>
				</port>
			</output>
		</layer>
		<layer id="326" name="60136017_const" type="Const" version="opset1">
			<data element_type="f32" offset="66132" shape="1,32,1,1" size="128"/>
			<output>
				<port id="1" precision="FP32">
					<dim>1</dim>
					<dim>32</dim>
					<dim>1</dim>
					<dim>1</dim>
				</port>
			</output>
		</layer>
		<layer id="327" name="60146018_const" type="Const" version="opset1">
			<data element_type="f32" offset="66260" shape="1,32,1,1" size="128"/>
			<output>
				<port id="1" precision="FP32">
					<dim>1</dim>
					<dim>32</dim>
					<dim>1</dim>
					<dim>1</dim>
				</port>
			</output>
		</layer>
		<layer id="328" name="602/fq_input_0" type="FakeQuantize" version="opset1">
			<data levels="256"/>
			<input>
				<port id="0">
					<dim>1</dim>
					<dim>32</dim>
					<dim>64</dim>
					<dim>32</dim>
				</port>
				<port id="1">
					<dim>1</dim>
					<dim>32</dim>
					<dim>1</dim>
					<dim>1</dim>
				</port>
				<port id="2">
					<dim>1</dim>
					<dim>32</dim>
					<dim>1</dim>
					<dim>1</dim>
				</port>
				<port id="3">
					<dim>1</dim>
					<dim>32</dim>
					<dim>1</dim>
					<dim>1</dim>
				</port>
				<port id="4">
					<dim>1</dim>
					<dim>32</dim>
					<dim>1</dim>
					<dim>1</dim>
				</port>
			</input>
			<output>
				<port id="5" precision="FP32">
					<dim>1</dim>
					<dim>32</dim>
					<dim>64</dim>
					<dim>32</dim>
				</port>
			</output>
		</layer>
		<layer id="329" name="21561912_const" type="Const" version="opset1">
			<data element_type="f32" offset="66388" shape="32,1,3,3" size="1152"/>
			<output>
				<port id="1" precision="FP32">
					<dim>32</dim>
					<dim>1</dim>
					<dim>3</dim>
					<dim>3</dim>
				</port>
			</output>
		</layer>
		<layer id="330" name="60216025_const" type="Const" version="opset1">
			<data element_type="f32" offset="67540" shape="32,1,1,1" size="128"/>
			<output>
				<port id="1" precision="FP32">
					<dim>32</dim>
					<dim>1</dim>
					<dim>1</dim>
					<dim>1</dim>
				</port>
			</output>
		</layer>
		<layer id="331" name="60226026_const" type="Const" version="opset1">
			<data element_type="f32" offset="67668" shape="32,1,1,1" size="128"/>
			<output>
				<port id="1" precision="FP32">
					<dim>32</dim>
					<dim>1</dim>
					<dim>1</dim>
					<dim>1</dim>
				</port>
			</output>
		</layer>
		<layer id="332" name="60236027_const" type="Const" version="opset1">
			<data element_type="f32" offset="67540" shape="32,1,1,1" size="128"/>
			<output>
				<port id="1" precision="FP32">
					<dim>32</dim>
					<dim>1</dim>
					<dim>1</dim>
					<dim>1</dim>
				</port>
			</output>
		</layer>
		<layer id="333" name="60246028_const" type="Const" version="opset1">
			<data element_type="f32" offset="67668" shape="32,1,1,1" size="128"/>
			<output>
				<port id="1" precision="FP32">
					<dim>32</dim>
					<dim>1</dim>
					<dim>1</dim>
					<dim>1</dim>
				</port>
			</output>
		</layer>
		<layer id="334" name="602/fq_weights_1" type="FakeQuantize" version="opset1">
			<data levels="255"/>
			<input>
				<port id="0">
					<dim>32</dim>
					<dim>1</dim>
					<dim>3</dim>
					<dim>3</dim>
				</port>
				<port id="1">
					<dim>32</dim>
					<dim>1</dim>
					<dim>1</dim>
					<dim>1</dim>
				</port>
				<port id="2">
					<dim>32</dim>
					<dim>1</dim>
					<dim>1</dim>
					<dim>1</dim>
				</port>
				<port id="3">
					<dim>32</dim>
					<dim>1</dim>
					<dim>1</dim>
					<dim>1</dim>
				</port>
				<port id="4">
					<dim>32</dim>
					<dim>1</dim>
					<dim>1</dim>
					<dim>1</dim>
				</port>
			</input>
			<output>
				<port id="5" precision="FP32">
					<dim>32</dim>
					<dim>1</dim>
					<dim>3</dim>
					<dim>3</dim>
				</port>
			</output>
		</layer>
		<layer id="335" name="12758/value12760_const" type="Const" version="opset1">
			<data element_type="i64" offset="30172" shape="5" size="40"/>
			<output>
				<port id="1" precision="I64">
					<dim>5</dim>
				</port>
			</output>
		</layer>
		<layer id="336" name="12758" type="Reshape" version="opset1">
			<data special_zero="True"/>
			<input>
				<port id="0">
					<dim>32</dim>
					<dim>1</dim>
					<dim>3</dim>
					<dim>3</dim>
				</port>
				<port id="1">
					<dim>5</dim>
				</port>
			</input>
			<output>
				<port id="2" precision="FP32">
					<dim>32</dim>
					<dim>1</dim>
					<dim>1</dim>
					<dim>3</dim>
					<dim>3</dim>
				</port>
			</output>
		</layer>
		<layer id="337" name="602" type="GroupConvolution" version="opset1">
			<data dilations="1,1" output_padding="0,0" pads_begin="1,1" pads_end="1,1" strides="1,1"/>
			<input>
				<port id="0">
					<dim>1</dim>
					<dim>32</dim>
					<dim>64</dim>
					<dim>32</dim>
				</port>
				<port id="1">
					<dim>32</dim>
					<dim>1</dim>
					<dim>1</dim>
					<dim>3</dim>
					<dim>3</dim>
				</port>
			</input>
			<output>
				<port id="2" precision="FP32">
					<dim>1</dim>
					<dim>32</dim>
					<dim>64</dim>
					<dim>32</dim>
				</port>
			</output>
		</layer>
		<layer id="338" name="data_add_1843318438/copy_const1127_const" type="Const" version="opset1">
			<data element_type="f32" offset="67796" shape="1,32,1,1" size="128"/>
			<output>
				<port id="1" precision="FP32">
					<dim>1</dim>
					<dim>32</dim>
					<dim>1</dim>
					<dim>1</dim>
				</port>
			</output>
		</layer>
		<layer id="339" name="Add1_16367/Fused_Add_" type="Add" version="opset1">
			<input>
				<port id="0">
					<dim>1</dim>
					<dim>32</dim>
					<dim>64</dim>
					<dim>32</dim>
				</port>
				<port id="1">
					<dim>1</dim>
					<dim>32</dim>
					<dim>1</dim>
					<dim>1</dim>
				</port>
			</input>
			<output>
				<port id="2" precision="FP32">
					<dim>1</dim>
					<dim>32</dim>
					<dim>64</dim>
					<dim>32</dim>
				</port>
			</output>
		</layer>
		<layer id="340" name="604" type="ReLU" version="opset1">
			<input>
				<port id="0">
					<dim>1</dim>
					<dim>32</dim>
					<dim>64</dim>
					<dim>32</dim>
				</port>
			</input>
			<output>
				<port id="1" precision="FP32">
					<dim>1</dim>
					<dim>32</dim>
					<dim>64</dim>
					<dim>32</dim>
				</port>
			</output>
		</layer>
		<layer id="341" name="43914395_const" type="Const" version="opset1">
			<data element_type="f32" offset="19664" shape="" size="4"/>
			<output>
				<port id="1" precision="FP32"/>
			</output>
		</layer>
		<layer id="342" name="43924396_const" type="Const" version="opset1">
			<data element_type="f32" offset="67924" shape="" size="4"/>
			<output>
				<port id="1" precision="FP32"/>
			</output>
		</layer>
		<layer id="343" name="43934397_const" type="Const" version="opset1">
			<data element_type="f32" offset="19664" shape="" size="4"/>
			<output>
				<port id="1" precision="FP32"/>
			</output>
		</layer>
		<layer id="344" name="43944398_const" type="Const" version="opset1">
			<data element_type="f32" offset="67924" shape="" size="4"/>
			<output>
				<port id="1" precision="FP32"/>
			</output>
		</layer>
		<layer id="345" name="605/fq_input_0" type="FakeQuantize" version="opset1">
			<data levels="256"/>
			<input>
				<port id="0">
					<dim>1</dim>
					<dim>32</dim>
					<dim>64</dim>
					<dim>32</dim>
				</port>
				<port id="1"/>
				<port id="2"/>
				<port id="3"/>
				<port id="4"/>
			</input>
			<output>
				<port id="5" precision="FP32">
					<dim>1</dim>
					<dim>32</dim>
					<dim>64</dim>
					<dim>32</dim>
				</port>
			</output>
		</layer>
		<layer id="346" name="onnx_initializer_node_conv2.0.conv2d.1.conv1.weight/Output_0/Data__const1130_const" type="Const" version="opset1">
			<data element_type="f32" offset="67928" shape="32,32,1,1" size="4096"/>
			<output>
				<port id="1" precision="FP32">
					<dim>32</dim>
					<dim>32</dim>
					<dim>1</dim>
					<dim>1</dim>
				</port>
			</output>
		</layer>
		<layer id="347" name="44014405_const" type="Const" version="opset1">
			<data element_type="f32" offset="72024" shape="32,1,1,1" size="128"/>
			<output>
				<port id="1" precision="FP32">
					<dim>32</dim>
					<dim>1</dim>
					<dim>1</dim>
					<dim>1</dim>
				</port>
			</output>
		</layer>
		<layer id="348" name="44024406_const" type="Const" version="opset1">
			<data element_type="f32" offset="72152" shape="32,1,1,1" size="128"/>
			<output>
				<port id="1" precision="FP32">
					<dim>32</dim>
					<dim>1</dim>
					<dim>1</dim>
					<dim>1</dim>
				</port>
			</output>
		</layer>
		<layer id="349" name="44034407_const" type="Const" version="opset1">
			<data element_type="f32" offset="72024" shape="32,1,1,1" size="128"/>
			<output>
				<port id="1" precision="FP32">
					<dim>32</dim>
					<dim>1</dim>
					<dim>1</dim>
					<dim>1</dim>
				</port>
			</output>
		</layer>
		<layer id="350" name="44044408_const" type="Const" version="opset1">
			<data element_type="f32" offset="72152" shape="32,1,1,1" size="128"/>
			<output>
				<port id="1" precision="FP32">
					<dim>32</dim>
					<dim>1</dim>
					<dim>1</dim>
					<dim>1</dim>
				</port>
			</output>
		</layer>
		<layer id="351" name="605/fq_weights_1" type="FakeQuantize" version="opset1">
			<data levels="255"/>
			<input>
				<port id="0">
					<dim>32</dim>
					<dim>32</dim>
					<dim>1</dim>
					<dim>1</dim>
				</port>
				<port id="1">
					<dim>32</dim>
					<dim>1</dim>
					<dim>1</dim>
					<dim>1</dim>
				</port>
				<port id="2">
					<dim>32</dim>
					<dim>1</dim>
					<dim>1</dim>
					<dim>1</dim>
				</port>
				<port id="3">
					<dim>32</dim>
					<dim>1</dim>
					<dim>1</dim>
					<dim>1</dim>
				</port>
				<port id="4">
					<dim>32</dim>
					<dim>1</dim>
					<dim>1</dim>
					<dim>1</dim>
				</port>
			</input>
			<output>
				<port id="5" precision="FP32">
					<dim>32</dim>
					<dim>32</dim>
					<dim>1</dim>
					<dim>1</dim>
				</port>
			</output>
		</layer>
		<layer id="352" name="605" type="Convolution" version="opset1">
			<data dilations="1,1" output_padding="0,0" pads_begin="0,0" pads_end="0,0" strides="1,1"/>
			<input>
				<port id="0">
					<dim>1</dim>
					<dim>32</dim>
					<dim>64</dim>
					<dim>32</dim>
				</port>
				<port id="1">
					<dim>32</dim>
					<dim>32</dim>
					<dim>1</dim>
					<dim>1</dim>
				</port>
			</input>
			<output>
				<port id="2" precision="FP32">
					<dim>1</dim>
					<dim>32</dim>
					<dim>64</dim>
					<dim>32</dim>
				</port>
			</output>
		</layer>
		<layer id="353" name="39313935_const" type="Const" version="opset1">
			<data element_type="f32" offset="72280" shape="1,32,1,1" size="128"/>
			<output>
				<port id="1" precision="FP32">
					<dim>1</dim>
					<dim>32</dim>
					<dim>1</dim>
					<dim>1</dim>
				</port>
			</output>
		</layer>
		<layer id="354" name="39323936_const" type="Const" version="opset1">
			<data element_type="f32" offset="72408" shape="1,32,1,1" size="128"/>
			<output>
				<port id="1" precision="FP32">
					<dim>1</dim>
					<dim>32</dim>
					<dim>1</dim>
					<dim>1</dim>
				</port>
			</output>
		</layer>
		<layer id="355" name="39333937_const" type="Const" version="opset1">
			<data element_type="f32" offset="72280" shape="1,32,1,1" size="128"/>
			<output>
				<port id="1" precision="FP32">
					<dim>1</dim>
					<dim>32</dim>
					<dim>1</dim>
					<dim>1</dim>
				</port>
			</output>
		</layer>
		<layer id="356" name="39343938_const" type="Const" version="opset1">
			<data element_type="f32" offset="72408" shape="1,32,1,1" size="128"/>
			<output>
				<port id="1" precision="FP32">
					<dim>1</dim>
					<dim>32</dim>
					<dim>1</dim>
					<dim>1</dim>
				</port>
			</output>
		</layer>
		<layer id="357" name="606/fq_input_0" type="FakeQuantize" version="opset1">
			<data levels="256"/>
			<input>
				<port id="0">
					<dim>1</dim>
					<dim>32</dim>
					<dim>64</dim>
					<dim>32</dim>
				</port>
				<port id="1">
					<dim>1</dim>
					<dim>32</dim>
					<dim>1</dim>
					<dim>1</dim>
				</port>
				<port id="2">
					<dim>1</dim>
					<dim>32</dim>
					<dim>1</dim>
					<dim>1</dim>
				</port>
				<port id="3">
					<dim>1</dim>
					<dim>32</dim>
					<dim>1</dim>
					<dim>1</dim>
				</port>
				<port id="4">
					<dim>1</dim>
					<dim>32</dim>
					<dim>1</dim>
					<dim>1</dim>
				</port>
			</input>
			<output>
				<port id="5" precision="FP32">
					<dim>1</dim>
					<dim>32</dim>
					<dim>64</dim>
					<dim>32</dim>
				</port>
			</output>
		</layer>
		<layer id="358" name="21601914_const" type="Const" version="opset1">
			<data element_type="f32" offset="72536" shape="32,1,3,3" size="1152"/>
			<output>
				<port id="1" precision="FP32">
					<dim>32</dim>
					<dim>1</dim>
					<dim>3</dim>
					<dim>3</dim>
				</port>
			</output>
		</layer>
		<layer id="359" name="39413945_const" type="Const" version="opset1">
			<data element_type="f32" offset="73688" shape="32,1,1,1" size="128"/>
			<output>
				<port id="1" precision="FP32">
					<dim>32</dim>
					<dim>1</dim>
					<dim>1</dim>
					<dim>1</dim>
				</port>
			</output>
		</layer>
		<layer id="360" name="39423946_const" type="Const" version="opset1">
			<data element_type="f32" offset="73816" shape="32,1,1,1" size="128"/>
			<output>
				<port id="1" precision="FP32">
					<dim>32</dim>
					<dim>1</dim>
					<dim>1</dim>
					<dim>1</dim>
				</port>
			</output>
		</layer>
		<layer id="361" name="39433947_const" type="Const" version="opset1">
			<data element_type="f32" offset="73688" shape="32,1,1,1" size="128"/>
			<output>
				<port id="1" precision="FP32">
					<dim>32</dim>
					<dim>1</dim>
					<dim>1</dim>
					<dim>1</dim>
				</port>
			</output>
		</layer>
		<layer id="362" name="39443948_const" type="Const" version="opset1">
			<data element_type="f32" offset="73816" shape="32,1,1,1" size="128"/>
			<output>
				<port id="1" precision="FP32">
					<dim>32</dim>
					<dim>1</dim>
					<dim>1</dim>
					<dim>1</dim>
				</port>
			</output>
		</layer>
		<layer id="363" name="606/fq_weights_1" type="FakeQuantize" version="opset1">
			<data levels="255"/>
			<input>
				<port id="0">
					<dim>32</dim>
					<dim>1</dim>
					<dim>3</dim>
					<dim>3</dim>
				</port>
				<port id="1">
					<dim>32</dim>
					<dim>1</dim>
					<dim>1</dim>
					<dim>1</dim>
				</port>
				<port id="2">
					<dim>32</dim>
					<dim>1</dim>
					<dim>1</dim>
					<dim>1</dim>
				</port>
				<port id="3">
					<dim>32</dim>
					<dim>1</dim>
					<dim>1</dim>
					<dim>1</dim>
				</port>
				<port id="4">
					<dim>32</dim>
					<dim>1</dim>
					<dim>1</dim>
					<dim>1</dim>
				</port>
			</input>
			<output>
				<port id="5" precision="FP32">
					<dim>32</dim>
					<dim>1</dim>
					<dim>3</dim>
					<dim>3</dim>
				</port>
			</output>
		</layer>
		<layer id="364" name="12666/value12668_const" type="Const" version="opset1">
			<data element_type="i64" offset="30172" shape="5" size="40"/>
			<output>
				<port id="1" precision="I64">
					<dim>5</dim>
				</port>
			</output>
		</layer>
		<layer id="365" name="12666" type="Reshape" version="opset1">
			<data special_zero="True"/>
			<input>
				<port id="0">
					<dim>32</dim>
					<dim>1</dim>
					<dim>3</dim>
					<dim>3</dim>
				</port>
				<port id="1">
					<dim>5</dim>
				</port>
			</input>
			<output>
				<port id="2" precision="FP32">
					<dim>32</dim>
					<dim>1</dim>
					<dim>1</dim>
					<dim>3</dim>
					<dim>3</dim>
				</port>
			</output>
		</layer>
		<layer id="366" name="606" type="GroupConvolution" version="opset1">
			<data dilations="1,1" output_padding="0,0" pads_begin="1,1" pads_end="1,1" strides="1,1"/>
			<input>
				<port id="0">
					<dim>1</dim>
					<dim>32</dim>
					<dim>64</dim>
					<dim>32</dim>
				</port>
				<port id="1">
					<dim>32</dim>
					<dim>1</dim>
					<dim>1</dim>
					<dim>3</dim>
					<dim>3</dim>
				</port>
			</input>
			<output>
				<port id="2" precision="FP32">
					<dim>1</dim>
					<dim>32</dim>
					<dim>64</dim>
					<dim>32</dim>
				</port>
			</output>
		</layer>
		<layer id="367" name="data_add_1844118446/copy_const1134_const" type="Const" version="opset1">
			<data element_type="f32" offset="73944" shape="1,32,1,1" size="128"/>
			<output>
				<port id="1" precision="FP32">
					<dim>1</dim>
					<dim>32</dim>
					<dim>1</dim>
					<dim>1</dim>
				</port>
			</output>
		</layer>
		<layer id="368" name="Add1_16379/Fused_Add_" type="Add" version="opset1">
			<input>
				<port id="0">
					<dim>1</dim>
					<dim>32</dim>
					<dim>64</dim>
					<dim>32</dim>
				</port>
				<port id="1">
					<dim>1</dim>
					<dim>32</dim>
					<dim>1</dim>
					<dim>1</dim>
				</port>
			</input>
			<output>
				<port id="2" precision="FP32">
					<dim>1</dim>
					<dim>32</dim>
					<dim>64</dim>
					<dim>32</dim>
				</port>
			</output>
		</layer>
		<layer id="369" name="608" type="ReLU" version="opset1">
			<input>
				<port id="0">
					<dim>1</dim>
					<dim>32</dim>
					<dim>64</dim>
					<dim>32</dim>
				</port>
			</input>
			<output>
				<port id="1" precision="FP32">
					<dim>1</dim>
					<dim>32</dim>
					<dim>64</dim>
					<dim>32</dim>
				</port>
			</output>
		</layer>
		<layer id="370" name="43714375_const" type="Const" version="opset1">
			<data element_type="f32" offset="19664" shape="" size="4"/>
			<output>
				<port id="1" precision="FP32"/>
			</output>
		</layer>
		<layer id="371" name="43724376_const" type="Const" version="opset1">
			<data element_type="f32" offset="74072" shape="" size="4"/>
			<output>
				<port id="1" precision="FP32"/>
			</output>
		</layer>
		<layer id="372" name="43734377_const" type="Const" version="opset1">
			<data element_type="f32" offset="19664" shape="" size="4"/>
			<output>
				<port id="1" precision="FP32"/>
			</output>
		</layer>
		<layer id="373" name="43744378_const" type="Const" version="opset1">
			<data element_type="f32" offset="74072" shape="" size="4"/>
			<output>
				<port id="1" precision="FP32"/>
			</output>
		</layer>
		<layer id="374" name="609/fq_input_0" type="FakeQuantize" version="opset1">
			<data levels="256"/>
			<input>
				<port id="0">
					<dim>1</dim>
					<dim>32</dim>
					<dim>64</dim>
					<dim>32</dim>
				</port>
				<port id="1"/>
				<port id="2"/>
				<port id="3"/>
				<port id="4"/>
			</input>
			<output>
				<port id="5" precision="FP32">
					<dim>1</dim>
					<dim>32</dim>
					<dim>64</dim>
					<dim>32</dim>
				</port>
			</output>
		</layer>
		<layer id="375" name="onnx_initializer_node_conv2.0.conv2d.2.conv1.weight/Output_0/Data__const1137_const" type="Const" version="opset1">
			<data element_type="f32" offset="74076" shape="32,32,1,1" size="4096"/>
			<output>
				<port id="1" precision="FP32">
					<dim>32</dim>
					<dim>32</dim>
					<dim>1</dim>
					<dim>1</dim>
				</port>
			</output>
		</layer>
		<layer id="376" name="43814385_const" type="Const" version="opset1">
			<data element_type="f32" offset="78172" shape="32,1,1,1" size="128"/>
			<output>
				<port id="1" precision="FP32">
					<dim>32</dim>
					<dim>1</dim>
					<dim>1</dim>
					<dim>1</dim>
				</port>
			</output>
		</layer>
		<layer id="377" name="43824386_const" type="Const" version="opset1">
			<data element_type="f32" offset="78300" shape="32,1,1,1" size="128"/>
			<output>
				<port id="1" precision="FP32">
					<dim>32</dim>
					<dim>1</dim>
					<dim>1</dim>
					<dim>1</dim>
				</port>
			</output>
		</layer>
		<layer id="378" name="43834387_const" type="Const" version="opset1">
			<data element_type="f32" offset="78172" shape="32,1,1,1" size="128"/>
			<output>
				<port id="1" precision="FP32">
					<dim>32</dim>
					<dim>1</dim>
					<dim>1</dim>
					<dim>1</dim>
				</port>
			</output>
		</layer>
		<layer id="379" name="43844388_const" type="Const" version="opset1">
			<data element_type="f32" offset="78300" shape="32,1,1,1" size="128"/>
			<output>
				<port id="1" precision="FP32">
					<dim>32</dim>
					<dim>1</dim>
					<dim>1</dim>
					<dim>1</dim>
				</port>
			</output>
		</layer>
		<layer id="380" name="609/fq_weights_1" type="FakeQuantize" version="opset1">
			<data levels="255"/>
			<input>
				<port id="0">
					<dim>32</dim>
					<dim>32</dim>
					<dim>1</dim>
					<dim>1</dim>
				</port>
				<port id="1">
					<dim>32</dim>
					<dim>1</dim>
					<dim>1</dim>
					<dim>1</dim>
				</port>
				<port id="2">
					<dim>32</dim>
					<dim>1</dim>
					<dim>1</dim>
					<dim>1</dim>
				</port>
				<port id="3">
					<dim>32</dim>
					<dim>1</dim>
					<dim>1</dim>
					<dim>1</dim>
				</port>
				<port id="4">
					<dim>32</dim>
					<dim>1</dim>
					<dim>1</dim>
					<dim>1</dim>
				</port>
			</input>
			<output>
				<port id="5" precision="FP32">
					<dim>32</dim>
					<dim>32</dim>
					<dim>1</dim>
					<dim>1</dim>
				</port>
			</output>
		</layer>
		<layer id="381" name="609" type="Convolution" version="opset1">
			<data dilations="1,1" output_padding="0,0" pads_begin="0,0" pads_end="0,0" strides="1,1"/>
			<input>
				<port id="0">
					<dim>1</dim>
					<dim>32</dim>
					<dim>64</dim>
					<dim>32</dim>
				</port>
				<port id="1">
					<dim>32</dim>
					<dim>32</dim>
					<dim>1</dim>
					<dim>1</dim>
				</port>
			</input>
			<output>
				<port id="2" precision="FP32">
					<dim>1</dim>
					<dim>32</dim>
					<dim>64</dim>
					<dim>32</dim>
				</port>
			</output>
		</layer>
		<layer id="382" name="65216525_const" type="Const" version="opset1">
			<data element_type="f32" offset="78428" shape="1,32,1,1" size="128"/>
			<output>
				<port id="1" precision="FP32">
					<dim>1</dim>
					<dim>32</dim>
					<dim>1</dim>
					<dim>1</dim>
				</port>
			</output>
		</layer>
		<layer id="383" name="65226526_const" type="Const" version="opset1">
			<data element_type="f32" offset="78556" shape="1,32,1,1" size="128"/>
			<output>
				<port id="1" precision="FP32">
					<dim>1</dim>
					<dim>32</dim>
					<dim>1</dim>
					<dim>1</dim>
				</port>
			</output>
		</layer>
		<layer id="384" name="65236527_const" type="Const" version="opset1">
			<data element_type="f32" offset="78428" shape="1,32,1,1" size="128"/>
			<output>
				<port id="1" precision="FP32">
					<dim>1</dim>
					<dim>32</dim>
					<dim>1</dim>
					<dim>1</dim>
				</port>
			</output>
		</layer>
		<layer id="385" name="65246528_const" type="Const" version="opset1">
			<data element_type="f32" offset="78556" shape="1,32,1,1" size="128"/>
			<output>
				<port id="1" precision="FP32">
					<dim>1</dim>
					<dim>32</dim>
					<dim>1</dim>
					<dim>1</dim>
				</port>
			</output>
		</layer>
		<layer id="386" name="610/fq_input_0" type="FakeQuantize" version="opset1">
			<data levels="256"/>
			<input>
				<port id="0">
					<dim>1</dim>
					<dim>32</dim>
					<dim>64</dim>
					<dim>32</dim>
				</port>
				<port id="1">
					<dim>1</dim>
					<dim>32</dim>
					<dim>1</dim>
					<dim>1</dim>
				</port>
				<port id="2">
					<dim>1</dim>
					<dim>32</dim>
					<dim>1</dim>
					<dim>1</dim>
				</port>
				<port id="3">
					<dim>1</dim>
					<dim>32</dim>
					<dim>1</dim>
					<dim>1</dim>
				</port>
				<port id="4">
					<dim>1</dim>
					<dim>32</dim>
					<dim>1</dim>
					<dim>1</dim>
				</port>
			</input>
			<output>
				<port id="5" precision="FP32">
					<dim>1</dim>
					<dim>32</dim>
					<dim>64</dim>
					<dim>32</dim>
				</port>
			</output>
		</layer>
		<layer id="387" name="21641916_const" type="Const" version="opset1">
			<data element_type="f32" offset="78684" shape="32,1,3,3" size="1152"/>
			<output>
				<port id="1" precision="FP32">
					<dim>32</dim>
					<dim>1</dim>
					<dim>3</dim>
					<dim>3</dim>
				</port>
			</output>
		</layer>
		<layer id="388" name="65316535_const" type="Const" version="opset1">
			<data element_type="f32" offset="79836" shape="32,1,1,1" size="128"/>
			<output>
				<port id="1" precision="FP32">
					<dim>32</dim>
					<dim>1</dim>
					<dim>1</dim>
					<dim>1</dim>
				</port>
			</output>
		</layer>
		<layer id="389" name="65326536_const" type="Const" version="opset1">
			<data element_type="f32" offset="79964" shape="32,1,1,1" size="128"/>
			<output>
				<port id="1" precision="FP32">
					<dim>32</dim>
					<dim>1</dim>
					<dim>1</dim>
					<dim>1</dim>
				</port>
			</output>
		</layer>
		<layer id="390" name="65336537_const" type="Const" version="opset1">
			<data element_type="f32" offset="79836" shape="32,1,1,1" size="128"/>
			<output>
				<port id="1" precision="FP32">
					<dim>32</dim>
					<dim>1</dim>
					<dim>1</dim>
					<dim>1</dim>
				</port>
			</output>
		</layer>
		<layer id="391" name="65346538_const" type="Const" version="opset1">
			<data element_type="f32" offset="79964" shape="32,1,1,1" size="128"/>
			<output>
				<port id="1" precision="FP32">
					<dim>32</dim>
					<dim>1</dim>
					<dim>1</dim>
					<dim>1</dim>
				</port>
			</output>
		</layer>
		<layer id="392" name="610/fq_weights_1" type="FakeQuantize" version="opset1">
			<data levels="255"/>
			<input>
				<port id="0">
					<dim>32</dim>
					<dim>1</dim>
					<dim>3</dim>
					<dim>3</dim>
				</port>
				<port id="1">
					<dim>32</dim>
					<dim>1</dim>
					<dim>1</dim>
					<dim>1</dim>
				</port>
				<port id="2">
					<dim>32</dim>
					<dim>1</dim>
					<dim>1</dim>
					<dim>1</dim>
				</port>
				<port id="3">
					<dim>32</dim>
					<dim>1</dim>
					<dim>1</dim>
					<dim>1</dim>
				</port>
				<port id="4">
					<dim>32</dim>
					<dim>1</dim>
					<dim>1</dim>
					<dim>1</dim>
				</port>
			</input>
			<output>
				<port id="5" precision="FP32">
					<dim>32</dim>
					<dim>1</dim>
					<dim>3</dim>
					<dim>3</dim>
				</port>
			</output>
		</layer>
		<layer id="393" name="12814/value12816_const" type="Const" version="opset1">
			<data element_type="i64" offset="30172" shape="5" size="40"/>
			<output>
				<port id="1" precision="I64">
					<dim>5</dim>
				</port>
			</output>
		</layer>
		<layer id="394" name="12814" type="Reshape" version="opset1">
			<data special_zero="True"/>
			<input>
				<port id="0">
					<dim>32</dim>
					<dim>1</dim>
					<dim>3</dim>
					<dim>3</dim>
				</port>
				<port id="1">
					<dim>5</dim>
				</port>
			</input>
			<output>
				<port id="2" precision="FP32">
					<dim>32</dim>
					<dim>1</dim>
					<dim>1</dim>
					<dim>3</dim>
					<dim>3</dim>
				</port>
			</output>
		</layer>
		<layer id="395" name="610" type="GroupConvolution" version="opset1">
			<data dilations="1,1" output_padding="0,0" pads_begin="1,1" pads_end="1,1" strides="1,1"/>
			<input>
				<port id="0">
					<dim>1</dim>
					<dim>32</dim>
					<dim>64</dim>
					<dim>32</dim>
				</port>
				<port id="1">
					<dim>32</dim>
					<dim>1</dim>
					<dim>1</dim>
					<dim>3</dim>
					<dim>3</dim>
				</port>
			</input>
			<output>
				<port id="2" precision="FP32">
					<dim>1</dim>
					<dim>32</dim>
					<dim>64</dim>
					<dim>32</dim>
				</port>
			</output>
		</layer>
		<layer id="396" name="data_add_1844918454/copy_const1141_const" type="Const" version="opset1">
			<data element_type="f32" offset="80092" shape="1,32,1,1" size="128"/>
			<output>
				<port id="1" precision="FP32">
					<dim>1</dim>
					<dim>32</dim>
					<dim>1</dim>
					<dim>1</dim>
				</port>
			</output>
		</layer>
		<layer id="397" name="Add1_16391/Fused_Add_" type="Add" version="opset1">
			<input>
				<port id="0">
					<dim>1</dim>
					<dim>32</dim>
					<dim>64</dim>
					<dim>32</dim>
				</port>
				<port id="1">
					<dim>1</dim>
					<dim>32</dim>
					<dim>1</dim>
					<dim>1</dim>
				</port>
			</input>
			<output>
				<port id="2" precision="FP32">
					<dim>1</dim>
					<dim>32</dim>
					<dim>64</dim>
					<dim>32</dim>
				</port>
			</output>
		</layer>
		<layer id="398" name="612" type="ReLU" version="opset1">
			<input>
				<port id="0">
					<dim>1</dim>
					<dim>32</dim>
					<dim>64</dim>
					<dim>32</dim>
				</port>
			</input>
			<output>
				<port id="1" precision="FP32">
					<dim>1</dim>
					<dim>32</dim>
					<dim>64</dim>
					<dim>32</dim>
				</port>
			</output>
		</layer>
		<layer id="399" name="28012805_const" type="Const" version="opset1">
			<data element_type="f32" offset="19664" shape="" size="4"/>
			<output>
				<port id="1" precision="FP32"/>
			</output>
		</layer>
		<layer id="400" name="28022806_const" type="Const" version="opset1">
			<data element_type="f32" offset="80220" shape="" size="4"/>
			<output>
				<port id="1" precision="FP32"/>
			</output>
		</layer>
		<layer id="401" name="28032807_const" type="Const" version="opset1">
			<data element_type="f32" offset="19664" shape="" size="4"/>
			<output>
				<port id="1" precision="FP32"/>
			</output>
		</layer>
		<layer id="402" name="28042808_const" type="Const" version="opset1">
			<data element_type="f32" offset="80220" shape="" size="4"/>
			<output>
				<port id="1" precision="FP32"/>
			</output>
		</layer>
		<layer id="403" name="613/fq_input_0" type="FakeQuantize" version="opset1">
			<data levels="256"/>
			<input>
				<port id="0">
					<dim>1</dim>
					<dim>32</dim>
					<dim>64</dim>
					<dim>32</dim>
				</port>
				<port id="1"/>
				<port id="2"/>
				<port id="3"/>
				<port id="4"/>
			</input>
			<output>
				<port id="5" precision="FP32">
					<dim>1</dim>
					<dim>32</dim>
					<dim>64</dim>
					<dim>32</dim>
				</port>
			</output>
		</layer>
		<layer id="404" name="onnx_initializer_node_conv2.0.conv2d.3.conv1.weight/Output_0/Data__const1144_const" type="Const" version="opset1">
			<data element_type="f32" offset="80224" shape="32,32,1,1" size="4096"/>
			<output>
				<port id="1" precision="FP32">
					<dim>32</dim>
					<dim>32</dim>
					<dim>1</dim>
					<dim>1</dim>
				</port>
			</output>
		</layer>
		<layer id="405" name="28112815_const" type="Const" version="opset1">
			<data element_type="f32" offset="84320" shape="32,1,1,1" size="128"/>
			<output>
				<port id="1" precision="FP32">
					<dim>32</dim>
					<dim>1</dim>
					<dim>1</dim>
					<dim>1</dim>
				</port>
			</output>
		</layer>
		<layer id="406" name="28122816_const" type="Const" version="opset1">
			<data element_type="f32" offset="84448" shape="32,1,1,1" size="128"/>
			<output>
				<port id="1" precision="FP32">
					<dim>32</dim>
					<dim>1</dim>
					<dim>1</dim>
					<dim>1</dim>
				</port>
			</output>
		</layer>
		<layer id="407" name="28132817_const" type="Const" version="opset1">
			<data element_type="f32" offset="84320" shape="32,1,1,1" size="128"/>
			<output>
				<port id="1" precision="FP32">
					<dim>32</dim>
					<dim>1</dim>
					<dim>1</dim>
					<dim>1</dim>
				</port>
			</output>
		</layer>
		<layer id="408" name="28142818_const" type="Const" version="opset1">
			<data element_type="f32" offset="84448" shape="32,1,1,1" size="128"/>
			<output>
				<port id="1" precision="FP32">
					<dim>32</dim>
					<dim>1</dim>
					<dim>1</dim>
					<dim>1</dim>
				</port>
			</output>
		</layer>
		<layer id="409" name="613/fq_weights_1" type="FakeQuantize" version="opset1">
			<data levels="255"/>
			<input>
				<port id="0">
					<dim>32</dim>
					<dim>32</dim>
					<dim>1</dim>
					<dim>1</dim>
				</port>
				<port id="1">
					<dim>32</dim>
					<dim>1</dim>
					<dim>1</dim>
					<dim>1</dim>
				</port>
				<port id="2">
					<dim>32</dim>
					<dim>1</dim>
					<dim>1</dim>
					<dim>1</dim>
				</port>
				<port id="3">
					<dim>32</dim>
					<dim>1</dim>
					<dim>1</dim>
					<dim>1</dim>
				</port>
				<port id="4">
					<dim>32</dim>
					<dim>1</dim>
					<dim>1</dim>
					<dim>1</dim>
				</port>
			</input>
			<output>
				<port id="5" precision="FP32">
					<dim>32</dim>
					<dim>32</dim>
					<dim>1</dim>
					<dim>1</dim>
				</port>
			</output>
		</layer>
		<layer id="410" name="613" type="Convolution" version="opset1">
			<data dilations="1,1" output_padding="0,0" pads_begin="0,0" pads_end="0,0" strides="1,1"/>
			<input>
				<port id="0">
					<dim>1</dim>
					<dim>32</dim>
					<dim>64</dim>
					<dim>32</dim>
				</port>
				<port id="1">
					<dim>32</dim>
					<dim>32</dim>
					<dim>1</dim>
					<dim>1</dim>
				</port>
			</input>
			<output>
				<port id="2" precision="FP32">
					<dim>1</dim>
					<dim>32</dim>
					<dim>64</dim>
					<dim>32</dim>
				</port>
			</output>
		</layer>
		<layer id="411" name="57715775_const" type="Const" version="opset1">
			<data element_type="f32" offset="84576" shape="1,32,1,1" size="128"/>
			<output>
				<port id="1" precision="FP32">
					<dim>1</dim>
					<dim>32</dim>
					<dim>1</dim>
					<dim>1</dim>
				</port>
			</output>
		</layer>
		<layer id="412" name="57725776_const" type="Const" version="opset1">
…
		<edge from-layer="2136" from-port="5" to-layer="2137" to-port="1"/>
		<edge from-layer="2137" from-port="2" to-layer="2142" to-port="0"/>
		<edge from-layer="2138" from-port="1" to-layer="2142" to-port="1"/>
		<edge from-layer="2139" from-port="1" to-layer="2142" to-port="2"/>
		<edge from-layer="2140" from-port="1" to-layer="2142" to-port="3"/>
		<edge from-layer="2141" from-port="1" to-layer="2142" to-port="4"/>
		<edge from-layer="2143" from-port="1" to-layer="2148" to-port="0"/>
		<edge from-layer="2144" from-port="1" to-layer="2148" to-port="1"/>
		<edge from-layer="2145" from-port="1" to-layer="2148" to-port="2"/>
		<edge from-layer="2146" from-port="1" to-layer="2148" to-port="3"/>
		<edge from-layer="2147" from-port="1" to-layer="2148" to-port="4"/>
		<edge from-layer="2148" from-port="5" to-layer="2150" to-port="0"/>
		<edge from-layer="2149" from-port="1" to-layer="2150" to-port="1"/>
		<edge from-layer="2142" from-port="5" to-layer="2151" to-port="0"/>
		<edge from-layer="2150" from-port="2" to-layer="2151" to-port="1"/>
		<edge from-layer="2151" from-port="2" to-layer="2153" to-port="0"/>
		<edge from-layer="2152" from-port="1" to-layer="2153" to-port="1"/>
		<edge from-layer="2153" from-port="2" to-layer="2154" to-port="0"/>
		<edge from-layer="2154" from-port="1" to-layer="2159" to-port="0"/>
		<edge from-layer="2155" from-port="1" to-layer="2159" to-port="1"/>
		<edge from-layer="2156" from-port="1" to-layer="2159" to-port="2"/>
		<edge from-layer="2157" from-port="1" to-layer="2159" to-port="3"/>
		<edge from-layer="2158" from-port="1" to-layer="2159" to-port="4"/>
		<edge from-layer="2160" from-port="1" to-layer="2165" to-port="0"/>
		<edge from-layer="2161" from-port="1" to-layer="2165" to-port="1"/>
		<edge from-layer="2162" from-port="1" to-layer="2165" to-port="2"/>
		<edge from-layer="2163" from-port="1" to-layer="2165" to-port="3"/>
		<edge from-layer="2164" from-port="1" to-layer="2165" to-port="4"/>
		<edge from-layer="2159" from-port="5" to-layer="2166" to-port="0"/>
		<edge from-layer="2165" from-port="5" to-layer="2166" to-port="1"/>
		<edge from-layer="2166" from-port="2" to-layer="2171" to-port="0"/>
		<edge from-layer="2167" from-port="1" to-layer="2171" to-port="1"/>
		<edge from-layer="2168" from-port="1" to-layer="2171" to-port="2"/>
		<edge from-layer="2169" from-port="1" to-layer="2171" to-port="3"/>
		<edge from-layer="2170" from-port="1" to-layer="2171" to-port="4"/>
		<edge from-layer="2172" from-port="1" to-layer="2177" to-port="0"/>
		<edge from-layer="2173" from-port="1" to-layer="2177" to-port="1"/>
		<edge from-layer="2174" from-port="1" to-layer="2177" to-port="2"/>
		<edge from-layer="2175" from-port="1" to-layer="2177" to-port="3"/>
		<edge from-layer="2176" from-port="1" to-layer="2177" to-port="4"/>
		<edge from-layer="2177" from-port="5" to-layer="2179" to-port="0"/>
		<edge from-layer="2178" from-port="1" to-layer="2179" to-port="1"/>
		<edge from-layer="2171" from-port="5" to-layer="2180" to-port="0"/>
		<edge from-layer="2179" from-port="2" to-layer="2180" to-port="1"/>
		<edge from-layer="2180" from-port="2" to-layer="2182" to-port="0"/>
		<edge from-layer="2181" from-port="1" to-layer="2182" to-port="1"/>
		<edge from-layer="2182" from-port="2" to-layer="2183" to-port="0"/>
		<edge from-layer="2183" from-port="1" to-layer="2188" to-port="0"/>
		<edge from-layer="2184" from-port="1" to-layer="2188" to-port="1"/>
		<edge from-layer="2185" from-port="1" to-layer="2188" to-port="2"/>
		<edge from-layer="2186" from-port="1" to-layer="2188" to-port="3"/>
		<edge from-layer="2187" from-port="1" to-layer="2188" to-port="4"/>
		<edge from-layer="2189" from-port="1" to-layer="2194" to-port="0"/>
		<edge from-layer="2190" from-port="1" to-layer="2194" to-port="1"/>
		<edge from-layer="2191" from-port="1" to-layer="2194" to-port="2"/>
		<edge from-layer="2192" from-port="1" to-layer="2194" to-port="3"/>
		<edge from-layer="2193" from-port="1" to-layer="2194" to-port="4"/>
		<edge from-layer="2188" from-port="5" to-layer="2195" to-port="0"/>
		<edge from-layer="2194" from-port="5" to-layer="2195" to-port="1"/>
		<edge from-layer="2195" from-port="2" to-layer="2200" to-port="0"/>
		<edge from-layer="2196" from-port="1" to-layer="2200" to-port="1"/>
		<edge from-layer="2197" from-port="1" to-layer="2200" to-port="2"/>
		<edge from-layer="2198" from-port="1" to-layer="2200" to-port="3"/>
		<edge from-layer="2199" from-port="1" to-layer="2200" to-port="4"/>
		<edge from-layer="2201" from-port="1" to-layer="2206" to-port="0"/>
		<edge from-layer="2202" from-port="1" to-layer="2206" to-port="1"/>
		<edge from-layer="2203" from-port="1" to-layer="2206" to-port="2"/>
		<edge from-layer="2204" from-port="1" to-layer="2206" to-port="3"/>
		<edge from-layer="2205" from-port="1" to-layer="2206" to-port="4"/>
		<edge from-layer="2206" from-port="5" to-layer="2208" to-port="0"/>
		<edge from-layer="2207" from-port="1" to-layer="2208" to-port="1"/>
		<edge from-layer="2200" from-port="5" to-layer="2209" to-port="0"/>
		<edge from-layer="2208" from-port="2" to-layer="2209" to-port="1"/>
		<edge from-layer="2209" from-port="2" to-layer="2211" to-port="0"/>
		<edge from-layer="2210" from-port="1" to-layer="2211" to-port="1"/>
		<edge from-layer="2211" from-port="2" to-layer="2212" to-port="0"/>
		<edge from-layer="2212" from-port="1" to-layer="2217" to-port="0"/>
		<edge from-layer="2213" from-port="1" to-layer="2217" to-port="1"/>
		<edge from-layer="2214" from-port="1" to-layer="2217" to-port="2"/>
		<edge from-layer="2215" from-port="1" to-layer="2217" to-port="3"/>
		<edge from-layer="2216" from-port="1" to-layer="2217" to-port="4"/>
		<edge from-layer="2218" from-port="1" to-layer="2223" to-port="0"/>
		<edge from-layer="2219" from-port="1" to-layer="2223" to-port="1"/>
		<edge from-layer="2220" from-port="1" to-layer="2223" to-port="2"/>
		<edge from-layer="2221" from-port="1" to-layer="2223" to-port="3"/>
		<edge from-layer="2222" from-port="1" to-layer="2223" to-port="4"/>
		<edge from-layer="2217" from-port="5" to-layer="2224" to-port="0"/>
		<edge from-layer="2223" from-port="5" to-layer="2224" to-port="1"/>
		<edge from-layer="2224" from-port="2" to-layer="2229" to-port="0"/>
		<edge from-layer="2225" from-port="1" to-layer="2229" to-port="1"/>
		<edge from-layer="2226" from-port="1" to-layer="2229" to-port="2"/>
		<edge from-layer="2227" from-port="1" to-layer="2229" to-port="3"/>
		<edge from-layer="2228" from-port="1" to-layer="2229" to-port="4"/>
		<edge from-layer="2230" from-port="1" to-layer="2235" to-port="0"/>
		<edge from-layer="2231" from-port="1" to-layer="2235" to-port="1"/>
		<edge from-layer="2232" from-port="1" to-layer="2235" to-port="2"/>
		<edge from-layer="2233" from-port="1" to-layer="2235" to-port="3"/>
		<edge from-layer="2234" from-port="1" to-layer="2235" to-port="4"/>
		<edge from-layer="2235" from-port="5" to-layer="2237" to-port="0"/>
		<edge from-layer="2236" from-port="1" to-layer="2237" to-port="1"/>
		<edge from-layer="2229" from-port="5" to-layer="2238" to-port="0"/>
		<edge from-layer="2237" from-port="2" to-layer="2238" to-port="1"/>
		<edge from-layer="2238" from-port="2" to-layer="2240" to-port="0"/>
		<edge from-layer="2239" from-port="1" to-layer="2240" to-port="1"/>
		<edge from-layer="2240" from-port="2" to-layer="2241" to-port="0"/>
		<edge from-layer="2241" from-port="1" to-layer="2246" to-port="0"/>
		<edge from-layer="2242" from-port="1" to-layer="2246" to-port="1"/>
		<edge from-layer="2243" from-port="1" to-layer="2246" to-port="2"/>
		<edge from-layer="2244" from-port="1" to-layer="2246" to-port="3"/>
		<edge from-layer="2245" from-port="1" to-layer="2246" to-port="4"/>
		<edge from-layer="2246" from-port="5" to-layer="2248" to-port="0"/>
		<edge from-layer="2247" from-port="1" to-layer="2248" to-port="1"/>
		<edge from-layer="2248" from-port="2" to-layer="2250" to-port="0"/>
		<edge from-layer="2249" from-port="1" to-layer="2250" to-port="1"/>
		<edge from-layer="2250" from-port="2" to-layer="2252" to-port="0"/>
		<edge from-layer="2251" from-port="1" to-layer="2252" to-port="1"/>
		<edge from-layer="2252" from-port="2" to-layer="2253" to-port="0"/>
		<edge from-layer="2253" from-port="1" to-layer="2255" to-port="0"/>
		<edge from-layer="2254" from-port="1" to-layer="2255" to-port="1"/>
		<edge from-layer="2255" from-port="2" to-layer="2257" to-port="0"/>
		<edge from-layer="2256" from-port="1" to-layer="2257" to-port="1"/>
		<edge from-layer="2257" from-port="2" to-layer="2258" to-port="0"/>
		<edge from-layer="2258" from-port="1" to-layer="2263" to-port="0"/>
		<edge from-layer="2259" from-port="1" to-layer="2263" to-port="1"/>
		<edge from-layer="2260" from-port="1" to-layer="2263" to-port="2"/>
		<edge from-layer="2261" from-port="1" to-layer="2263" to-port="3"/>
		<edge from-layer="2262" from-port="1" to-layer="2263" to-port="4"/>
		<edge from-layer="2246" from-port="5" to-layer="2264" to-port="0"/>
		<edge from-layer="2263" from-port="5" to-layer="2264" to-port="1"/>
		<edge from-layer="2264" from-port="2" to-layer="2269" to-port="0"/>
		<edge from-layer="2265" from-port="1" to-layer="2269" to-port="1"/>
		<edge from-layer="2266" from-port="1" to-layer="2269" to-port="2"/>
		<edge from-layer="2267" from-port="1" to-layer="2269" to-port="3"/>
		<edge from-layer="2268" from-port="1" to-layer="2269" to-port="4"/>
		<edge from-layer="2130" from-port="5" to-layer="2270" to-port="0"/>
		<edge from-layer="2269" from-port="5" to-layer="2270" to-port="1"/>
		<edge from-layer="2270" from-port="2" to-layer="2275" to-port="0"/>
		<edge from-layer="2271" from-port="1" to-layer="2275" to-port="1"/>
		<edge from-layer="2272" from-port="1" to-layer="2275" to-port="2"/>
		<edge from-layer="2273" from-port="1" to-layer="2275" to-port="3"/>
		<edge from-layer="2274" from-port="1" to-layer="2275" to-port="4"/>
		<edge from-layer="2276" from-port="1" to-layer="2281" to-port="0"/>
		<edge from-layer="2277" from-port="1" to-layer="2281" to-port="1"/>
		<edge from-layer="2278" from-port="1" to-layer="2281" to-port="2"/>
		<edge from-layer="2279" from-port="1" to-layer="2281" to-port="3"/>
		<edge from-layer="2280" from-port="1" to-layer="2281" to-port="4"/>
		<edge from-layer="2275" from-port="5" to-layer="2282" to-port="0"/>
		<edge from-layer="2281" from-port="5" to-layer="2282" to-port="1"/>
		<edge from-layer="2282" from-port="2" to-layer="2284" to-port="0"/>
		<edge from-layer="2283" from-port="1" to-layer="2284" to-port="1"/>
		<edge from-layer="2284" from-port="2" to-layer="2289" to-port="0"/>
		<edge from-layer="2285" from-port="1" to-layer="2289" to-port="1"/>
		<edge from-layer="2286" from-port="1" to-layer="2289" to-port="2"/>
		<edge from-layer="2287" from-port="1" to-layer="2289" to-port="3"/>
		<edge from-layer="2288" from-port="1" to-layer="2289" to-port="4"/>
		<edge from-layer="2290" from-port="1" to-layer="2295" to-port="0"/>
		<edge from-layer="2291" from-port="1" to-layer="2295" to-port="1"/>
		<edge from-layer="2292" from-port="1" to-layer="2295" to-port="2"/>
		<edge from-layer="2293" from-port="1" to-layer="2295" to-port="3"/>
		<edge from-layer="2294" from-port="1" to-layer="2295" to-port="4"/>
		<edge from-layer="1860" from-port="5" to-layer="2296" to-port="0"/>
		<edge from-layer="2295" from-port="5" to-layer="2296" to-port="1"/>
		<edge from-layer="2296" from-port="2" to-layer="2298" to-port="0"/>
		<edge from-layer="2297" from-port="1" to-layer="2298" to-port="1"/>
		<edge from-layer="2298" from-port="2" to-layer="2303" to-port="0"/>
		<edge from-layer="2299" from-port="1" to-layer="2303" to-port="1"/>
		<edge from-layer="2300" from-port="1" to-layer="2303" to-port="2"/>
		<edge from-layer="2301" from-port="1" to-layer="2303" to-port="3"/>
		<edge from-layer="2302" from-port="1" to-layer="2303" to-port="4"/>
		<edge from-layer="2289" from-port="5" to-layer="2304" to-port="0"/>
		<edge from-layer="2303" from-port="5" to-layer="2304" to-port="1"/>
		<edge from-layer="2304" from-port="2" to-layer="2305" to-port="0"/>
		<edge from-layer="2305" from-port="1" to-layer="2310" to-port="0"/>
		<edge from-layer="2306" from-port="1" to-layer="2310" to-port="1"/>
		<edge from-layer="2307" from-port="1" to-layer="2310" to-port="2"/>
		<edge from-layer="2308" from-port="1" to-layer="2310" to-port="3"/>
		<edge from-layer="2309" from-port="1" to-layer="2310" to-port="4"/>
		<edge from-layer="2311" from-port="1" to-layer="2316" to-port="0"/>
		<edge from-layer="2312" from-port="1" to-layer="2316" to-port="1"/>
		<edge from-layer="2313" from-port="1" to-layer="2316" to-port="2"/>
		<edge from-layer="2314" from-port="1" to-layer="2316" to-port="3"/>
		<edge from-layer="2315" from-port="1" to-layer="2316" to-port="4"/>
		<edge from-layer="2310" from-port="5" to-layer="2317" to-port="0"/>
		<edge from-layer="2316" from-port="5" to-layer="2317" to-port="1"/>
		<edge from-layer="2317" from-port="2" to-layer="2319" to-port="0"/>
		<edge from-layer="2318" from-port="1" to-layer="2319" to-port="1"/>
		<edge from-layer="2319" from-port="2" to-layer="2320" to-port="0"/>
		<edge from-layer="2320" from-port="1" to-layer="2325" to-port="0"/>
		<edge from-layer="2321" from-port="1" to-layer="2325" to-port="1"/>
		<edge from-layer="2322" from-port="1" to-layer="2325" to-port="2"/>
		<edge from-layer="2323" from-port="1" to-layer="2325" to-port="3"/>
		<edge from-layer="2324" from-port="1" to-layer="2325" to-port="4"/>
		<edge from-layer="2326" from-port="1" to-layer="2331" to-port="0"/>
		<edge from-layer="2327" from-port="1" to-layer="2331" to-port="1"/>
		<edge from-layer="2328" from-port="1" to-layer="2331" to-port="2"/>
		<edge from-layer="2329" from-port="1" to-layer="2331" to-port="3"/>
		<edge from-layer="2330" from-port="1" to-layer="2331" to-port="4"/>
		<edge from-layer="2325" from-port="5" to-layer="2332" to-port="0"/>
		<edge from-layer="2331" from-port="5" to-layer="2332" to-port="1"/>
		<edge from-layer="2332" from-port="2" to-layer="2337" to-port="0"/>
		<edge from-layer="2333" from-port="1" to-layer="2337" to-port="1"/>
		<edge from-layer="2334" from-port="1" to-layer="2337" to-port="2"/>
		<edge from-layer="2335" from-port="1" to-layer="2337" to-port="3"/>
		<edge from-layer="2336" from-port="1" to-layer="2337" to-port="4"/>
		<edge from-layer="2338" from-port="1" to-layer="2343" to-port="0"/>
		<edge from-layer="2339" from-port="1" to-layer="2343" to-port="1"/>
		<edge from-layer="2340" from-port="1" to-layer="2343" to-port="2"/>
		<edge from-layer="2341" from-port="1" to-layer="2343" to-port="3"/>
		<edge from-layer="2342" from-port="1" to-layer="2343" to-port="4"/>
		<edge from-layer="2343" from-port="5" to-layer="2345" to-port="0"/>
		<edge from-layer="2344" from-port="1" to-layer="2345" to-port="1"/>
		<edge from-layer="2337" from-port="5" to-layer="2346" to-port="0"/>
		<edge from-layer="2345" from-port="2" to-layer="2346" to-port="1"/>
		<edge from-layer="2346" from-port="2" to-layer="2348" to-port="0"/>
		<edge from-layer="2347" from-port="1" to-layer="2348" to-port="1"/>
		<edge from-layer="2348" from-port="2" to-layer="2349" to-port="0"/>
		<edge from-layer="2349" from-port="1" to-layer="2354" to-port="0"/>
		<edge from-layer="2350" from-port="1" to-layer="2354" to-port="1"/>
		<edge from-layer="2351" from-port="1" to-layer="2354" to-port="2"/>
		<edge from-layer="2352" from-port="1" to-layer="2354" to-port="3"/>
		<edge from-layer="2353" from-port="1" to-layer="2354" to-port="4"/>
		<edge from-layer="2354" from-port="5" to-layer="2356" to-port="0"/>
		<edge from-layer="2355" from-port="1" to-layer="2356" to-port="1"/>
		<edge from-layer="2356" from-port="2" to-layer="2358" to-port="0"/>
		<edge from-layer="2357" from-port="1" to-layer="2358" to-port="1"/>
		<edge from-layer="2358" from-port="2" to-layer="2360" to-port="0"/>
		<edge from-layer="2359" from-port="1" to-layer="2360" to-port="1"/>
		<edge from-layer="2360" from-port="2" to-layer="2361" to-port="0"/>
		<edge from-layer="2361" from-port="1" to-layer="2363" to-port="0"/>
		<edge from-layer="2362" from-port="1" to-layer="2363" to-port="1"/>
		<edge from-layer="2363" from-port="2" to-layer="2365" to-port="0"/>
		<edge from-layer="2364" from-port="1" to-layer="2365" to-port="1"/>
		<edge from-layer="2365" from-port="2" to-layer="2366" to-port="0"/>
		<edge from-layer="2366" from-port="1" to-layer="2371" to-port="0"/>
		<edge from-layer="2367" from-port="1" to-layer="2371" to-port="1"/>
		<edge from-layer="2368" from-port="1" to-layer="2371" to-port="2"/>
		<edge from-layer="2369" from-port="1" to-layer="2371" to-port="3"/>
		<edge from-layer="2370" from-port="1" to-layer="2371" to-port="4"/>
		<edge from-layer="2354" from-port="5" to-layer="2372" to-port="0"/>
		<edge from-layer="2371" from-port="5" to-layer="2372" to-port="1"/>
		<edge from-layer="2372" from-port="2" to-layer="2377" to-port="0"/>
		<edge from-layer="2373" from-port="1" to-layer="2377" to-port="1"/>
		<edge from-layer="2374" from-port="1" to-layer="2377" to-port="2"/>
		<edge from-layer="2375" from-port="1" to-layer="2377" to-port="3"/>
		<edge from-layer="2376" from-port="1" to-layer="2377" to-port="4"/>
		<edge from-layer="2378" from-port="1" to-layer="2383" to-port="0"/>
		<edge from-layer="2379" from-port="1" to-layer="2383" to-port="1"/>
		<edge from-layer="2380" from-port="1" to-layer="2383" to-port="2"/>
		<edge from-layer="2381" from-port="1" to-layer="2383" to-port="3"/>
		<edge from-layer="2382" from-port="1" to-layer="2383" to-port="4"/>
		<edge from-layer="2325" from-port="5" to-layer="2384" to-port="0"/>
		<edge from-layer="2383" from-port="5" to-layer="2384" to-port="1"/>
		<edge from-layer="2384" from-port="2" to-layer="2389" to-port="0"/>
		<edge from-layer="2385" from-port="1" to-layer="2389" to-port="1"/>
		<edge from-layer="2386" from-port="1" to-layer="2389" to-port="2"/>
		<edge from-layer="2387" from-port="1" to-layer="2389" to-port="3"/>
		<edge from-layer="2388" from-port="1" to-layer="2389" to-port="4"/>
		<edge from-layer="2390" from-port="1" to-layer="2395" to-port="0"/>
		<edge from-layer="2391" from-port="1" to-layer="2395" to-port="1"/>
		<edge from-layer="2392" from-port="1" to-layer="2395" to-port="2"/>
		<edge from-layer="2393" from-port="1" to-layer="2395" to-port="3"/>
		<edge from-layer="2394" from-port="1" to-layer="2395" to-port="4"/>
		<edge from-layer="2395" from-port="5" to-layer="2397" to-port="0"/>
		<edge from-layer="2396" from-port="1" to-layer="2397" to-port="1"/>
		<edge from-layer="2389" from-port="5" to-layer="2398" to-port="0"/>
		<edge from-layer="2397" from-port="2" to-layer="2398" to-port="1"/>
		<edge from-layer="2398" from-port="2" to-layer="2400" to-port="0"/>
		<edge from-layer="2399" from-port="1" to-layer="2400" to-port="1"/>
		<edge from-layer="2400" from-port="2" to-layer="2401" to-port="0"/>
		<edge from-layer="2401" from-port="1" to-layer="2406" to-port="0"/>
		<edge from-layer="2402" from-port="1" to-layer="2406" to-port="1"/>
		<edge from-layer="2403" from-port="1" to-layer="2406" to-port="2"/>
		<edge from-layer="2404" from-port="1" to-layer="2406" to-port="3"/>
		<edge from-layer="2405" from-port="1" to-layer="2406" to-port="4"/>
		<edge from-layer="2407" from-port="1" to-layer="2412" to-port="0"/>
		<edge from-layer="2408" from-port="1" to-layer="2412" to-port="1"/>
		<edge from-layer="2409" from-port="1" to-layer="2412" to-port="2"/>
		<edge from-layer="2410" from-port="1" to-layer="2412" to-port="3"/>
		<edge from-layer="2411" from-port="1" to-layer="2412" to-port="4"/>
		<edge from-layer="2406" from-port="5" to-layer="2413" to-port="0"/>
		<edge from-layer="2412" from-port="5" to-layer="2413" to-port="1"/>
		<edge from-layer="2413" from-port="2" to-layer="2418" to-port="0"/>
		<edge from-layer="2414" from-port="1" to-layer="2418" to-port="1"/>
		<edge from-layer="2415" from-port="1" to-layer="2418" to-port="2"/>
		<edge from-layer="2416" from-port="1" to-layer="2418" to-port="3"/>
		<edge from-layer="2417" from-port="1" to-layer="2418" to-port="4"/>
		<edge from-layer="2419" from-port="1" to-layer="2424" to-port="0"/>
		<edge from-layer="2420" from-port="1" to-layer="2424" to-port="1"/>
		<edge from-layer="2421" from-port="1" to-layer="2424" to-port="2"/>
		<edge from-layer="2422" from-port="1" to-layer="2424" to-port="3"/>
		<edge from-layer="2423" from-port="1" to-layer="2424" to-port="4"/>
		<edge from-layer="2424" from-port="5" to-layer="2426" to-port="0"/>
		<edge from-layer="2425" from-port="1" to-layer="2426" to-port="1"/>
		<edge from-layer="2418" from-port="5" to-layer="2427" to-port="0"/>
		<edge from-layer="2426" from-port="2" to-layer="2427" to-port="1"/>
		<edge from-layer="2427" from-port="2" to-layer="2429" to-port="0"/>
		<edge from-layer="2428" from-port="1" to-layer="2429" to-port="1"/>
		<edge from-layer="2429" from-port="2" to-layer="2430" to-port="0"/>
		<edge from-layer="2430" from-port="1" to-layer="2435" to-port="0"/>
		<edge from-layer="2431" from-port="1" to-layer="2435" to-port="1"/>
		<edge from-layer="2432" from-port="1" to-layer="2435" to-port="2"/>
		<edge from-layer="2433" from-port="1" to-layer="2435" to-port="3"/>
		<edge from-layer="2434" from-port="1" to-layer="2435" to-port="4"/>
		<edge from-layer="2435" from-port="5" to-layer="2437" to-port="0"/>
		<edge from-layer="2436" from-port="1" to-layer="2437" to-port="1"/>
		<edge from-layer="2437" from-port="2" to-layer="2439" to-port="0"/>
		<edge from-layer="2438" from-port="1" to-layer="2439" to-port="1"/>
		<edge from-layer="2439" from-port="2" to-layer="2441" to-port="0"/>
		<edge from-layer="2440" from-port="1" to-layer="2441" to-port="1"/>
		<edge from-layer="2441" from-port="2" to-layer="2442" to-port="0"/>
		<edge from-layer="2442" from-port="1" to-layer="2444" to-port="0"/>
		<edge from-layer="2443" from-port="1" to-layer="2444" to-port="1"/>
		<edge from-layer="2444" from-port="2" to-layer="2446" to-port="0"/>
		<edge from-layer="2445" from-port="1" to-layer="2446" to-port="1"/>
		<edge from-layer="2446" from-port="2" to-layer="2447" to-port="0"/>
		<edge from-layer="2447" from-port="1" to-layer="2452" to-port="0"/>
		<edge from-layer="2448" from-port="1" to-layer="2452" to-port="1"/>
		<edge from-layer="2449" from-port="1" to-layer="2452" to-port="2"/>
		<edge from-layer="2450" from-port="1" to-layer="2452" to-port="3"/>
		<edge from-layer="2451" from-port="1" to-layer="2452" to-port="4"/>
		<edge from-layer="2435" from-port="5" to-layer="2453" to-port="0"/>
		<edge from-layer="2452" from-port="5" to-layer="2453" to-port="1"/>
		<edge from-layer="2453" from-port="2" to-layer="2458" to-port="0"/>
		<edge from-layer="2454" from-port="1" to-layer="2458" to-port="1"/>
		<edge from-layer="2455" from-port="1" to-layer="2458" to-port="2"/>
		<edge from-layer="2456" from-port="1" to-layer="2458" to-port="3"/>
		<edge from-layer="2457" from-port="1" to-layer="2458" to-port="4"/>
		<edge from-layer="2377" from-port="5" to-layer="2459" to-port="0"/>
		<edge from-layer="2458" from-port="5" to-layer="2459" to-port="1"/>
		<edge from-layer="2459" from-port="2" to-layer="2464" to-port="0"/>
		<edge from-layer="2460" from-port="1" to-layer="2464" to-port="1"/>
		<edge from-layer="2461" from-port="1" to-layer="2464" to-port="2"/>
		<edge from-layer="2462" from-port="1" to-layer="2464" to-port="3"/>
		<edge from-layer="2463" from-port="1" to-layer="2464" to-port="4"/>
		<edge from-layer="2465" from-port="1" to-layer="2470" to-port="0"/>
		<edge from-layer="2466" from-port="1" to-layer="2470" to-port="1"/>
		<edge from-layer="2467" from-port="1" to-layer="2470" to-port="2"/>
		<edge from-layer="2468" from-port="1" to-layer="2470" to-port="3"/>
		<edge from-layer="2469" from-port="1" to-layer="2470" to-port="4"/>
		<edge from-layer="2325" from-port="5" to-layer="2471" to-port="0"/>
		<edge from-layer="2470" from-port="5" to-layer="2471" to-port="1"/>
		<edge from-layer="2471" from-port="2" to-layer="2476" to-port="0"/>
		<edge from-layer="2472" from-port="1" to-layer="2476" to-port="1"/>
		<edge from-layer="2473" from-port="1" to-layer="2476" to-port="2"/>
		<edge from-layer="2474" from-port="1" to-layer="2476" to-port="3"/>
		<edge from-layer="2475" from-port="1" to-layer="2476" to-port="4"/>
		<edge from-layer="2477" from-port="1" to-layer="2482" to-port="0"/>
		<edge from-layer="2478" from-port="1" to-layer="2482" to-port="1"/>
		<edge from-layer="2479" from-port="1" to-layer="2482" to-port="2"/>
		<edge from-layer="2480" from-port="1" to-layer="2482" to-port="3"/>
		<edge from-layer="2481" from-port="1" to-layer="2482" to-port="4"/>
		<edge from-layer="2482" from-port="5" to-layer="2484" to-port="0"/>
		<edge from-layer="2483" from-port="1" to-layer="2484" to-port="1"/>
		<edge from-layer="2476" from-port="5" to-layer="2485" to-port="0"/>
		<edge from-layer="2484" from-port="2" to-layer="2485" to-port="1"/>
		<edge from-layer="2485" from-port="2" to-layer="2487" to-port="0"/>
		<edge from-layer="2486" from-port="1" to-layer="2487" to-port="1"/>
		<edge from-layer="2487" from-port="2" to-layer="2488" to-port="0"/>
		<edge from-layer="2488" from-port="1" to-layer="2493" to-port="0"/>
		<edge from-layer="2489" from-port="1" to-layer="2493" to-port="1"/>
		<edge from-layer="2490" from-port="1" to-layer="2493" to-port="2"/>
		<edge from-layer="2491" from-port="1" to-layer="2493" to-port="3"/>
		<edge from-layer="2492" from-port="1" to-layer="2493" to-port="4"/>
		<edge from-layer="2494" from-port="1" to-layer="2499" to-port="0"/>
		<edge from-layer="2495" from-port="1" to-layer="2499" to-port="1"/>
		<edge from-layer="2496" from-port="1" to-layer="2499" to-port="2"/>
		<edge from-layer="2497" from-port="1" to-layer="2499" to-port="3"/>
		<edge from-layer="2498" from-port="1" to-layer="2499" to-port="4"/>
		<edge from-layer="2493" from-port="5" to-layer="2500" to-port="0"/>
		<edge from-layer="2499" from-port="5" to-layer="2500" to-port="1"/>
		<edge from-layer="2500" from-port="2" to-layer="2505" to-port="0"/>
		<edge from-layer="2501" from-port="1" to-layer="2505" to-port="1"/>
		<edge from-layer="2502" from-port="1" to-layer="2505" to-port="2"/>
		<edge from-layer="2503" from-port="1" to-layer="2505" to-port="3"/>
		<edge from-layer="2504" from-port="1" to-layer="2505" to-port="4"/>
		<edge from-layer="2506" from-port="1" to-layer="2511" to-port="0"/>
		<edge from-layer="2507" from-port="1" to-layer="2511" to-port="1"/>
		<edge from-layer="2508" from-port="1" to-layer="2511" to-port="2"/>
		<edge from-layer="2509" from-port="1" to-layer="2511" to-port="3"/>
		<edge from-layer="2510" from-port="1" to-layer="2511" to-port="4"/>
		<edge from-layer="2511" from-port="5" to-layer="2513" to-port="0"/>
		<edge from-layer="2512" from-port="1" to-layer="2513" to-port="1"/>
		<edge from-layer="2505" from-port="5" to-layer="2514" to-port="0"/>
		<edge from-layer="2513" from-port="2" to-layer="2514" to-port="1"/>
		<edge from-layer="2514" from-port="2" to-layer="2516" to-port="0"/>
		<edge from-layer="2515" from-port="1" to-layer="2516" to-port="1"/>
		<edge from-layer="2516" from-port="2" to-layer="2517" to-port="0"/>
		<edge from-layer="2517" from-port="1" to-layer="2522" to-port="0"/>
		<edge from-layer="2518" from-port="1" to-layer="2522" to-port="1"/>
		<edge from-layer="2519" from-port="1" to-layer="2522" to-port="2"/>
		<edge from-layer="2520" from-port="1" to-layer="2522" to-port="3"/>
		<edge from-layer="2521" from-port="1" to-layer="2522" to-port="4"/>
		<edge from-layer="2523" from-port="1" to-layer="2528" to-port="0"/>
		<edge from-layer="2524" from-port="1" to-layer="2528" to-port="1"/>
		<edge from-layer="2525" from-port="1" to-layer="2528" to-port="2"/>
		<edge from-layer="2526" from-port="1" to-layer="2528" to-port="3"/>
		<edge from-layer="2527" from-port="1" to-layer="2528" to-port="4"/>
		<edge from-layer="2522" from-port="5" to-layer="2529" to-port="0"/>
		<edge from-layer="2528" from-port="5" to-layer="2529" to-port="1"/>
		<edge from-layer="2529" from-port="2" to-layer="2534" to-port="0"/>
		<edge from-layer="2530" from-port="1" to-layer="2534" to-port="1"/>
		<edge from-layer="2531" from-port="1" to-layer="2534" to-port="2"/>
		<edge from-layer="2532" from-port="1" to-layer="2534" to-port="3"/>
		<edge from-layer="2533" from-port="1" to-layer="2534" to-port="4"/>
		<edge from-layer="2535" from-port="1" to-layer="2540" to-port="0"/>
		<edge from-layer="2536" from-port="1" to-layer="2540" to-port="1"/>
		<edge from-layer="2537" from-port="1" to-layer="2540" to-port="2"/>
		<edge from-layer="2538" from-port="1" to-layer="2540" to-port="3"/>
		<edge from-layer="2539" from-port="1" to-layer="2540" to-port="4"/>
		<edge from-layer="2540" from-port="5" to-layer="2542" to-port="0"/>
		<edge from-layer="2541" from-port="1" to-layer="2542" to-port="1"/>
		<edge from-layer="2534" from-port="5" to-layer="2543" to-port="0"/>
		<edge from-layer="2542" from-port="2" to-layer="2543" to-port="1"/>
		<edge from-layer="2543" from-port="2" to-layer="2545" to-port="0"/>
		<edge from-layer="2544" from-port="1" to-layer="2545" to-port="1"/>
		<edge from-layer="2545" from-port="2" to-layer="2546" to-port="0"/>
		<edge from-layer="2546" from-port="1" to-layer="2551" to-port="0"/>
		<edge from-layer="2547" from-port="1" to-layer="2551" to-port="1"/>
		<edge from-layer="2548" from-port="1" to-layer="2551" to-port="2"/>
		<edge from-layer="2549" from-port="1" to-layer="2551" to-port="3"/>
		<edge from-layer="2550" from-port="1" to-layer="2551" to-port="4"/>
		<edge from-layer="2551" from-port="5" to-layer="2553" to-port="0"/>
		<edge from-layer="2552" from-port="1" to-layer="2553" to-port="1"/>
		<edge from-layer="2553" from-port="2" to-layer="2555" to-port="0"/>
		<edge from-layer="2554" from-port="1" to-layer="2555" to-port="1"/>
		<edge from-layer="2555" from-port="2" to-layer="2557" to-port="0"/>
		<edge from-layer="2556" from-port="1" to-layer="2557" to-port="1"/>
		<edge from-layer="2557" from-port="2" to-layer="2558" to-port="0"/>
		<edge from-layer="2558" from-port="1" to-layer="2560" to-port="0"/>
		<edge from-layer="2559" from-port="1" to-layer="2560" to-port="1"/>
		<edge from-layer="2560" from-port="2" to-layer="2562" to-port="0"/>
		<edge from-layer="2561" from-port="1" to-layer="2562" to-port="1"/>
		<edge from-layer="2562" from-port="2" to-layer="2563" to-port="0"/>
		<edge from-layer="2563" from-port="1" to-layer="2568" to-port="0"/>
		<edge from-layer="2564" from-port="1" to-layer="2568" to-port="1"/>
		<edge from-layer="2565" from-port="1" to-layer="2568" to-port="2"/>
		<edge from-layer="2566" from-port="1" to-layer="2568" to-port="3"/>
		<edge from-layer="2567" from-port="1" to-layer="2568" to-port="4"/>
		<edge from-layer="2551" from-port="5" to-layer="2569" to-port="0"/>
		<edge from-layer="2568" from-port="5" to-layer="2569" to-port="1"/>
		<edge from-layer="2569" from-port="2" to-layer="2574" to-port="0"/>
		<edge from-layer="2570" from-port="1" to-layer="2574" to-port="1"/>
		<edge from-layer="2571" from-port="1" to-layer="2574" to-port="2"/>
		<edge from-layer="2572" from-port="1" to-layer="2574" to-port="3"/>
		<edge from-layer="2573" from-port="1" to-layer="2574" to-port="4"/>
		<edge from-layer="2464" from-port="5" to-layer="2575" to-port="0"/>
		<edge from-layer="2574" from-port="5" to-layer="2575" to-port="1"/>
		<edge from-layer="2575" from-port="2" to-layer="2580" to-port="0"/>
		<edge from-layer="2576" from-port="1" to-layer="2580" to-port="1"/>
		<edge from-layer="2577" from-port="1" to-layer="2580" to-port="2"/>
		<edge from-layer="2578" from-port="1" to-layer="2580" to-port="3"/>
		<edge from-layer="2579" from-port="1" to-layer="2580" to-port="4"/>
		<edge from-layer="2581" from-port="1" to-layer="2586" to-port="0"/>
		<edge from-layer="2582" from-port="1" to-layer="2586" to-port="1"/>
		<edge from-layer="2583" from-port="1" to-layer="2586" to-port="2"/>
		<edge from-layer="2584" from-port="1" to-layer="2586" to-port="3"/>
		<edge from-layer="2585" from-port="1" to-layer="2586" to-port="4"/>
		<edge from-layer="2325" from-port="5" to-layer="2587" to-port="0"/>
		<edge from-layer="2586" from-port="5" to-layer="2587" to-port="1"/>
		<edge from-layer="2587" from-port="2" to-layer="2592" to-port="0"/>
		<edge from-layer="2588" from-port="1" to-layer="2592" to-port="1"/>
		<edge from-layer="2589" from-port="1" to-layer="2592" to-port="2"/>
		<edge from-layer="2590" from-port="1" to-layer="2592" to-port="3"/>
		<edge from-layer="2591" from-port="1" to-layer="2592" to-port="4"/>
		<edge from-layer="2593" from-port="1" to-layer="2598" to-port="0"/>
		<edge from-layer="2594" from-port="1" to-layer="2598" to-port="1"/>
		<edge from-layer="2595" from-port="1" to-layer="2598" to-port="2"/>
		<edge from-layer="2596" from-port="1" to-layer="2598" to-port="3"/>
		<edge from-layer="2597" from-port="1" to-layer="2598" to-port="4"/>
		<edge from-layer="2598" from-port="5" to-layer="2600" to-port="0"/>
		<edge from-layer="2599" from-port="1" to-layer="2600" to-port="1"/>
		<edge from-layer="2592" from-port="5" to-layer="2601" to-port="0"/>
		<edge from-layer="2600" from-port="2" to-layer="2601" to-port="1"/>
		<edge from-layer="2601" from-port="2" to-layer="2603" to-port="0"/>
		<edge from-layer="2602" from-port="1" to-layer="2603" to-port="1"/>
		<edge from-layer="2603" from-port="2" to-layer="2604" to-port="0"/>
		<edge from-layer="2604" from-port="1" to-layer="2609" to-port="0"/>
		<edge from-layer="2605" from-port="1" to-layer="2609" to-port="1"/>
		<edge from-layer="2606" from-port="1" to-layer="2609" to-port="2"/>
		<edge from-layer="2607" from-port="1" to-layer="2609" to-port="3"/>
		<edge from-layer="2608" from-port="1" to-layer="2609" to-port="4"/>
		<edge from-layer="2610" from-port="1" to-layer="2615" to-port="0"/>
		<edge from-layer="2611" from-port="1" to-layer="2615" to-port="1"/>
		<edge from-layer="2612" from-port="1" to-layer="2615" to-port="2"/>
		<edge from-layer="2613" from-port="1" to-layer="2615" to-port="3"/>
		<edge from-layer="2614" from-port="1" to-layer="2615" to-port="4"/>
		<edge from-layer="2609" from-port="5" to-layer="2616" to-port="0"/>
		<edge from-layer="2615" from-port="5" to-layer="2616" to-port="1"/>
		<edge from-layer="2616" from-port="2" to-layer="2621" to-port="0"/>
		<edge from-layer="2617" from-port="1" to-layer="2621" to-port="1"/>
		<edge from-layer="2618" from-port="1" to-layer="2621" to-port="2"/>
		<edge from-layer="2619" from-port="1" to-layer="2621" to-port="3"/>
		<edge from-layer="2620" from-port="1" to-layer="2621" to-port="4"/>
		<edge from-layer="2622" from-port="1" to-layer="2627" to-port="0"/>
		<edge from-layer="2623" from-port="1" to-layer="2627" to-port="1"/>
		<edge from-layer="2624" from-port="1" to-layer="2627" to-port="2"/>
		<edge from-layer="2625" from-port="1" to-layer="2627" to-port="3"/>
		<edge from-layer="2626" from-port="1" to-layer="2627" to-port="4"/>
		<edge from-layer="2627" from-port="5" to-layer="2629" to-port="0"/>
		<edge from-layer="2628" from-port="1" to-layer="2629" to-port="1"/>
		<edge from-layer="2621" from-port="5" to-layer="2630" to-port="0"/>
		<edge from-layer="2629" from-port="2" to-layer="2630" to-port="1"/>
		<edge from-layer="2630" from-port="2" to-layer="2632" to-port="0"/>
		<edge from-layer="2631" from-port="1" to-layer="2632" to-port="1"/>
		<edge from-layer="2632" from-port="2" to-layer="2633" to-port="0"/>
		<edge from-layer="2633" from-port="1" to-layer="2638" to-port="0"/>
		<edge from-layer="2634" from-port="1" to-layer="2638" to-port="1"/>
		<edge from-layer="2635" from-port="1" to-layer="2638" to-port="2"/>
		<edge from-layer="2636" from-port="1" to-layer="2638" to-port="3"/>
		<edge from-layer="2637" from-port="1" to-layer="2638" to-port="4"/>
		<edge from-layer="2639" from-port="1" to-layer="2644" to-port="0"/>
		<edge from-layer="2640" from-port="1" to-layer="2644" to-port="1"/>
		<edge from-layer="2641" from-port="1" to-layer="2644" to-port="2"/>
		<edge from-layer="2642" from-port="1" to-layer="2644" to-port="3"/>
		<edge from-layer="2643" from-port="1" to-layer="2644" to-port="4"/>
		<edge from-layer="2638" from-port="5" to-layer="2645" to-port="0"/>
		<edge from-layer="2644" from-port="5" to-layer="2645" to-port="1"/>
		<edge from-layer="2645" from-port="2" to-layer="2650" to-port="0"/>
		<edge from-layer="2646" from-port="1" to-layer="2650" to-port="1"/>
		<edge from-layer="2647" from-port="1" to-layer="2650" to-port="2"/>
		<edge from-layer="2648" from-port="1" to-layer="2650" to-port="3"/>
		<edge from-layer="2649" from-port="1" to-layer="2650" to-port="4"/>
		<edge from-layer="2651" from-port="1" to-layer="2656" to-port="0"/>
		<edge from-layer="2652" from-port="1" to-layer="2656" to-port="1"/>
		<edge from-layer="2653" from-port="1" to-layer="2656" to-port="2"/>
		<edge from-layer="2654" from-port="1" to-layer="2656" to-port="3"/>
		<edge from-layer="2655" from-port="1" to-layer="2656" to-port="4"/>
		<edge from-layer="2656" from-port="5" to-layer="2658" to-port="0"/>
		<edge from-layer="2657" from-port="1" to-layer="2658" to-port="1"/>
		<edge from-layer="2650" from-port="5" to-layer="2659" to-port="0"/>
		<edge from-layer="2658" from-port="2" to-layer="2659" to-port="1"/>
		<edge from-layer="2659" from-port="2" to-layer="2661" to-port="0"/>
		<edge from-layer="2660" from-port="1" to-layer="2661" to-port="1"/>
		<edge from-layer="2661" from-port="2" to-layer="2662" to-port="0"/>
		<edge from-layer="2662" from-port="1" to-layer="2667" to-port="0"/>
		<edge from-layer="2663" from-port="1" to-layer="2667" to-port="1"/>
		<edge from-layer="2664" from-port="1" to-layer="2667" to-port="2"/>
		<edge from-layer="2665" from-port="1" to-layer="2667" to-port="3"/>
		<edge from-layer="2666" from-port="1" to-layer="2667" to-port="4"/>
		<edge from-layer="2668" from-port="1" to-layer="2673" to-port="0"/>
		<edge from-layer="2669" from-port="1" to-layer="2673" to-port="1"/>
		<edge from-layer="2670" from-port="1" to-layer="2673" to-port="2"/>
		<edge from-layer="2671" from-port="1" to-layer="2673" to-port="3"/>
		<edge from-layer="2672" from-port="1" to-layer="2673" to-port="4"/>
		<edge from-layer="2667" from-port="5" to-layer="2674" to-port="0"/>
		<edge from-layer="2673" from-port="5" to-layer="2674" to-port="1"/>
		<edge from-layer="2674" from-port="2" to-layer="2679" to-port="0"/>
		<edge from-layer="2675" from-port="1" to-layer="2679" to-port="1"/>
		<edge from-layer="2676" from-port="1" to-layer="2679" to-port="2"/>
		<edge from-layer="2677" from-port="1" to-layer="2679" to-port="3"/>
		<edge from-layer="2678" from-port="1" to-layer="2679" to-port="4"/>
		<edge from-layer="2680" from-port="1" to-layer="2685" to-port="0"/>
		<edge from-layer="2681" from-port="1" to-layer="2685" to-port="1"/>
		<edge from-layer="2682" from-port="1" to-layer="2685" to-port="2"/>
		<edge from-layer="2683" from-port="1" to-layer="2685" to-port="3"/>
		<edge from-layer="2684" from-port="1" to-layer="2685" to-port="4"/>
		<edge from-layer="2685" from-port="5" to-layer="2687" to-port="0"/>
		<edge from-layer="2686" from-port="1" to-layer="2687" to-port="1"/>
		<edge from-layer="2679" from-port="5" to-layer="2688" to-port="0"/>
		<edge from-layer="2687" from-port="2" to-layer="2688" to-port="1"/>
		<edge from-layer="2688" from-port="2" to-layer="2690" to-port="0"/>
		<edge from-layer="2689" from-port="1" to-layer="2690" to-port="1"/>
		<edge from-layer="2690" from-port="2" to-layer="2691" to-port="0"/>
		<edge from-layer="2691" from-port="1" to-layer="2696" to-port="0"/>
		<edge from-layer="2692" from-port="1" to-layer="2696" to-port="1"/>
		<edge from-layer="2693" from-port="1" to-layer="2696" to-port="2"/>
		<edge from-layer="2694" from-port="1" to-layer="2696" to-port="3"/>
		<edge from-layer="2695" from-port="1" to-layer="2696" to-port="4"/>
		<edge from-layer="2696" from-port="5" to-layer="2698" to-port="0"/>
		<edge from-layer="2697" from-port="1" to-layer="2698" to-port="1"/>
		<edge from-layer="2698" from-port="2" to-layer="2700" to-port="0"/>
		<edge from-layer="2699" from-port="1" to-layer="2700" to-port="1"/>
		<edge from-layer="2700" from-port="2" to-layer="2702" to-port="0"/>
		<edge from-layer="2701" from-port="1" to-layer="2702" to-port="1"/>
		<edge from-layer="2702" from-port="2" to-layer="2703" to-port="0"/>
		<edge from-layer="2703" from-port="1" to-layer="2705" to-port="0"/>
		<edge from-layer="2704" from-port="1" to-layer="2705" to-port="1"/>
		<edge from-layer="2705" from-port="2" to-layer="2707" to-port="0"/>
		<edge from-layer="2706" from-port="1" to-layer="2707" to-port="1"/>
		<edge from-layer="2707" from-port="2" to-layer="2708" to-port="0"/>
		<edge from-layer="2708" from-port="1" to-layer="2713" to-port="0"/>
		<edge from-layer="2709" from-port="1" to-layer="2713" to-port="1"/>
		<edge from-layer="2710" from-port="1" to-layer="2713" to-port="2"/>
		<edge from-layer="2711" from-port="1" to-layer="2713" to-port="3"/>
		<edge from-layer="2712" from-port="1" to-layer="2713" to-port="4"/>
		<edge from-layer="2696" from-port="5" to-layer="2714" to-port="0"/>
		<edge from-layer="2713" from-port="5" to-layer="2714" to-port="1"/>
		<edge from-layer="2714" from-port="2" to-layer="2719" to-port="0"/>
		<edge from-layer="2715" from-port="1" to-layer="2719" to-port="1"/>
		<edge from-layer="2716" from-port="1" to-layer="2719" to-port="2"/>
		<edge from-layer="2717" from-port="1" to-layer="2719" to-port="3"/>
		<edge from-layer="2718" from-port="1" to-layer="2719" to-port="4"/>
		<edge from-layer="2580" from-port="5" to-layer="2720" to-port="0"/>
		<edge from-layer="2719" from-port="5" to-layer="2720" to-port="1"/>
		<edge from-layer="2720" from-port="2" to-layer="2725" to-port="0"/>
		<edge from-layer="2721" from-port="1" to-layer="2725" to-port="1"/>
		<edge from-layer="2722" from-port="1" to-layer="2725" to-port="2"/>
		<edge from-layer="2723" from-port="1" to-layer="2725" to-port="3"/>
		<edge from-layer="2724" from-port="1" to-layer="2725" to-port="4"/>
		<edge from-layer="2726" from-port="1" to-layer="2731" to-port="0"/>
		<edge from-layer="2727" from-port="1" to-layer="2731" to-port="1"/>
		<edge from-layer="2728" from-port="1" to-layer="2731" to-port="2"/>
		<edge from-layer="2729" from-port="1" to-layer="2731" to-port="3"/>
		<edge from-layer="2730" from-port="1" to-layer="2731" to-port="4"/>
		<edge from-layer="2725" from-port="5" to-layer="2732" to-port="0"/>
		<edge from-layer="2731" from-port="5" to-layer="2732" to-port="1"/>
		<edge from-layer="2732" from-port="2" to-layer="2734" to-port="0"/>
		<edge from-layer="2733" from-port="1" to-layer="2734" to-port="1"/>
		<edge from-layer="2734" from-port="2" to-layer="2739" to-port="0"/>
		<edge from-layer="2735" from-port="1" to-layer="2739" to-port="1"/>
		<edge from-layer="2736" from-port="1" to-layer="2739" to-port="2"/>
		<edge from-layer="2737" from-port="1" to-layer="2739" to-port="3"/>
		<edge from-layer="2738" from-port="1" to-layer="2739" to-port="4"/>
		<edge from-layer="2739" from-port="5" to-layer="2740" to-port="0"/>
		<edge from-layer="2310" from-port="5" to-layer="2740" to-port="1"/>
		<edge from-layer="2740" from-port="2" to-layer="2741" to-port="0"/>
		<edge from-layer="2741" from-port="1" to-layer="2746" to-port="0"/>
		<edge from-layer="2742" from-port="1" to-layer="2746" to-port="1"/>
		<edge from-layer="2743" from-port="1" to-layer="2746" to-port="2"/>
		<edge from-layer="2744" from-port="1" to-layer="2746" to-port="3"/>
		<edge from-layer="2745" from-port="1" to-layer="2746" to-port="4"/>
		<edge from-layer="2747" from-port="1" to-layer="2752" to-port="0"/>
		<edge from-layer="2748" from-port="1" to-layer="2752" to-port="1"/>
		<edge from-layer="2749" from-port="1" to-layer="2752" to-port="2"/>
		<edge from-layer="2750" from-port="1" to-layer="2752" to-port="3"/>
		<edge from-layer="2751" from-port="1" to-layer="2752" to-port="4"/>
		<edge from-layer="2746" from-port="5" to-layer="2753" to-port="0"/>
		<edge from-layer="2752" from-port="5" to-layer="2753" to-port="1"/>
		<edge from-layer="2753" from-port="2" to-layer="2755" to-port="0"/>
		<edge from-layer="2754" from-port="1" to-layer="2755" to-port="1"/>
		<edge from-layer="2755" from-port="2" to-layer="2756" to-port="0"/>
		<edge from-layer="2756" from-port="1" to-layer="2761" to-port="0"/>
		<edge from-layer="2757" from-port="1" to-layer="2761" to-port="1"/>
		<edge from-layer="2758" from-port="1" to-layer="2761" to-port="2"/>
		<edge from-layer="2759" from-port="1" to-layer="2761" to-port="3"/>
		<edge from-layer="2760" from-port="1" to-layer="2761" to-port="4"/>
		<edge from-layer="2762" from-port="1" to-layer="2767" to-port="0"/>
		<edge from-layer="2763" from-port="1" to-layer="2767" to-port="1"/>
		<edge from-layer="2764" from-port="1" to-layer="2767" to-port="2"/>
		<edge from-layer="2765" from-port="1" to-layer="2767" to-port="3"/>
		<edge from-layer="2766" from-port="1" to-layer="2767" to-port="4"/>
		<edge from-layer="2767" from-port="5" to-layer="2769" to-port="0"/>
		<edge from-layer="2768" from-port="1" to-layer="2769" to-port="1"/>
		<edge from-layer="2761" from-port="5" to-layer="2770" to-port="0"/>
		<edge from-layer="2769" from-port="2" to-layer="2770" to-port="1"/>
		<edge from-layer="2770" from-port="2" to-layer="2772" to-port="0"/>
		<edge from-layer="2771" from-port="1" to-layer="2772" to-port="1"/>
		<edge from-layer="2772" from-port="2" to-layer="2777" to-port="0"/>
		<edge from-layer="2773" from-port="1" to-layer="2777" to-port="1"/>
		<edge from-layer="2774" from-port="1" to-layer="2777" to-port="2"/>
		<edge from-layer="2775" from-port="1" to-layer="2777" to-port="3"/>
		<edge from-layer="2776" from-port="1" to-layer="2777" to-port="4"/>
		<edge from-layer="2777" from-port="5" to-layer="2779" to-port="0"/>
		<edge from-layer="2778" from-port="1" to-layer="2779" to-port="1"/>
		<edge from-layer="2780" from-port="1" to-layer="2785" to-port="0"/>
		<edge from-layer="2781" from-port="1" to-layer="2785" to-port="1"/>
		<edge from-layer="2782" from-port="1" to-layer="2785" to-port="2"/>
		<edge from-layer="2783" from-port="1" to-layer="2785" to-port="3"/>
		<edge from-layer="2784" from-port="1" to-layer="2785" to-port="4"/>
		<edge from-layer="2779" from-port="2" to-layer="2786" to-port="0"/>
		<edge from-layer="2785" from-port="5" to-layer="2786" to-port="1"/>
		<edge from-layer="2786" from-port="2" to-layer="2788" to-port="0"/>
		<edge from-layer="2787" from-port="1" to-layer="2788" to-port="1"/>
		<edge from-layer="2788" from-port="2" to-layer="2793" to-port="0"/>
		<edge from-layer="2789" from-port="1" to-layer="2793" to-port="1"/>
		<edge from-layer="2790" from-port="1" to-layer="2793" to-port="2"/>
		<edge from-layer="2791" from-port="1" to-layer="2793" to-port="3"/>
		<edge from-layer="2792" from-port="1" to-layer="2793" to-port="4"/>
		<edge from-layer="2793" from-port="5" to-layer="2795" to-port="0"/>
		<edge from-layer="2794" from-port="1" to-layer="2795" to-port="1"/>
		<edge from-layer="2795" from-port="2" to-layer="2797" to-port="0"/>
		<edge from-layer="2796" from-port="1" to-layer="2797" to-port="1"/>
		<edge from-layer="2797" from-port="2" to-layer="2799" to-port="0"/>
		<edge from-layer="2798" from-port="1" to-layer="2799" to-port="1"/>
		<edge from-layer="2799" from-port="2" to-layer="2801" to-port="0"/>
		<edge from-layer="2800" from-port="1" to-layer="2801" to-port="1"/>
		<edge from-layer="2801" from-port="2" to-layer="2803" to-port="0"/>
		<edge from-layer="2802" from-port="1" to-layer="2803" to-port="1"/>
		<edge from-layer="2803" from-port="2" to-layer="2804" to-port="0"/>
	</edges>
	<meta_data>
		<MO_version value="unknown version"/>
		<cli_parameters>
			<blobs_as_inputs value="True"/>
			<caffe_parser_path value="DIR"/>
			<data_type value="FP32"/>
			<disable_nhwc_to_nchw value="False"/>
			<disable_omitting_optional value="False"/>
			<disable_resnet_optimization value="False"/>
			<enable_concat_optimization value="False"/>
			<enable_flattening_nested_params value="False"/>
			<enable_ssd_gluoncv value="False"/>
			<extensions value="DIR"/>
			<framework value="onnx"/>
			<freeze_placeholder_with_value value="{}"/>
			<generate_deprecated_IR_V2 value="False"/>
			<generate_deprecated_IR_V7 value="False"/>
			<generate_experimental_IR_V10 value="True"/>
			<input value="data"/>
			<input_model value="DIR/person-reidentification-retail-0103.onnx"/>
			<input_model_is_text value="False"/>
			<input_shape value="[1,3,256,128]"/>
			<k value="DIR/CustomLayersMapping.xml"/>
			<keep_quantize_ops_in_IR value="True"/>
			<keep_shape_ops value="False"/>
			<legacy_mxnet_model value="False"/>
			<log_level value="ERROR"/>
			<mean_scale_values value="{'data': {'mean': array([123.675, 116.28 , 103.53 ]), 'scale': array([0.01712475, 0.017507  , 0.01742919])}}"/>
			<mean_values value="data[123.675,116.28,103.53]"/>
			<model_name value="person-reidentification-retail-0103"/>
			<move_to_preprocess value="False"/>
			<output value="['reid_embedding']"/>
			<output_dir value="DIR"/>
			<placeholder_data_types value="{}"/>
			<placeholder_shapes value="{'data': array([  1,   3, 256, 128])}"/>
			<progress value="False"/>
			<remove_memory value="False"/>
			<remove_output_softmax value="False"/>
			<reverse_input_channels value="True"/>
			<save_params_from_nd value="False"/>
			<scale_values value="data[0.017124753831663668,0.01750700280112045,0.017429193899782137]"/>
			<silent value="False"/>
			<stream_output value="False"/>
			<unset unset_cli_parameters="batch, counts, disable_fusing, disable_gfusing, finegrain_fusing, input_checkpoint, input_meta_graph, input_proto, input_symbol, mean_file, mean_file_offsets, nd_prefix_name, pretrained_model_name, saved_model_dir, saved_model_tags, scale, tensorboard_logdir, tensorflow_custom_layer_libraries, tensorflow_custom_operations_config_update, tensorflow_object_detection_api_pipeline_config, tensorflow_operation_patterns, tensorflow_subgraph_patterns, tensorflow_use_custom_operations_config, transformations_config"/>
		</cli_parameters>
	</meta_data>
</net>
