<?xml version="1.0" ?>
<net name="asl-recognition-0003" version="10">
	<layers>
		<layer id="0" name="589/reciprocal_/Output_0/Data_/copy_const" type="Const" version="opset1">
			<data element_type="f32" offset="0" shape="1,1,1,1,1" size="4"/>
			<output>
				<port id="1" precision="FP32">
					<dim>1</dim>
					<dim>1</dim>
					<dim>1</dim>
					<dim>1</dim>
					<dim>1</dim>
				</port>
			</output>
		</layer>
		<layer id="1" name="560/reciprocal_/Output_0/Data_/copy_const" type="Const" version="opset1">
			<data element_type="f32" offset="0" shape="1,1,1,1,1" size="4"/>
			<output>
				<port id="1" precision="FP32">
					<dim>1</dim>
					<dim>1</dim>
					<dim>1</dim>
					<dim>1</dim>
					<dim>1</dim>
				</port>
			</output>
		</layer>
		<layer id="2" name="499/reciprocal_/Output_0/Data_/copy_const" type="Const" version="opset1">
			<data element_type="f32" offset="0" shape="1,1,1,1,1" size="4"/>
			<output>
				<port id="1" precision="FP32">
					<dim>1</dim>
					<dim>1</dim>
					<dim>1</dim>
					<dim>1</dim>
					<dim>1</dim>
				</port>
			</output>
		</layer>
		<layer id="3" name="360/reciprocal_/Output_0/Data_/copy_const" type="Const" version="opset1">
			<data element_type="f32" offset="0" shape="1,1,1,1,1" size="4"/>
			<output>
				<port id="1" precision="FP32">
					<dim>1</dim>
					<dim>1</dim>
					<dim>1</dim>
					<dim>1</dim>
					<dim>1</dim>
				</port>
			</output>
		</layer>
		<layer id="4" name="input" type="Parameter" version="opset1">
			<data element_type="f32" shape="1,3,16,224,224"/>
			<output>
				<port id="0" precision="FP32">
					<dim>1</dim>
					<dim>3</dim>
					<dim>16</dim>
					<dim>224</dim>
					<dim>224</dim>
				</port>
			</output>
		</layer>
		<layer id="5" name="data_mul_1020010204/copy_const" type="Const" version="opset1">
			<data element_type="f32" offset="4" shape="1,3,1,1,1" size="12"/>
			<output>
				<port id="1" precision="FP32">
					<dim>1</dim>
					<dim>3</dim>
					<dim>1</dim>
					<dim>1</dim>
					<dim>1</dim>
				</port>
			</output>
		</layer>
		<layer id="6" name="Mul_/Fused_Mul_" type="Multiply" version="opset1">
			<input>
				<port id="0">
					<dim>1</dim>
					<dim>3</dim>
					<dim>16</dim>
					<dim>224</dim>
					<dim>224</dim>
				</port>
				<port id="1">
					<dim>1</dim>
					<dim>3</dim>
					<dim>1</dim>
					<dim>1</dim>
					<dim>1</dim>
				</port>
			</input>
			<output>
				<port id="2" precision="FP32">
					<dim>1</dim>
					<dim>3</dim>
					<dim>16</dim>
					<dim>224</dim>
					<dim>224</dim>
				</port>
			</output>
		</layer>
		<layer id="7" name="data_add_1020110206/copy_const" type="Const" version="opset1">
			<data element_type="f32" offset="16" shape="1,3,1,1,1" size="12"/>
			<output>
				<port id="1" precision="FP32">
					<dim>1</dim>
					<dim>3</dim>
					<dim>1</dim>
					<dim>1</dim>
					<dim>1</dim>
				</port>
			</output>
		</layer>
		<layer id="8" name="Add_/Fused_Add_" type="Add" version="opset1">
			<input>
				<port id="0">
					<dim>1</dim>
					<dim>3</dim>
					<dim>16</dim>
					<dim>224</dim>
					<dim>224</dim>
				</port>
				<port id="1">
					<dim>1</dim>
					<dim>3</dim>
					<dim>1</dim>
					<dim>1</dim>
					<dim>1</dim>
				</port>
			</input>
			<output>
				<port id="2" precision="FP32">
					<dim>1</dim>
					<dim>3</dim>
					<dim>16</dim>
					<dim>224</dim>
					<dim>224</dim>
				</port>
			</output>
		</layer>
		<layer id="9" name="Mul1_9092/Fused_Mul_1122111223_const" type="Const" version="opset1">
			<data element_type="f32" offset="28" shape="16,3,1,3,3" size="1728"/>
			<output>
				<port id="1" precision="FP32">
					<dim>16</dim>
					<dim>3</dim>
					<dim>1</dim>
					<dim>3</dim>
					<dim>3</dim>
				</port>
			</output>
		</layer>
		<layer id="10" name="313" type="Convolution" version="opset1">
			<data dilations="1,1,1" output_padding="0,0,0" pads_begin="0,1,1" pads_end="0,1,1" strides="1,2,2"/>
			<input>
				<port id="0">
					<dim>1</dim>
					<dim>3</dim>
					<dim>16</dim>
					<dim>224</dim>
					<dim>224</dim>
				</port>
				<port id="1">
					<dim>16</dim>
					<dim>3</dim>
					<dim>1</dim>
					<dim>3</dim>
					<dim>3</dim>
				</port>
			</input>
			<output>
				<port id="2" precision="FP32">
					<dim>1</dim>
					<dim>16</dim>
					<dim>16</dim>
					<dim>112</dim>
					<dim>112</dim>
				</port>
			</output>
		</layer>
		<layer id="11" name="data_add_1020910214/copy_const" type="Const" version="opset1">
			<data element_type="f32" offset="1756" shape="1,16,1,1,1" size="64"/>
			<output>
				<port id="1" precision="FP32">
					<dim>1</dim>
					<dim>16</dim>
					<dim>1</dim>
					<dim>1</dim>
					<dim>1</dim>
				</port>
			</output>
		</layer>
		<layer id="12" name="Add1_9093/Fused_Add_" type="Add" version="opset1">
			<input>
				<port id="0">
					<dim>1</dim>
					<dim>16</dim>
					<dim>16</dim>
					<dim>112</dim>
					<dim>112</dim>
				</port>
				<port id="1">
					<dim>1</dim>
					<dim>16</dim>
					<dim>1</dim>
					<dim>1</dim>
					<dim>1</dim>
				</port>
			</input>
			<output>
				<port id="2" precision="FP32">
					<dim>1</dim>
					<dim>16</dim>
					<dim>16</dim>
					<dim>112</dim>
					<dim>112</dim>
				</port>
			</output>
		</layer>
		<layer id="13" name="319/reciprocal_/Output_0/Data_/copy_const" type="Const" version="opset1">
			<data element_type="f32" offset="0" shape="1,1,1,1,1" size="4"/>
			<output>
				<port id="1" precision="FP32">
					<dim>1</dim>
					<dim>1</dim>
					<dim>1</dim>
					<dim>1</dim>
					<dim>1</dim>
				</port>
			</output>
		</layer>
		<layer id="14" name="315/Output_0/Data_/copy_const" type="Const" version="opset1">
			<data element_type="f32" offset="1820" shape="1,1,1,1,1" size="4"/>
			<output>
				<port id="1" precision="FP32">
					<dim>1</dim>
					<dim>1</dim>
					<dim>1</dim>
					<dim>1</dim>
					<dim>1</dim>
				</port>
			</output>
		</layer>
		<layer id="15" name="316" type="Add" version="opset1">
			<input>
				<port id="0">
					<dim>1</dim>
					<dim>16</dim>
					<dim>16</dim>
					<dim>112</dim>
					<dim>112</dim>
				</port>
				<port id="1">
					<dim>1</dim>
					<dim>1</dim>
					<dim>1</dim>
					<dim>1</dim>
					<dim>1</dim>
				</port>
			</input>
			<output>
				<port id="2" precision="FP32">
					<dim>1</dim>
					<dim>16</dim>
					<dim>16</dim>
					<dim>112</dim>
					<dim>112</dim>
				</port>
			</output>
		</layer>
		<layer id="16" name="317" type="Clamp" version="opset1">
			<data max="6.0" min="0.0"/>
			<input>
				<port id="0">
					<dim>1</dim>
					<dim>16</dim>
					<dim>16</dim>
					<dim>112</dim>
					<dim>112</dim>
				</port>
			</input>
			<output>
				<port id="1" precision="FP32">
					<dim>1</dim>
					<dim>16</dim>
					<dim>16</dim>
					<dim>112</dim>
					<dim>112</dim>
				</port>
			</output>
		</layer>
		<layer id="17" name="319/mul_" type="Multiply" version="opset1">
			<input>
				<port id="0">
					<dim>1</dim>
					<dim>1</dim>
					<dim>1</dim>
					<dim>1</dim>
					<dim>1</dim>
				</port>
				<port id="1">
					<dim>1</dim>
					<dim>16</dim>
					<dim>16</dim>
					<dim>112</dim>
					<dim>112</dim>
				</port>
			</input>
			<output>
				<port id="2" precision="FP32">
					<dim>1</dim>
					<dim>16</dim>
					<dim>16</dim>
					<dim>112</dim>
					<dim>112</dim>
				</port>
			</output>
		</layer>
		<layer id="18" name="320" type="Multiply" version="opset1">
			<input>
				<port id="0">
					<dim>1</dim>
					<dim>16</dim>
					<dim>16</dim>
					<dim>112</dim>
					<dim>112</dim>
				</port>
				<port id="1">
					<dim>1</dim>
					<dim>16</dim>
					<dim>16</dim>
					<dim>112</dim>
					<dim>112</dim>
				</port>
			</input>
			<output>
				<port id="2" precision="FP32">
					<dim>1</dim>
					<dim>16</dim>
					<dim>16</dim>
					<dim>112</dim>
					<dim>112</dim>
				</port>
			</output>
		</layer>
		<layer id="19" name="1741017413_const" type="Const" version="opset1">
			<data element_type="f32" offset="1824" shape="16,1,1,1,3,3" size="576"/>
			<output>
				<port id="1" precision="FP32">
					<dim>16</dim>
					<dim>1</dim>
					<dim>1</dim>
					<dim>1</dim>
					<dim>3</dim>
					<dim>3</dim>
				</port>
			</output>
		</layer>
		<layer id="20" name="321" type="GroupConvolution" version="opset1">
			<data dilations="1,1,1" output_padding="0,0,0" pads_begin="0,1,1" pads_end="0,1,1" strides="1,1,1"/>
			<input>
				<port id="0">
					<dim>1</dim>
					<dim>16</dim>
					<dim>16</dim>
					<dim>112</dim>
					<dim>112</dim>
				</port>
				<port id="1">
					<dim>16</dim>
					<dim>1</dim>
					<dim>1</dim>
					<dim>1</dim>
					<dim>3</dim>
					<dim>3</dim>
				</port>
			</input>
			<output>
				<port id="2" precision="FP32">
					<dim>1</dim>
					<dim>16</dim>
					<dim>16</dim>
					<dim>112</dim>
					<dim>112</dim>
				</port>
			</output>
		</layer>
		<layer id="21" name="data_add_1021710222/copy_const" type="Const" version="opset1">
			<data element_type="f32" offset="2400" shape="1,16,1,1,1" size="64"/>
			<output>
				<port id="1" precision="FP32">
					<dim>1</dim>
					<dim>16</dim>
					<dim>1</dim>
					<dim>1</dim>
					<dim>1</dim>
				</port>
			</output>
		</layer>
		<layer id="22" name="Add1_9333/Fused_Add_" type="Add" version="opset1">
			<input>
				<port id="0">
					<dim>1</dim>
					<dim>16</dim>
					<dim>16</dim>
					<dim>112</dim>
					<dim>112</dim>
				</port>
				<port id="1">
					<dim>1</dim>
					<dim>16</dim>
					<dim>1</dim>
					<dim>1</dim>
					<dim>1</dim>
				</port>
			</input>
			<output>
				<port id="2" precision="FP32">
					<dim>1</dim>
					<dim>16</dim>
					<dim>16</dim>
					<dim>112</dim>
					<dim>112</dim>
				</port>
			</output>
		</layer>
		<layer id="23" name="323" type="ReLU" version="opset1">
			<input>
				<port id="0">
					<dim>1</dim>
					<dim>16</dim>
					<dim>16</dim>
					<dim>112</dim>
					<dim>112</dim>
				</port>
			</input>
			<output>
				<port id="1" precision="FP32">
					<dim>1</dim>
					<dim>16</dim>
					<dim>16</dim>
					<dim>112</dim>
					<dim>112</dim>
				</port>
			</output>
		</layer>
		<layer id="24" name="Mul1_9296/Fused_Mul_1122911231_const" type="Const" version="opset1">
			<data element_type="f32" offset="2464" shape="16,16,5,1,1" size="5120"/>
			<output>
				<port id="1" precision="FP32">
					<dim>16</dim>
					<dim>16</dim>
					<dim>5</dim>
					<dim>1</dim>
					<dim>1</dim>
				</port>
			</output>
		</layer>
		<layer id="25" name="324" type="Convolution" version="opset1">
			<data dilations="1,1,1" output_padding="0,0,0" pads_begin="2,0,0" pads_end="2,0,0" strides="1,1,1"/>
			<input>
				<port id="0">
					<dim>1</dim>
					<dim>16</dim>
					<dim>16</dim>
					<dim>112</dim>
					<dim>112</dim>
				</port>
				<port id="1">
					<dim>16</dim>
					<dim>16</dim>
					<dim>5</dim>
					<dim>1</dim>
					<dim>1</dim>
				</port>
			</input>
			<output>
				<port id="2" precision="FP32">
					<dim>1</dim>
					<dim>16</dim>
					<dim>16</dim>
					<dim>112</dim>
					<dim>112</dim>
				</port>
			</output>
		</layer>
		<layer id="26" name="data_add_1022510230/copy_const" type="Const" version="opset1">
			<data element_type="f32" offset="7584" shape="1,16,1,1,1" size="64"/>
			<output>
				<port id="1" precision="FP32">
					<dim>1</dim>
					<dim>16</dim>
					<dim>1</dim>
					<dim>1</dim>
					<dim>1</dim>
				</port>
			</output>
		</layer>
		<layer id="27" name="Add1_9297/Fused_Add_" type="Add" version="opset1">
			<input>
				<port id="0">
					<dim>1</dim>
					<dim>16</dim>
					<dim>16</dim>
					<dim>112</dim>
					<dim>112</dim>
				</port>
				<port id="1">
					<dim>1</dim>
					<dim>16</dim>
					<dim>1</dim>
					<dim>1</dim>
					<dim>1</dim>
				</port>
			</input>
			<output>
				<port id="2" precision="FP32">
					<dim>1</dim>
					<dim>16</dim>
					<dim>16</dim>
					<dim>112</dim>
					<dim>112</dim>
				</port>
			</output>
		</layer>
		<layer id="28" name="326" type="Add" version="opset1">
			<input>
				<port id="0">
					<dim>1</dim>
					<dim>16</dim>
					<dim>16</dim>
					<dim>112</dim>
					<dim>112</dim>
				</port>
				<port id="1">
					<dim>1</dim>
					<dim>16</dim>
					<dim>16</dim>
					<dim>112</dim>
					<dim>112</dim>
				</port>
			</input>
			<output>
				<port id="2" precision="FP32">
					<dim>1</dim>
					<dim>16</dim>
					<dim>16</dim>
					<dim>112</dim>
					<dim>112</dim>
				</port>
			</output>
		</layer>
		<layer id="29" name="Mul1_9044/Fused_Mul_1123311235_const" type="Const" version="opset1">
			<data element_type="f32" offset="7648" shape="64,16,1,1,1" size="4096"/>
			<output>
				<port id="1" precision="FP32">
					<dim>64</dim>
					<dim>16</dim>
					<dim>1</dim>
					<dim>1</dim>
					<dim>1</dim>
				</port>
			</output>
		</layer>
		<layer id="30" name="327" type="Convolution" version="opset1">
			<data dilations="1,1,1" output_padding="0,0,0" pads_begin="0,0,0" pads_end="0,0,0" strides="1,1,1"/>
			<input>
				<port id="0">
					<dim>1</dim>
					<dim>16</dim>
					<dim>16</dim>
					<dim>112</dim>
					<dim>112</dim>
				</port>
				<port id="1">
					<dim>64</dim>
					<dim>16</dim>
					<dim>1</dim>
					<dim>1</dim>
					<dim>1</dim>
				</port>
			</input>
			<output>
				<port id="2" precision="FP32">
					<dim>1</dim>
					<dim>64</dim>
					<dim>16</dim>
					<dim>112</dim>
					<dim>112</dim>
				</port>
			</output>
		</layer>
		<layer id="31" name="data_add_1023310238/copy_const" type="Const" version="opset1">
			<data element_type="f32" offset="11744" shape="1,64,1,1,1" size="256"/>
			<output>
				<port id="1" precision="FP32">
					<dim>1</dim>
					<dim>64</dim>
					<dim>1</dim>
					<dim>1</dim>
					<dim>1</dim>
				</port>
			</output>
		</layer>
		<layer id="32" name="Add1_9045/Fused_Add_" type="Add" version="opset1">
			<input>
				<port id="0">
					<dim>1</dim>
					<dim>64</dim>
					<dim>16</dim>
					<dim>112</dim>
					<dim>112</dim>
				</port>
				<port id="1">
					<dim>1</dim>
					<dim>64</dim>
					<dim>1</dim>
					<dim>1</dim>
					<dim>1</dim>
				</port>
			</input>
			<output>
				<port id="2" precision="FP32">
					<dim>1</dim>
					<dim>64</dim>
					<dim>16</dim>
					<dim>112</dim>
					<dim>112</dim>
				</port>
			</output>
		</layer>
		<layer id="33" name="329" type="ReLU" version="opset1">
			<input>
				<port id="0">
					<dim>1</dim>
					<dim>64</dim>
					<dim>16</dim>
					<dim>112</dim>
					<dim>112</dim>
				</port>
			</input>
			<output>
				<port id="1" precision="FP32">
					<dim>1</dim>
					<dim>64</dim>
					<dim>16</dim>
					<dim>112</dim>
					<dim>112</dim>
				</port>
			</output>
		</layer>
		<layer id="34" name="1738617389_const" type="Const" version="opset1">
			<data element_type="f32" offset="12000" shape="64,1,1,1,3,3" size="2304"/>
			<output>
				<port id="1" precision="FP32">
					<dim>64</dim>
					<dim>1</dim>
					<dim>1</dim>
					<dim>1</dim>
					<dim>3</dim>
					<dim>3</dim>
				</port>
			</output>
		</layer>
		<layer id="35" name="330" type="GroupConvolution" version="opset1">
			<data dilations="1,1,1" output_padding="0,0,0" pads_begin="0,1,1" pads_end="0,1,1" strides="1,2,2"/>
			<input>
				<port id="0">
					<dim>1</dim>
					<dim>64</dim>
					<dim>16</dim>
					<dim>112</dim>
					<dim>112</dim>
				</port>
				<port id="1">
					<dim>64</dim>
					<dim>1</dim>
					<dim>1</dim>
					<dim>1</dim>
					<dim>3</dim>
					<dim>3</dim>
				</port>
			</input>
			<output>
				<port id="2" precision="FP32">
					<dim>1</dim>
					<dim>64</dim>
					<dim>16</dim>
					<dim>56</dim>
					<dim>56</dim>
				</port>
			</output>
		</layer>
		<layer id="36" name="data_add_1024110246/copy_const" type="Const" version="opset1">
			<data element_type="f32" offset="14304" shape="1,64,1,1,1" size="256"/>
			<output>
				<port id="1" precision="FP32">
					<dim>1</dim>
					<dim>64</dim>
					<dim>1</dim>
					<dim>1</dim>
					<dim>1</dim>
				</port>
			</output>
		</layer>
		<layer id="37" name="Add1_9225/Fused_Add_" type="Add" version="opset1">
			<input>
				<port id="0">
					<dim>1</dim>
					<dim>64</dim>
					<dim>16</dim>
					<dim>56</dim>
					<dim>56</dim>
				</port>
				<port id="1">
					<dim>1</dim>
					<dim>64</dim>
					<dim>1</dim>
					<dim>1</dim>
					<dim>1</dim>
				</port>
			</input>
			<output>
				<port id="2" precision="FP32">
					<dim>1</dim>
					<dim>64</dim>
					<dim>16</dim>
					<dim>56</dim>
					<dim>56</dim>
				</port>
			</output>
		</layer>
		<layer id="38" name="332" type="ReLU" version="opset1">
			<input>
				<port id="0">
					<dim>1</dim>
					<dim>64</dim>
					<dim>16</dim>
					<dim>56</dim>
					<dim>56</dim>
				</port>
			</input>
			<output>
				<port id="1" precision="FP32">
					<dim>1</dim>
					<dim>64</dim>
					<dim>16</dim>
					<dim>56</dim>
					<dim>56</dim>
				</port>
			</output>
		</layer>
		<layer id="39" name="Mul1_9380/Fused_Mul_1124111243_const" type="Const" version="opset1">
			<data element_type="f32" offset="14560" shape="24,64,3,1,1" size="18432"/>
			<output>
				<port id="1" precision="FP32">
					<dim>24</dim>
					<dim>64</dim>
					<dim>3</dim>
					<dim>1</dim>
					<dim>1</dim>
				</port>
			</output>
		</layer>
		<layer id="40" name="333" type="Convolution" version="opset1">
			<data dilations="1,1,1" output_padding="0,0,0" pads_begin="1,0,0" pads_end="1,0,0" strides="1,1,1"/>
			<input>
				<port id="0">
					<dim>1</dim>
					<dim>64</dim>
					<dim>16</dim>
					<dim>56</dim>
					<dim>56</dim>
				</port>
				<port id="1">
					<dim>24</dim>
					<dim>64</dim>
					<dim>3</dim>
					<dim>1</dim>
					<dim>1</dim>
				</port>
			</input>
			<output>
				<port id="2" precision="FP32">
					<dim>1</dim>
					<dim>24</dim>
					<dim>16</dim>
					<dim>56</dim>
					<dim>56</dim>
				</port>
			</output>
		</layer>
		<layer id="41" name="data_add_1024910254/copy_const" type="Const" version="opset1">
			<data element_type="f32" offset="32992" shape="1,24,1,1,1" size="96"/>
			<output>
				<port id="1" precision="FP32">
					<dim>1</dim>
					<dim>24</dim>
					<dim>1</dim>
					<dim>1</dim>
					<dim>1</dim>
				</port>
			</output>
		</layer>
		<layer id="42" name="Add1_9381/Fused_Add_" type="Add" version="opset1">
			<input>
				<port id="0">
					<dim>1</dim>
					<dim>24</dim>
					<dim>16</dim>
					<dim>56</dim>
					<dim>56</dim>
				</port>
				<port id="1">
					<dim>1</dim>
					<dim>24</dim>
					<dim>1</dim>
					<dim>1</dim>
					<dim>1</dim>
				</port>
			</input>
			<output>
				<port id="2" precision="FP32">
					<dim>1</dim>
					<dim>24</dim>
					<dim>16</dim>
					<dim>56</dim>
					<dim>56</dim>
				</port>
			</output>
		</layer>
		<layer id="43" name="336" type="AvgPool" version="opset1">
			<data exclude-pad="true" kernel="2,1,1" pads_begin="0,0,0" pads_end="0,0,0" rounding_type="floor" strides="2,1,1"/>
			<input>
				<port id="0">
					<dim>1</dim>
					<dim>24</dim>
					<dim>16</dim>
					<dim>56</dim>
					<dim>56</dim>
				</port>
			</input>
			<output>
				<port id="1" precision="FP32">
					<dim>1</dim>
					<dim>24</dim>
					<dim>8</dim>
					<dim>56</dim>
					<dim>56</dim>
				</port>
			</output>
		</layer>
		<layer id="44" name="Mul1_9236/Fused_Mul_1124511247_const" type="Const" version="opset1">
			<data element_type="f32" offset="33088" shape="72,24,1,1,1" size="6912"/>
			<output>
				<port id="1" precision="FP32">
					<dim>72</dim>
					<dim>24</dim>
					<dim>1</dim>
					<dim>1</dim>
					<dim>1</dim>
				</port>
			</output>
		</layer>
		<layer id="45" name="337" type="Convolution" version="opset1">
			<data dilations="1,1,1" output_padding="0,0,0" pads_begin="0,0,0" pads_end="0,0,0" strides="1,1,1"/>
			<input>
				<port id="0">
					<dim>1</dim>
					<dim>24</dim>
					<dim>8</dim>
					<dim>56</dim>
					<dim>56</dim>
				</port>
				<port id="1">
					<dim>72</dim>
					<dim>24</dim>
					<dim>1</dim>
					<dim>1</dim>
					<dim>1</dim>
				</port>
			</input>
			<output>
				<port id="2" precision="FP32">
					<dim>1</dim>
					<dim>72</dim>
					<dim>8</dim>
					<dim>56</dim>
					<dim>56</dim>
				</port>
			</output>
		</layer>
		<layer id="46" name="data_add_1025710262/copy_const" type="Const" version="opset1">
			<data element_type="f32" offset="40000" shape="1,72,1,1,1" size="288"/>
			<output>
				<port id="1" precision="FP32">
					<dim>1</dim>
					<dim>72</dim>
					<dim>1</dim>
					<dim>1</dim>
					<dim>1</dim>
				</port>
			</output>
		</layer>
		<layer id="47" name="Add1_9237/Fused_Add_" type="Add" version="opset1">
			<input>
				<port id="0">
					<dim>1</dim>
					<dim>72</dim>
					<dim>8</dim>
					<dim>56</dim>
					<dim>56</dim>
				</port>
				<port id="1">
					<dim>1</dim>
					<dim>72</dim>
					<dim>1</dim>
					<dim>1</dim>
					<dim>1</dim>
				</port>
			</input>
			<output>
				<port id="2" precision="FP32">
					<dim>1</dim>
					<dim>72</dim>
					<dim>8</dim>
					<dim>56</dim>
					<dim>56</dim>
				</port>
			</output>
		</layer>
		<layer id="48" name="339" type="ReLU" version="opset1">
			<input>
				<port id="0">
					<dim>1</dim>
					<dim>72</dim>
					<dim>8</dim>
					<dim>56</dim>
					<dim>56</dim>
				</port>
			</input>
			<output>
				<port id="1" precision="FP32">
					<dim>1</dim>
					<dim>72</dim>
					<dim>8</dim>
					<dim>56</dim>
					<dim>56</dim>
				</port>
			</output>
		</layer>
		<layer id="49" name="1737817381_const" type="Const" version="opset1">
			<data element_type="f32" offset="40288" shape="72,1,1,1,3,3" size="2592"/>
			<output>
				<port id="1" precision="FP32">
					<dim>72</dim>
					<dim>1</dim>
					<dim>1</dim>
					<dim>1</dim>
					<dim>3</dim>
					<dim>3</dim>
				</port>
			</output>
		</layer>
		<layer id="50" name="340" type="GroupConvolution" version="opset1">
			<data dilations="1,1,1" output_padding="0,0,0" pads_begin="0,1,1" pads_end="0,1,1" strides="1,1,1"/>
			<input>
				<port id="0">
					<dim>1</dim>
					<dim>72</dim>
					<dim>8</dim>
					<dim>56</dim>
					<dim>56</dim>
				</port>
				<port id="1">
					<dim>72</dim>
					<dim>1</dim>
					<dim>1</dim>
					<dim>1</dim>
					<dim>3</dim>
					<dim>3</dim>
				</port>
			</input>
			<output>
				<port id="2" precision="FP32">
					<dim>1</dim>
					<dim>72</dim>
					<dim>8</dim>
					<dim>56</dim>
					<dim>56</dim>
				</port>
			</output>
		</layer>
		<layer id="51" name="data_add_1026510270/copy_const" type="Const" version="opset1">
			<data element_type="f32" offset="42880" shape="1,72,1,1,1" size="288"/>
			<output>
				<port id="1" precision="FP32">
					<dim>1</dim>
					<dim>72</dim>
					<dim>1</dim>
					<dim>1</dim>
					<dim>1</dim>
				</port>
			</output>
		</layer>
		<layer id="52" name="Add1_9525/Fused_Add_" type="Add" version="opset1">
			<input>
				<port id="0">
					<dim>1</dim>
					<dim>72</dim>
					<dim>8</dim>
					<dim>56</dim>
					<dim>56</dim>
				</port>
				<port id="1">
					<dim>1</dim>
					<dim>72</dim>
					<dim>1</dim>
					<dim>1</dim>
					<dim>1</dim>
				</port>
			</input>
			<output>
				<port id="2" precision="FP32">
					<dim>1</dim>
					<dim>72</dim>
					<dim>8</dim>
					<dim>56</dim>
					<dim>56</dim>
				</port>
			</output>
		</layer>
		<layer id="53" name="342" type="ReLU" version="opset1">
			<input>
				<port id="0">
					<dim>1</dim>
					<dim>72</dim>
					<dim>8</dim>
					<dim>56</dim>
					<dim>56</dim>
				</port>
			</input>
			<output>
				<port id="1" precision="FP32">
					<dim>1</dim>
					<dim>72</dim>
					<dim>8</dim>
					<dim>56</dim>
					<dim>56</dim>
				</port>
			</output>
		</layer>
		<layer id="54" name="Mul1_9248/Fused_Mul_1125311255_const" type="Const" version="opset1">
			<data element_type="f32" offset="43168" shape="24,72,3,1,1" size="20736"/>
			<output>
				<port id="1" precision="FP32">
					<dim>24</dim>
					<dim>72</dim>
					<dim>3</dim>
					<dim>1</dim>
					<dim>1</dim>
				</port>
			</output>
		</layer>
		<layer id="55" name="343" type="Convolution" version="opset1">
			<data dilations="1,1,1" output_padding="0,0,0" pads_begin="1,0,0" pads_end="1,0,0" strides="1,1,1"/>
			<input>
				<port id="0">
					<dim>1</dim>
					<dim>72</dim>
					<dim>8</dim>
					<dim>56</dim>
					<dim>56</dim>
				</port>
				<port id="1">
					<dim>24</dim>
					<dim>72</dim>
					<dim>3</dim>
					<dim>1</dim>
					<dim>1</dim>
				</port>
			</input>
			<output>
				<port id="2" precision="FP32">
					<dim>1</dim>
					<dim>24</dim>
					<dim>8</dim>
					<dim>56</dim>
					<dim>56</dim>
				</port>
			</output>
		</layer>
		<layer id="56" name="data_add_1027310278/copy_const" type="Const" version="opset1">
			<data element_type="f32" offset="63904" shape="1,24,1,1,1" size="96"/>
			<output>
				<port id="1" precision="FP32">
					<dim>1</dim>
					<dim>24</dim>
					<dim>1</dim>
					<dim>1</dim>
					<dim>1</dim>
				</port>
			</output>
		</layer>
		<layer id="57" name="Add1_9249/Fused_Add_" type="Add" version="opset1">
			<input>
				<port id="0">
					<dim>1</dim>
					<dim>24</dim>
					<dim>8</dim>
					<dim>56</dim>
					<dim>56</dim>
				</port>
				<port id="1">
					<dim>1</dim>
					<dim>24</dim>
					<dim>1</dim>
					<dim>1</dim>
					<dim>1</dim>
				</port>
			</input>
			<output>
				<port id="2" precision="FP32">
					<dim>1</dim>
					<dim>24</dim>
					<dim>8</dim>
					<dim>56</dim>
					<dim>56</dim>
				</port>
			</output>
		</layer>
		<layer id="58" name="345" type="Add" version="opset1">
			<input>
				<port id="0">
					<dim>1</dim>
					<dim>24</dim>
					<dim>8</dim>
					<dim>56</dim>
					<dim>56</dim>
				</port>
				<port id="1">
					<dim>1</dim>
					<dim>24</dim>
					<dim>8</dim>
					<dim>56</dim>
					<dim>56</dim>
				</port>
			</input>
			<output>
				<port id="2" precision="FP32">
					<dim>1</dim>
					<dim>24</dim>
					<dim>8</dim>
					<dim>56</dim>
					<dim>56</dim>
				</port>
			</output>
		</layer>
		<layer id="59" name="Mul1_9368/Fused_Mul_1125711259_const" type="Const" version="opset1">
			<data element_type="f32" offset="64000" shape="72,24,1,1,1" size="6912"/>
			<output>
				<port id="1" precision="FP32">
					<dim>72</dim>
					<dim>24</dim>
					<dim>1</dim>
					<dim>1</dim>
					<dim>1</dim>
				</port>
			</output>
		</layer>
		<layer id="60" name="346" type="Convolution" version="opset1">
			<data dilations="1,1,1" output_padding="0,0,0" pads_begin="0,0,0" pads_end="0,0,0" strides="1,1,1"/>
			<input>
				<port id="0">
					<dim>1</dim>
					<dim>24</dim>
					<dim>8</dim>
					<dim>56</dim>
					<dim>56</dim>
				</port>
				<port id="1">
					<dim>72</dim>
					<dim>24</dim>
					<dim>1</dim>
					<dim>1</dim>
					<dim>1</dim>
				</port>
			</input>
			<output>
				<port id="2" precision="FP32">
					<dim>1</dim>
					<dim>72</dim>
					<dim>8</dim>
					<dim>56</dim>
					<dim>56</dim>
				</port>
			</output>
		</layer>
		<layer id="61" name="data_add_1028110286/copy_const" type="Const" version="opset1">
			<data element_type="f32" offset="70912" shape="1,72,1,1,1" size="288"/>
			<output>
				<port id="1" precision="FP32">
					<dim>1</dim>
					<dim>72</dim>
					<dim>1</dim>
					<dim>1</dim>
					<dim>1</dim>
				</port>
			</output>
		</layer>
		<layer id="62" name="Add1_9369/Fused_Add_" type="Add" version="opset1">
			<input>
				<port id="0">
					<dim>1</dim>
					<dim>72</dim>
					<dim>8</dim>
					<dim>56</dim>
					<dim>56</dim>
				</port>
				<port id="1">
					<dim>1</dim>
					<dim>72</dim>
					<dim>1</dim>
					<dim>1</dim>
					<dim>1</dim>
				</port>
			</input>
			<output>
				<port id="2" precision="FP32">
					<dim>1</dim>
					<dim>72</dim>
					<dim>8</dim>
					<dim>56</dim>
					<dim>56</dim>
				</port>
			</output>
		</layer>
		<layer id="63" name="348" type="ReLU" version="opset1">
			<input>
				<port id="0">
					<dim>1</dim>
					<dim>72</dim>
					<dim>8</dim>
					<dim>56</dim>
					<dim>56</dim>
				</port>
			</input>
			<output>
				<port id="1" precision="FP32">
					<dim>1</dim>
					<dim>72</dim>
					<dim>8</dim>
					<dim>56</dim>
					<dim>56</dim>
				</port>
			</output>
		</layer>
		<layer id="64" name="1743017433_const" type="Const" version="opset1">
			<data element_type="f32" offset="71200" shape="72,1,1,1,5,5" size="7200"/>
			<output>
				<port id="1" precision="FP32">
					<dim>72</dim>
					<dim>1</dim>
					<dim>1</dim>
					<dim>1</dim>
					<dim>5</dim>
					<dim>5</dim>
				</port>
			</output>
		</layer>
		<layer id="65" name="349" type="GroupConvolution" version="opset1">
			<data dilations="1,1,1" output_padding="0,0,0" pads_begin="0,2,2" pads_end="0,2,2" strides="1,2,2"/>
			<input>
				<port id="0">
					<dim>1</dim>
					<dim>72</dim>
					<dim>8</dim>
					<dim>56</dim>
					<dim>56</dim>
				</port>
				<port id="1">
					<dim>72</dim>
					<dim>1</dim>
					<dim>1</dim>
					<dim>1</dim>
					<dim>5</dim>
					<dim>5</dim>
				</port>
			</input>
			<output>
				<port id="2" precision="FP32">
					<dim>1</dim>
					<dim>72</dim>
					<dim>8</dim>
					<dim>28</dim>
					<dim>28</dim>
				</port>
			</output>
		</layer>
		<layer id="66" name="data_add_1028910294/copy_const" type="Const" version="opset1">
			<data element_type="f32" offset="78400" shape="1,72,1,1,1" size="288"/>
			<output>
				<port id="1" precision="FP32">
					<dim>1</dim>
					<dim>72</dim>
					<dim>1</dim>
					<dim>1</dim>
					<dim>1</dim>
				</port>
			</output>
		</layer>
		<layer id="67" name="Add1_9069/Fused_Add_" type="Add" version="opset1">
			<input>
				<port id="0">
					<dim>1</dim>
					<dim>72</dim>
					<dim>8</dim>
					<dim>28</dim>
					<dim>28</dim>
				</port>
				<port id="1">
					<dim>1</dim>
					<dim>72</dim>
					<dim>1</dim>
					<dim>1</dim>
					<dim>1</dim>
				</port>
			</input>
			<output>
				<port id="2" precision="FP32">
					<dim>1</dim>
					<dim>72</dim>
					<dim>8</dim>
					<dim>28</dim>
					<dim>28</dim>
				</port>
			</output>
		</layer>
		<layer id="68" name="352" type="AvgPool" version="opset1">
			<data exclude-pad="true" kernel="1,28,28" pads_begin="0,0,0" pads_end="0,0,0" rounding_type="floor" strides="1,1,1"/>
			<input>
				<port id="0">
					<dim>1</dim>
					<dim>72</dim>
					<dim>8</dim>
					<dim>28</dim>
					<dim>28</dim>
				</port>
			</input>
			<output>
				<port id="1" precision="FP32">
					<dim>1</dim>
					<dim>72</dim>
					<dim>8</dim>
					<dim>1</dim>
					<dim>1</dim>
				</port>
			</output>
		</layer>
		<layer id="69" name="onnx_initializer_node_backbone.features.4.conv.5.fc.0.weight/Output_0/Data__const" type="Const" version="opset1">
			<data element_type="f32" offset="78688" shape="18,72,1,1,1" size="5184"/>
			<output>
				<port id="1" precision="FP32">
					<dim>18</dim>
					<dim>72</dim>
					<dim>1</dim>
					<dim>1</dim>
					<dim>1</dim>
				</port>
			</output>
		</layer>
		<layer id="70" name="353/WithoutBiases" type="Convolution" version="opset1">
			<data dilations="1,1,1" output_padding="0,0,0" pads_begin="0,0,0" pads_end="0,0,0" strides="1,1,1"/>
			<input>
				<port id="0">
					<dim>1</dim>
					<dim>72</dim>
					<dim>8</dim>
					<dim>1</dim>
					<dim>1</dim>
				</port>
				<port id="1">
					<dim>18</dim>
					<dim>72</dim>
					<dim>1</dim>
					<dim>1</dim>
					<dim>1</dim>
				</port>
			</input>
			<output>
				<port id="2" precision="FP32">
					<dim>1</dim>
					<dim>18</dim>
					<dim>8</dim>
					<dim>1</dim>
					<dim>1</dim>
				</port>
			</output>
		</layer>
		<layer id="71" name="353/Dims6321/copy_const" type="Const" version="opset1">
			<data element_type="f32" offset="83872" shape="1,18,1,1,1" size="72"/>
			<output>
				<port id="1" precision="FP32">
					<dim>1</dim>
					<dim>18</dim>
					<dim>1</dim>
					<dim>1</dim>
					<dim>1</dim>
				</port>
			</output>
		</layer>
		<layer id="72" name="353" type="Add" version="opset1">
			<input>
				<port id="0">
					<dim>1</dim>
					<dim>18</dim>
					<dim>8</dim>
					<dim>1</dim>
					<dim>1</dim>
				</port>
				<port id="1">
					<dim>1</dim>
					<dim>18</dim>
					<dim>1</dim>
					<dim>1</dim>
					<dim>1</dim>
				</port>
			</input>
			<output>
				<port id="2" precision="FP32">
					<dim>1</dim>
					<dim>18</dim>
					<dim>8</dim>
					<dim>1</dim>
					<dim>1</dim>
				</port>
			</output>
		</layer>
		<layer id="73" name="354" type="ReLU" version="opset1">
			<input>
				<port id="0">
					<dim>1</dim>
					<dim>18</dim>
					<dim>8</dim>
					<dim>1</dim>
					<dim>1</dim>
				</port>
			</input>
			<output>
				<port id="1" precision="FP32">
					<dim>1</dim>
					<dim>18</dim>
					<dim>8</dim>
					<dim>1</dim>
					<dim>1</dim>
				</port>
			</output>
		</layer>
		<layer id="74" name="onnx_initializer_node_backbone.features.4.conv.5.fc.2.weight/Output_0/Data__const" type="Const" version="opset1">
			<data element_type="f32" offset="83944" shape="72,18,1,1,1" size="5184"/>
			<output>
				<port id="1" precision="FP32">
					<dim>72</dim>
					<dim>18</dim>
					<dim>1</dim>
					<dim>1</dim>
					<dim>1</dim>
				</port>
			</output>
		</layer>
		<layer id="75" name="355/WithoutBiases" type="Convolution" version="opset1">
			<data dilations="1,1,1" output_padding="0,0,0" pads_begin="0,0,0" pads_end="0,0,0" strides="1,1,1"/>
			<input>
				<port id="0">
					<dim>1</dim>
					<dim>18</dim>
					<dim>8</dim>
					<dim>1</dim>
					<dim>1</dim>
				</port>
				<port id="1">
					<dim>72</dim>
					<dim>18</dim>
					<dim>1</dim>
					<dim>1</dim>
					<dim>1</dim>
				</port>
			</input>
			<output>
				<port id="2" precision="FP32">
					<dim>1</dim>
					<dim>72</dim>
					<dim>8</dim>
					<dim>1</dim>
					<dim>1</dim>
				</port>
			</output>
		</layer>
		<layer id="76" name="data_add_1029610298/copy_const" type="Const" version="opset1">
			<data element_type="f32" offset="89128" shape="1,72,1,1,1" size="288"/>
			<output>
				<port id="1" precision="FP32">
					<dim>1</dim>
					<dim>72</dim>
					<dim>1</dim>
					<dim>1</dim>
					<dim>1</dim>
				</port>
			</output>
		</layer>
		<layer id="77" name="355/Fused_Add_" type="Add" version="opset1">
			<input>
				<port id="0">
					<dim>1</dim>
					<dim>72</dim>
					<dim>8</dim>
					<dim>1</dim>
					<dim>1</dim>
				</port>
				<port id="1">
					<dim>1</dim>
					<dim>72</dim>
					<dim>1</dim>
					<dim>1</dim>
					<dim>1</dim>
				</port>
			</input>
			<output>
				<port id="2" precision="FP32">
					<dim>1</dim>
					<dim>72</dim>
					<dim>8</dim>
					<dim>1</dim>
					<dim>1</dim>
				</port>
			</output>
		</layer>
		<layer id="78" name="358" type="Clamp" version="opset1">
			<data max="6.0" min="0.0"/>
			<input>
				<port id="0">
					<dim>1</dim>
					<dim>72</dim>
					<dim>8</dim>
					<dim>1</dim>
					<dim>1</dim>
				</port>
			</input>
			<output>
				<port id="1" precision="FP32">
					<dim>1</dim>
					<dim>72</dim>
					<dim>8</dim>
					<dim>1</dim>
					<dim>1</dim>
				</port>
			</output>
		</layer>
		<layer id="79" name="360/mul_" type="Multiply" version="opset1">
			<input>
				<port id="0">
					<dim>1</dim>
					<dim>1</dim>
					<dim>1</dim>
					<dim>1</dim>
					<dim>1</dim>
				</port>
				<port id="1">
					<dim>1</dim>
					<dim>72</dim>
					<dim>8</dim>
					<dim>1</dim>
					<dim>1</dim>
				</port>
			</input>
			<output>
				<port id="2" precision="FP32">
					<dim>1</dim>
					<dim>72</dim>
					<dim>8</dim>
					<dim>1</dim>
					<dim>1</dim>
				</port>
			</output>
		</layer>
		<layer id="80" name="361" type="Multiply" version="opset1">
			<input>
				<port id="0">
					<dim>1</dim>
					<dim>72</dim>
					<dim>8</dim>
					<dim>1</dim>
					<dim>1</dim>
				</port>
				<port id="1">
					<dim>1</dim>
					<dim>72</dim>
					<dim>8</dim>
					<dim>28</dim>
					<dim>28</dim>
				</port>
			</input>
			<output>
				<port id="2" precision="FP32">
					<dim>1</dim>
					<dim>72</dim>
					<dim>8</dim>
					<dim>28</dim>
					<dim>28</dim>
				</port>
			</output>
		</layer>
		<layer id="81" name="362" type="ReLU" version="opset1">
			<input>
				<port id="0">
					<dim>1</dim>
					<dim>72</dim>
					<dim>8</dim>
					<dim>28</dim>
					<dim>28</dim>
				</port>
			</input>
			<output>
				<port id="1" precision="FP32">
					<dim>1</dim>
					<dim>72</dim>
					<dim>8</dim>
					<dim>28</dim>
					<dim>28</dim>
				</port>
			</output>
		</layer>
		<layer id="82" name="Mul1_9140/Fused_Mul_1126511267_const" type="Const" version="opset1">
			<data element_type="f32" offset="89416" shape="40,72,3,1,1" size="34560"/>
			<output>
				<port id="1" precision="FP32">
					<dim>40</dim>
					<dim>72</dim>
					<dim>3</dim>
					<dim>1</dim>
					<dim>1</dim>
				</port>
			</output>
		</layer>
		<layer id="83" name="363" type="Convolution" version="opset1">
			<data dilations="1,1,1" output_padding="0,0,0" pads_begin="1,0,0" pads_end="1,0,0" strides="1,1,1"/>
			<input>
				<port id="0">
					<dim>1</dim>
					<dim>72</dim>
					<dim>8</dim>
					<dim>28</dim>
					<dim>28</dim>
				</port>
				<port id="1">
					<dim>40</dim>
					<dim>72</dim>
					<dim>3</dim>
					<dim>1</dim>
					<dim>1</dim>
				</port>
			</input>
			<output>
				<port id="2" precision="FP32">
					<dim>1</dim>
					<dim>40</dim>
					<dim>8</dim>
					<dim>28</dim>
					<dim>28</dim>
				</port>
			</output>
		</layer>
		<layer id="84" name="data_add_1030110306/copy_const" type="Const" version="opset1">
			<data element_type="f32" offset="123976" shape="1,40,1,1,1" size="160"/>
			<output>
				<port id="1" precision="FP32">
					<dim>1</dim>
					<dim>40</dim>
					<dim>1</dim>
					<dim>1</dim>
					<dim>1</dim>
				</port>
			</output>
		</layer>
		<layer id="85" name="Add1_9141/Fused_Add_" type="Add" version="opset1">
			<input>
				<port id="0">
					<dim>1</dim>
					<dim>40</dim>
					<dim>8</dim>
					<dim>28</dim>
					<dim>28</dim>
				</port>
				<port id="1">
					<dim>1</dim>
					<dim>40</dim>
					<dim>1</dim>
					<dim>1</dim>
					<dim>1</dim>
				</port>
			</input>
			<output>
				<port id="2" precision="FP32">
					<dim>1</dim>
					<dim>40</dim>
					<dim>8</dim>
					<dim>28</dim>
					<dim>28</dim>
				</port>
			</output>
		</layer>
		<layer id="86" name="379/reciprocal_/Output_0/Data_/copy_const" type="Const" version="opset1">
			<data element_type="f32" offset="0" shape="1,1,1,1,1" size="4"/>
			<output>
				<port id="1" precision="FP32">
					<dim>1</dim>
					<dim>1</dim>
					<dim>1</dim>
					<dim>1</dim>
					<dim>1</dim>
				</port>
			</output>
		</layer>
		<layer id="87" name="Mul1_9284/Fused_Mul_1126911271_const" type="Const" version="opset1">
			<data element_type="f32" offset="124136" shape="120,40,1,1,1" size="19200"/>
			<output>
				<port id="1" precision="FP32">
					<dim>120</dim>
					<dim>40</dim>
					<dim>1</dim>
					<dim>1</dim>
					<dim>1</dim>
				</port>
			</output>
		</layer>
		<layer id="88" name="365" type="Convolution" version="opset1">
			<data dilations="1,1,1" output_padding="0,0,0" pads_begin="0,0,0" pads_end="0,0,0" strides="1,1,1"/>
			<input>
				<port id="0">
					<dim>1</dim>
					<dim>40</dim>
					<dim>8</dim>
					<dim>28</dim>
					<dim>28</dim>
				</port>
				<port id="1">
					<dim>120</dim>
					<dim>40</dim>
					<dim>1</dim>
					<dim>1</dim>
					<dim>1</dim>
				</port>
			</input>
			<output>
				<port id="2" precision="FP32">
					<dim>1</dim>
					<dim>120</dim>
					<dim>8</dim>
					<dim>28</dim>
					<dim>28</dim>
				</port>
			</output>
		</layer>
		<layer id="89" name="data_add_1030910314/copy_const" type="Const" version="opset1">
			<data element_type="f32" offset="143336" shape="1,120,1,1,1" size="480"/>
			<output>
				<port id="1" precision="FP32">
					<dim>1</dim>
					<dim>120</dim>
					<dim>1</dim>
					<dim>1</dim>
					<dim>1</dim>
				</port>
			</output>
		</layer>
		<layer id="90" name="Add1_9285/Fused_Add_" type="Add" version="opset1">
			<input>
				<port id="0">
					<dim>1</dim>
					<dim>120</dim>
					<dim>8</dim>
					<dim>28</dim>
					<dim>28</dim>
				</port>
				<port id="1">
					<dim>1</dim>
					<dim>120</dim>
					<dim>1</dim>
					<dim>1</dim>
					<dim>1</dim>
				</port>
			</input>
			<output>
				<port id="2" precision="FP32">
					<dim>1</dim>
					<dim>120</dim>
					<dim>8</dim>
					<dim>28</dim>
					<dim>28</dim>
				</port>
			</output>
		</layer>
		<layer id="91" name="367" type="ReLU" version="opset1">
			<input>
				<port id="0">
					<dim>1</dim>
					<dim>120</dim>
					<dim>8</dim>
					<dim>28</dim>
					<dim>28</dim>
				</port>
			</input>
			<output>
				<port id="1" precision="FP32">
					<dim>1</dim>
					<dim>120</dim>
					<dim>8</dim>
					<dim>28</dim>
					<dim>28</dim>
				</port>
			</output>
		</layer>
		<layer id="92" name="1740217405_const" type="Const" version="opset1">
			<data element_type="f32" offset="143816" shape="120,1,1,1,5,5" size="12000"/>
			<output>
				<port id="1" precision="FP32">
					<dim>120</dim>
					<dim>1</dim>
					<dim>1</dim>
					<dim>1</dim>
					<dim>5</dim>
					<dim>5</dim>
				</port>
			</output>
		</layer>
		<layer id="93" name="368" type="GroupConvolution" version="opset1">
			<data dilations="1,1,1" output_padding="0,0,0" pads_begin="0,2,2" pads_end="0,2,2" strides="1,1,1"/>
			<input>
				<port id="0">
					<dim>1</dim>
					<dim>120</dim>
					<dim>8</dim>
					<dim>28</dim>
					<dim>28</dim>
				</port>
				<port id="1">
					<dim>120</dim>
					<dim>1</dim>
					<dim>1</dim>
					<dim>1</dim>
					<dim>5</dim>
					<dim>5</dim>
				</port>
			</input>
			<output>
				<port id="2" precision="FP32">
					<dim>1</dim>
					<dim>120</dim>
					<dim>8</dim>
					<dim>28</dim>
					<dim>28</dim>
				</port>
			</output>
		</layer>
		<layer id="94" name="data_add_1031710322/copy_const" type="Const" version="opset1">
			<data element_type="f32" offset="155816" shape="1,120,1,1,1" size="480"/>
			<output>
				<port id="1" precision="FP32">
					<dim>1</dim>
					<dim>120</dim>
					<dim>1</dim>
					<dim>1</dim>
					<dim>1</dim>
				</port>
			</output>
		</layer>
		<layer id="95" name="Add1_9537/Fused_Add_" type="Add" version="opset1">
			<input>
				<port id="0">
					<dim>1</dim>
					<dim>120</dim>
					<dim>8</dim>
					<dim>28</dim>
					<dim>28</dim>
				</port>
				<port id="1">
					<dim>1</dim>
					<dim>120</dim>
					<dim>1</dim>
					<dim>1</dim>
					<dim>1</dim>
				</port>
			</input>
			<output>
				<port id="2" precision="FP32">
					<dim>1</dim>
					<dim>120</dim>
					<dim>8</dim>
					<dim>28</dim>
					<dim>28</dim>
				</port>
			</output>
		</layer>
		<layer id="96" name="371" type="AvgPool" version="opset1">
			<data exclude-pad="true" kernel="1,28,28" pads_begin="0,0,0" pads_end="0,0,0" rounding_type="floor" strides="1,1,1"/>
			<input>
				<port id="0">
					<dim>1</dim>
					<dim>120</dim>
					<dim>8</dim>
					<dim>28</dim>
					<dim>28</dim>
				</port>
			</input>
			<output>
				<port id="1" precision="FP32">
					<dim>1</dim>
					<dim>120</dim>
					<dim>8</dim>
					<dim>1</dim>
					<dim>1</dim>
				</port>
			</output>
		</layer>
		<layer id="97" name="onnx_initializer_node_backbone.features.5.conv.5.fc.0.weight/Output_0/Data__const" type="Const" version="opset1">
			<data element_type="f32" offset="156296" shape="30,120,1,1,1" size="14400"/>
			<output>
				<port id="1" precision="FP32">
					<dim>30</dim>
					<dim>120</dim>
					<dim>1</dim>
					<dim>1</dim>
					<dim>1</dim>
				</port>
			</output>
		</layer>
		<layer id="98" name="372/WithoutBiases" type="Convolution" version="opset1">
			<data dilations="1,1,1" output_padding="0,0,0" pads_begin="0,0,0" pads_end="0,0,0" strides="1,1,1"/>
			<input>
				<port id="0">
					<dim>1</dim>
					<dim>120</dim>
					<dim>8</dim>
					<dim>1</dim>
					<dim>1</dim>
				</port>
				<port id="1">
					<dim>30</dim>
					<dim>120</dim>
					<dim>1</dim>
					<dim>1</dim>
					<dim>1</dim>
				</port>
			</input>
			<output>
				<port id="2" precision="FP32">
					<dim>1</dim>
					<dim>30</dim>
					<dim>8</dim>
					<dim>1</dim>
					<dim>1</dim>
				</port>
			</output>
		</layer>
		<layer id="99" name="372/Dims6333/copy_const" type="Const" version="opset1">
			<data element_type="f32" offset="170696" shape="1,30,1,1,1" size="120"/>
			<output>
				<port id="1" precision="FP32">
					<dim>1</dim>
					<dim>30</dim>
					<dim>1</dim>
					<dim>1</dim>
					<dim>1</dim>
				</port>
			</output>
		</layer>
		<layer id="100" name="372" type="Add" version="opset1">
			<input>
				<port id="0">
					<dim>1</dim>
					<dim>30</dim>
					<dim>8</dim>
					<dim>1</dim>
					<dim>1</dim>
				</port>
				<port id="1">
					<dim>1</dim>
					<dim>30</dim>
					<dim>1</dim>
					<dim>1</dim>
					<dim>1</dim>
				</port>
			</input>
			<output>
				<port id="2" precision="FP32">
					<dim>1</dim>
					<dim>30</dim>
					<dim>8</dim>
					<dim>1</dim>
					<dim>1</dim>
				</port>
			</output>
		</layer>
		<layer id="101" name="373" type="ReLU" version="opset1">
			<input>
				<port id="0">
					<dim>1</dim>
					<dim>30</dim>
					<dim>8</dim>
					<dim>1</dim>
					<dim>1</dim>
				</port>
			</input>
			<output>
				<port id="1" precision="FP32">
					<dim>1</dim>
					<dim>30</dim>
					<dim>8</dim>
					<dim>1</dim>
					<dim>1</dim>
				</port>
			</output>
		</layer>
		<layer id="102" name="onnx_initializer_node_backbone.features.5.conv.5.fc.2.weight/Output_0/Data__const" type="Const" version="opset1">
			<data element_type="f32" offset="170816" shape="120,30,1,1,1" size="14400"/>
			<output>
				<port id="1" precision="FP32">
					<dim>120</dim>
					<dim>30</dim>
					<dim>1</dim>
					<dim>1</dim>
					<dim>1</dim>
				</port>
			</output>
		</layer>
		<layer id="103" name="374/WithoutBiases" type="Convolution" version="opset1">
			<data dilations="1,1,1" output_padding="0,0,0" pads_begin="0,0,0" pads_end="0,0,0" strides="1,1,1"/>
			<input>
				<port id="0">
					<dim>1</dim>
					<dim>30</dim>
					<dim>8</dim>
					<dim>1</dim>
					<dim>1</dim>
				</port>
				<port id="1">
					<dim>120</dim>
					<dim>30</dim>
					<dim>1</dim>
					<dim>1</dim>
					<dim>1</dim>
				</port>
			</input>
			<output>
				<port id="2" precision="FP32">
					<dim>1</dim>
					<dim>120</dim>
					<dim>8</dim>
					<dim>1</dim>
					<dim>1</dim>
				</port>
			</output>
		</layer>
		<layer id="104" name="data_add_1032410326/copy_const" type="Const" version="opset1">
			<data element_type="f32" offset="185216" shape="1,120,1,1,1" size="480"/>
			<output>
				<port id="1" precision="FP32">
					<dim>1</dim>
					<dim>120</dim>
					<dim>1</dim>
					<dim>1</dim>
					<dim>1</dim>
				</port>
			</output>
		</layer>
		<layer id="105" name="374/Fused_Add_" type="Add" version="opset1">
			<input>
				<port id="0">
					<dim>1</dim>
					<dim>120</dim>
					<dim>8</dim>
					<dim>1</dim>
					<dim>1</dim>
				</port>
				<port id="1">
					<dim>1</dim>
					<dim>120</dim>
					<dim>1</dim>
					<dim>1</dim>
					<dim>1</dim>
				</port>
			</input>
			<output>
				<port id="2" precision="FP32">
					<dim>1</dim>
					<dim>120</dim>
					<dim>8</dim>
					<dim>1</dim>
					<dim>1</dim>
				</port>
			</output>
		</layer>
		<layer id="106" name="377" type="Clamp" version="opset1">
			<data max="6.0" min="0.0"/>
			<input>
				<port id="0">
					<dim>1</dim>
					<dim>120</dim>
					<dim>8</dim>
					<dim>1</dim>
					<dim>1</dim>
				</port>
			</input>
			<output>
				<port id="1" precision="FP32">
					<dim>1</dim>
					<dim>120</dim>
					<dim>8</dim>
					<dim>1</dim>
					<dim>1</dim>
				</port>
			</output>
		</layer>
		<layer id="107" name="379/mul_" type="Multiply" version="opset1">
			<input>
				<port id="0">
					<dim>1</dim>
					<dim>1</dim>
					<dim>1</dim>
					<dim>1</dim>
					<dim>1</dim>
				</port>
				<port id="1">
					<dim>1</dim>
					<dim>120</dim>
					<dim>8</dim>
					<dim>1</dim>
					<dim>1</dim>
				</port>
			</input>
			<output>
				<port id="2" precision="FP32">
					<dim>1</dim>
					<dim>120</dim>
					<dim>8</dim>
					<dim>1</dim>
					<dim>1</dim>
				</port>
			</output>
		</layer>
		<layer id="108" name="380" type="Multiply" version="opset1">
			<input>
				<port id="0">
					<dim>1</dim>
					<dim>120</dim>
					<dim>8</dim>
					<dim>1</dim>
					<dim>1</dim>
				</port>
				<port id="1">
					<dim>1</dim>
					<dim>120</dim>
					<dim>8</dim>
					<dim>28</dim>
					<dim>28</dim>
				</port>
			</input>
			<output>
				<port id="2" precision="FP32">
					<dim>1</dim>
					<dim>120</dim>
					<dim>8</dim>
					<dim>28</dim>
					<dim>28</dim>
				</port>
			</output>
		</layer>
		<layer id="109" name="381" type="ReLU" version="opset1">
			<input>
				<port id="0">
					<dim>1</dim>
					<dim>120</dim>
					<dim>8</dim>
					<dim>28</dim>
					<dim>28</dim>
				</port>
			</input>
			<output>
				<port id="1" precision="FP32">
					<dim>1</dim>
					<dim>120</dim>
					<dim>8</dim>
					<dim>28</dim>
					<dim>28</dim>
				</port>
			</output>
		</layer>
		<layer id="110" name="Mul1_9320/Fused_Mul_1127711279_const" type="Const" version="opset1">
			<data element_type="f32" offset="185696" shape="40,120,3,1,1" size="57600"/>
			<output>
				<port id="1" precision="FP32">
					<dim>40</dim>
					<dim>120</dim>
					<dim>3</dim>
					<dim>1</dim>
					<dim>1</dim>
				</port>
			</output>
		</layer>
		<layer id="111" name="382" type="Convolution" version="opset1">
			<data dilations="1,1,1" output_padding="0,0,0" pads_begin="1,0,0" pads_end="1,0,0" strides="1,1,1"/>
			<input>
				<port id="0">
					<dim>1</dim>
					<dim>120</dim>
					<dim>8</dim>
					<dim>28</dim>
					<dim>28</dim>
				</port>
				<port id="1">
					<dim>40</dim>
					<dim>120</dim>
					<dim>3</dim>
					<dim>1</dim>
					<dim>1</dim>
				</port>
			</input>
			<output>
				<port id="2" precision="FP32">
					<dim>1</dim>
					<dim>40</dim>
					<dim>8</dim>
					<dim>28</dim>
					<dim>28</dim>
				</port>
			</output>
		</layer>
		<layer id="112" name="data_add_1032910334/copy_const" type="Const" version="opset1">
			<data element_type="f32" offset="243296" shape="1,40,1,1,1" size="160"/>
			<output>
				<port id="1" precision="FP32">
					<dim>1</dim>
					<dim>40</dim>
					<dim>1</dim>
					<dim>1</dim>
					<dim>1</dim>
				</port>
			</output>
		</layer>
		<layer id="113" name="Add1_9321/Fused_Add_" type="Add" version="opset1">
			<input>
				<port id="0">
					<dim>1</dim>
					<dim>40</dim>
					<dim>8</dim>
					<dim>28</dim>
					<dim>28</dim>
				</port>
				<port id="1">
					<dim>1</dim>
					<dim>40</dim>
					<dim>1</dim>
					<dim>1</dim>
					<dim>1</dim>
				</port>
			</input>
			<output>
				<port id="2" precision="FP32">
					<dim>1</dim>
					<dim>40</dim>
					<dim>8</dim>
					<dim>28</dim>
					<dim>28</dim>
				</port>
			</output>
		</layer>
		<layer id="114" name="384" type="Add" version="opset1">
			<input>
				<port id="0">
					<dim>1</dim>
					<dim>40</dim>
					<dim>8</dim>
					<dim>28</dim>
					<dim>28</dim>
				</port>
				<port id="1">
					<dim>1</dim>
					<dim>40</dim>
					<dim>8</dim>
					<dim>28</dim>
					<dim>28</dim>
				</port>
			</input>
			<output>
				<port id="2" precision="FP32">
					<dim>1</dim>
					<dim>40</dim>
					<dim>8</dim>
					<dim>28</dim>
					<dim>28</dim>
				</port>
			</output>
		</layer>
		<layer id="115" name="399/reciprocal_/Output_0/Data_/copy_const" type="Const" version="opset1">
			<data element_type="f32" offset="0" shape="1,1,1,1,1" size="4"/>
			<output>
				<port id="1" precision="FP32">
					<dim>1</dim>
					<dim>1</dim>
					<dim>1</dim>
					<dim>1</dim>
					<dim>1</dim>
				</port>
			</output>
		</layer>
		<layer id="116" name="Mul1_9344/Fused_Mul_1128111283_const" type="Const" version="opset1">
			<data element_type="f32" offset="243456" shape="120,40,1,1,1" size="19200"/>
			<output>
				<port id="1" precision="FP32">
					<dim>120</dim>
					<dim>40</dim>
					<dim>1</dim>
					<dim>1</dim>
					<dim>1</dim>
				</port>
			</output>
		</layer>
		<layer id="117" name="385" type="Convolution" version="opset1">
			<data dilations="1,1,1" output_padding="0,0,0" pads_begin="0,0,0" pads_end="0,0,0" strides="1,1,1"/>
			<input>
				<port id="0">
					<dim>1</dim>
					<dim>40</dim>
					<dim>8</dim>
					<dim>28</dim>
					<dim>28</dim>
				</port>
				<port id="1">
					<dim>120</dim>
					<dim>40</dim>
					<dim>1</dim>
					<dim>1</dim>
					<dim>1</dim>
				</port>
			</input>
			<output>
				<port id="2" precision="FP32">
					<dim>1</dim>
					<dim>120</dim>
					<dim>8</dim>
					<dim>28</dim>
					<dim>28</dim>
				</port>
			</output>
		</layer>
		<layer id="118" name="data_add_1033710342/copy_const" type="Const" version="opset1">
			<data element_type="f32" offset="262656" shape="1,120,1,1,1" size="480"/>
			<output>
				<port id="1" precision="FP32">
					<dim>1</dim>
					<dim>120</dim>
					<dim>1</dim>
					<dim>1</dim>
					<dim>1</dim>
				</port>
			</output>
		</layer>
		<layer id="119" name="Add1_9345/Fused_Add_" type="Add" version="opset1">
			<input>
				<port id="0">
					<dim>1</dim>
					<dim>120</dim>
					<dim>8</dim>
					<dim>28</dim>
					<dim>28</dim>
				</port>
				<port id="1">
					<dim>1</dim>
					<dim>120</dim>
					<dim>1</dim>
					<dim>1</dim>
					<dim>1</dim>
				</port>
			</input>
			<output>
				<port id="2" precision="FP32">
					<dim>1</dim>
					<dim>120</dim>
					<dim>8</dim>
					<dim>28</dim>
					<dim>28</dim>
				</port>
			</output>
		</layer>
		<layer id="120" name="387" type="ReLU" version="opset1">
			<input>
				<port id="0">
					<dim>1</dim>
					<dim>120</dim>
					<dim>8</dim>
					<dim>28</dim>
					<dim>28</dim>
				</port>
			</input>
			<output>
				<port id="1" precision="FP32">
					<dim>1</dim>
					<dim>120</dim>
					<dim>8</dim>
					<dim>28</dim>
					<dim>28</dim>
				</port>
			</output>
		</layer>
		<layer id="121" name="1738217385_const" type="Const" version="opset1">
			<data element_type="f32" offset="263136" shape="120,1,1,1,5,5" size="12000"/>
			<output>
				<port id="1" precision="FP32">
					<dim>120</dim>
					<dim>1</dim>
					<dim>1</dim>
					<dim>1</dim>
					<dim>5</dim>
					<dim>5</dim>
				</port>
			</output>
		</layer>
		<layer id="122" name="388" type="GroupConvolution" version="opset1">
			<data dilations="1,1,1" output_padding="0,0,0" pads_begin="0,2,2" pads_end="0,2,2" strides="1,1,1"/>
			<input>
				<port id="0">
					<dim>1</dim>
					<dim>120</dim>
					<dim>8</dim>
					<dim>28</dim>
					<dim>28</dim>
				</port>
				<port id="1">
					<dim>120</dim>
					<dim>1</dim>
					<dim>1</dim>
					<dim>1</dim>
					<dim>5</dim>
					<dim>5</dim>
				</port>
			</input>
			<output>
				<port id="2" precision="FP32">
					<dim>1</dim>
					<dim>120</dim>
					<dim>8</dim>
					<dim>28</dim>
					<dim>28</dim>
				</port>
			</output>
		</layer>
		<layer id="123" name="data_add_1034510350/copy_const" type="Const" version="opset1">
			<data element_type="f32" offset="275136" shape="1,120,1,1,1" size="480"/>
			<output>
				<port id="1" precision="FP32">
					<dim>1</dim>
					<dim>120</dim>
					<dim>1</dim>
					<dim>1</dim>
					<dim>1</dim>
				</port>
			</output>
		</layer>
		<layer id="124" name="Add1_9177/Fused_Add_" type="Add" version="opset1">
			<input>
				<port id="0">
					<dim>1</dim>
					<dim>120</dim>
					<dim>8</dim>
					<dim>28</dim>
					<dim>28</dim>
				</port>
				<port id="1">
					<dim>1</dim>
					<dim>120</dim>
					<dim>1</dim>
					<dim>1</dim>
					<dim>1</dim>
				</port>
			</input>
			<output>
				<port id="2" precision="FP32">
					<dim>1</dim>
					<dim>120</dim>
					<dim>8</dim>
					<dim>28</dim>
					<dim>28</dim>
				</port>
			</output>
		</layer>
		<layer id="125" name="391" type="AvgPool" version="opset1">
			<data exclude-pad="true" kernel="1,28,28" pads_begin="0,0,0" pads_end="0,0,0" rounding_type="floor" strides="1,1,1"/>
			<input>
				<port id="0">
					<dim>1</dim>
					<dim>120</dim>
					<dim>8</dim>
					<dim>28</dim>
					<dim>28</dim>
				</port>
			</input>
			<output>
				<port id="1" precision="FP32">
					<dim>1</dim>
					<dim>120</dim>
					<dim>8</dim>
					<dim>1</dim>
					<dim>1</dim>
				</port>
			</output>
		</layer>
		<layer id="126" name="onnx_initializer_node_backbone.features.6.conv.5.fc.0.weight/Output_0/Data__const" type="Const" version="opset1">
			<data element_type="f32" offset="275616" shape="30,120,1,1,1" size="14400"/>
			<output>
				<port id="1" precision="FP32">
					<dim>30</dim>
					<dim>120</dim>
					<dim>1</dim>
					<dim>1</dim>
					<dim>1</dim>
				</port>
			</output>
		</layer>
		<layer id="127" name="392/WithoutBiases" type="Convolution" version="opset1">
			<data dilations="1,1,1" output_padding="0,0,0" pads_begin="0,0,0" pads_end="0,0,0" strides="1,1,1"/>
			<input>
				<port id="0">
					<dim>1</dim>
					<dim>120</dim>
					<dim>8</dim>
					<dim>1</dim>
					<dim>1</dim>
				</port>
				<port id="1">
					<dim>30</dim>
					<dim>120</dim>
					<dim>1</dim>
					<dim>1</dim>
					<dim>1</dim>
				</port>
			</input>
			<output>
				<port id="2" precision="FP32">
					<dim>1</dim>
					<dim>30</dim>
					<dim>8</dim>
					<dim>1</dim>
					<dim>1</dim>
				</port>
			</output>
		</layer>
		<layer id="128" name="392/Dims6309/copy_const" type="Const" version="opset1">
			<data element_type="f32" offset="290016" shape="1,30,1,1,1" size="120"/>
			<output>
				<port id="1" precision="FP32">
					<dim>1</dim>
					<dim>30</dim>
					<dim>1</dim>
					<dim>1</dim>
					<dim>1</dim>
				</port>
			</output>
		</layer>
		<layer id="129" name="392" type="Add" version="opset1">
			<input>
				<port id="0">
					<dim>1</dim>
					<dim>30</dim>
					<dim>8</dim>
					<dim>1</dim>
					<dim>1</dim>
				</port>
				<port id="1">
					<dim>1</dim>
					<dim>30</dim>
					<dim>1</dim>
					<dim>1</dim>
					<dim>1</dim>
				</port>
			</input>
			<output>
				<port id="2" precision="FP32">
					<dim>1</dim>
					<dim>30</dim>
					<dim>8</dim>
					<dim>1</dim>
					<dim>1</dim>
				</port>
			</output>
		</layer>
		<layer id="130" name="393" type="ReLU" version="opset1">
			<input>
				<port id="0">
					<dim>1</dim>
					<dim>30</dim>
					<dim>8</dim>
					<dim>1</dim>
					<dim>1</dim>
				</port>
			</input>
			<output>
				<port id="1" precision="FP32">
					<dim>1</dim>
					<dim>30</dim>
					<dim>8</dim>
					<dim>1</dim>
					<dim>1</dim>
				</port>
			</output>
		</layer>
		<layer id="131" name="onnx_initializer_node_backbone.features.6.conv.5.fc.2.weight/Output_0/Data__const" type="Const" version="opset1">
			<data element_type="f32" offset="290136" shape="120,30,1,1,1" size="14400"/>
			<output>
				<port id="1" precision="FP32">
					<dim>120</dim>
					<dim>30</dim>
					<dim>1</dim>
					<dim>1</dim>
					<dim>1</dim>
				</port>
			</output>
		</layer>
		<layer id="132" name="394/WithoutBiases" type="Convolution" version="opset1">
			<data dilations="1,1,1" output_padding="0,0,0" pads_begin="0,0,0" pads_end="0,0,0" strides="1,1,1"/>
			<input>
				<port id="0">
					<dim>1</dim>
					<dim>30</dim>
					<dim>8</dim>
					<dim>1</dim>
					<dim>1</dim>
				</port>
				<port id="1">
					<dim>120</dim>
					<dim>30</dim>
					<dim>1</dim>
					<dim>1</dim>
					<dim>1</dim>
				</port>
			</input>
			<output>
				<port id="2" precision="FP32">
					<dim>1</dim>
					<dim>120</dim>
					<dim>8</dim>
					<dim>1</dim>
					<dim>1</dim>
				</port>
			</output>
		</layer>
		<layer id="133" name="data_add_1035210354/copy_const" type="Const" version="opset1">
			<data element_type="f32" offset="304536" shape="1,120,1,1,1" size="480"/>
			<output>
				<port id="1" precision="FP32">
					<dim>1</dim>
					<dim>120</dim>
					<dim>1</dim>
					<dim>1</dim>
					<dim>1</dim>
				</port>
			</output>
		</layer>
		<layer id="134" name="394/Fused_Add_" type="Add" version="opset1">
			<input>
				<port id="0">
					<dim>1</dim>
					<dim>120</dim>
					<dim>8</dim>
					<dim>1</dim>
					<dim>1</dim>
				</port>
				<port id="1">
					<dim>1</dim>
					<dim>120</dim>
					<dim>1</dim>
					<dim>1</dim>
					<dim>1</dim>
				</port>
			</input>
			<output>
				<port id="2" precision="FP32">
					<dim>1</dim>
					<dim>120</dim>
					<dim>8</dim>
					<dim>1</dim>
					<dim>1</dim>
				</port>
			</output>
		</layer>
		<layer id="135" name="397" type="Clamp" version="opset1">
			<data max="6.0" min="0.0"/>
			<input>
				<port id="0">
					<dim>1</dim>
					<dim>120</dim>
					<dim>8</dim>
					<dim>1</dim>
					<dim>1</dim>
				</port>
			</input>
			<output>
				<port id="1" precision="FP32">
					<dim>1</dim>
					<dim>120</dim>
					<dim>8</dim>
					<dim>1</dim>
					<dim>1</dim>
				</port>
			</output>
		</layer>
		<layer id="136" name="399/mul_" type="Multiply" version="opset1">
			<input>
				<port id="0">
					<dim>1</dim>
					<dim>1</dim>
					<dim>1</dim>
					<dim>1</dim>
					<dim>1</dim>
				</port>
				<port id="1">
					<dim>1</dim>
					<dim>120</dim>
					<dim>8</dim>
					<dim>1</dim>
					<dim>1</dim>
				</port>
			</input>
			<output>
				<port id="2" precision="FP32">
					<dim>1</dim>
					<dim>120</dim>
					<dim>8</dim>
					<dim>1</dim>
					<dim>1</dim>
				</port>
			</output>
		</layer>
		<layer id="137" name="400" type="Multiply" version="opset1">
			<input>
				<port id="0">
					<dim>1</dim>
					<dim>120</dim>
					<dim>8</dim>
					<dim>1</dim>
					<dim>1</dim>
				</port>
				<port id="1">
					<dim>1</dim>
					<dim>120</dim>
					<dim>8</dim>
					<dim>28</dim>
					<dim>28</dim>
				</port>
			</input>
			<output>
				<port id="2" precision="FP32">
					<dim>1</dim>
					<dim>120</dim>
					<dim>8</dim>
					<dim>28</dim>
					<dim>28</dim>
				</port>
			</output>
		</layer>
		<layer id="138" name="401" type="ReLU" version="opset1">
			<input>
				<port id="0">
					<dim>1</dim>
					<dim>120</dim>
					<dim>8</dim>
					<dim>28</dim>
					<dim>28</dim>
				</port>
			</input>
			<output>
				<port id="1" precision="FP32">
					<dim>1</dim>
					<dim>120</dim>
					<dim>8</dim>
					<dim>28</dim>
					<dim>28</dim>
				</port>
			</output>
		</layer>
		<layer id="139" name="Mul1_9008/Fused_Mul_1128911291_const" type="Const" version="opset1">
			<data element_type="f32" offset="305016" shape="40,120,5,1,1" size="96000"/>
			<output>
				<port id="1" precision="FP32">
					<dim>40</dim>
					<dim>120</dim>
					<dim>5</dim>
					<dim>1</dim>
					<dim>1</dim>
				</port>
			</output>
		</layer>
		<layer id="140" name="402" type="Convolution" version="opset1">
			<data dilations="1,1,1" output_padding="0,0,0" pads_begin="2,0,0" pads_end="2,0,0" strides="1,1,1"/>
			<input>
				<port id="0">
					<dim>1</dim>
					<dim>120</dim>
					<dim>8</dim>
					<dim>28</dim>
					<dim>28</dim>
				</port>
				<port id="1">
					<dim>40</dim>
					<dim>120</dim>
					<dim>5</dim>
					<dim>1</dim>
					<dim>1</dim>
				</port>
			</input>
			<output>
				<port id="2" precision="FP32">
					<dim>1</dim>
					<dim>40</dim>
					<dim>8</dim>
					<dim>28</dim>
					<dim>28</dim>
				</port>
			</output>
		</layer>
		<layer id="141" name="data_add_1035710362/copy_const" type="Const" version="opset1">
			<data element_type="f32" offset="401016" shape="1,40,1,1,1" size="160"/>
			<output>
				<port id="1" precision="FP32">
					<dim>1</dim>
					<dim>40</dim>
					<dim>1</dim>
					<dim>1</dim>
					<dim>1</dim>
				</port>
			</output>
		</layer>
		<layer id="142" name="Add1_9009/Fused_Add_" type="Add" version="opset1">
			<input>
				<port id="0">
					<dim>1</dim>
					<dim>40</dim>
					<dim>8</dim>
					<dim>28</dim>
					<dim>28</dim>
				</port>
				<port id="1">
					<dim>1</dim>
					<dim>40</dim>
					<dim>1</dim>
					<dim>1</dim>
					<dim>1</dim>
				</port>
			</input>
			<output>
				<port id="2" precision="FP32">
					<dim>1</dim>
					<dim>40</dim>
					<dim>8</dim>
					<dim>28</dim>
					<dim>28</dim>
				</port>
			</output>
		</layer>
		<layer id="143" name="404" type="Add" version="opset1">
			<input>
				<port id="0">
					<dim>1</dim>
					<dim>40</dim>
					<dim>8</dim>
					<dim>28</dim>
					<dim>28</dim>
				</port>
				<port id="1">
					<dim>1</dim>
					<dim>40</dim>
					<dim>8</dim>
					<dim>28</dim>
					<dim>28</dim>
				</port>
			</input>
			<output>
				<port id="2" precision="FP32">
					<dim>1</dim>
					<dim>40</dim>
					<dim>8</dim>
					<dim>28</dim>
					<dim>28</dim>
				</port>
			</output>
		</layer>
		<layer id="144" name="Mul1_9020/Fused_Mul_1129311295_const" type="Const" version="opset1">
			<data element_type="f32" offset="401176" shape="240,40,1,1,1" size="38400"/>
			<output>
				<port id="1" precision="FP32">
					<dim>240</dim>
					<dim>40</dim>
					<dim>1</dim>
					<dim>1</dim>
					<dim>1</dim>
				</port>
			</output>
		</layer>
		<layer id="145" name="405" type="Convolution" version="opset1">
			<data dilations="1,1,1" output_padding="0,0,0" pads_begin="0,0,0" pads_end="0,0,0" strides="1,1,1"/>
			<input>
				<port id="0">
					<dim>1</dim>
					<dim>40</dim>
					<dim>8</dim>
					<dim>28</dim>
					<dim>28</dim>
				</port>
				<port id="1">
					<dim>240</dim>
					<dim>40</dim>
					<dim>1</dim>
					<dim>1</dim>
					<dim>1</dim>
				</port>
			</input>
			<output>
				<port id="2" precision="FP32">
					<dim>1</dim>
					<dim>240</dim>
					<dim>8</dim>
					<dim>28</dim>
					<dim>28</dim>
				</port>
			</output>
		</layer>
		<layer id="146" name="data_add_1036510370/copy_const" type="Const" version="opset1">
			<data element_type="f32" offset="439576" shape="1,240,1,1,1" size="960"/>
			<output>
				<port id="1" precision="FP32">
					<dim>1</dim>
					<dim>240</dim>
					<dim>1</dim>
					<dim>1</dim>
					<dim>1</dim>
				</port>
			</output>
		</layer>
		<layer id="147" name="Add1_9021/Fused_Add_" type="Add" version="opset1">
			<input>
				<port id="0">
					<dim>1</dim>
					<dim>240</dim>
					<dim>8</dim>
					<dim>28</dim>
					<dim>28</dim>
				</port>
				<port id="1">
					<dim>1</dim>
					<dim>240</dim>
					<dim>1</dim>
					<dim>1</dim>
					<dim>1</dim>
				</port>
			</input>
			<output>
				<port id="2" precision="FP32">
					<dim>1</dim>
					<dim>240</dim>
					<dim>8</dim>
					<dim>28</dim>
					<dim>28</dim>
				</port>
			</output>
		</layer>
		<layer id="148" name="411/reciprocal_/Output_0/Data_/copy_const" type="Const" version="opset1">
			<data element_type="f32" offset="0" shape="1,1,1,1,1" size="4"/>
			<output>
				<port id="1" precision="FP32">
					<dim>1</dim>
					<dim>1</dim>
					<dim>1</dim>
					<dim>1</dim>
					<dim>1</dim>
				</port>
			</output>
		</layer>
		<layer id="149" name="407/Output_0/Data_/copy_const" type="Const" version="opset1">
			<data element_type="f32" offset="1820" shape="1,1,1,1,1" size="4"/>
			<output>
				<port id="1" precision="FP32">
					<dim>1</dim>
					<dim>1</dim>
					<dim>1</dim>
					<dim>1</dim>
					<dim>1</dim>
				</port>
			</output>
		</layer>
		<layer id="150" name="408" type="Add" version="opset1">
			<input>
				<port id="0">
					<dim>1</dim>
					<dim>240</dim>
					<dim>8</dim>
					<dim>28</dim>
					<dim>28</dim>
				</port>
				<port id="1">
					<dim>1</dim>
					<dim>1</dim>
					<dim>1</dim>
					<dim>1</dim>
					<dim>1</dim>
				</port>
			</input>
			<output>
				<port id="2" precision="FP32">
					<dim>1</dim>
					<dim>240</dim>
					<dim>8</dim>
					<dim>28</dim>
					<dim>28</dim>
				</port>
			</output>
		</layer>
		<layer id="151" name="409" type="Clamp" version="opset1">
			<data max="6.0" min="0.0"/>
			<input>
				<port id="0">
					<dim>1</dim>
					<dim>240</dim>
					<dim>8</dim>
					<dim>28</dim>
					<dim>28</dim>
				</port>
			</input>
			<output>
				<port id="1" precision="FP32">
					<dim>1</dim>
					<dim>240</dim>
					<dim>8</dim>
					<dim>28</dim>
					<dim>28</dim>
				</port>
			</output>
		</layer>
		<layer id="152" name="411/mul_" type="Multiply" version="opset1">
			<input>
				<port id="0">
					<dim>1</dim>
					<dim>1</dim>
					<dim>1</dim>
					<dim>1</dim>
					<dim>1</dim>
				</port>
				<port id="1">
					<dim>1</dim>
					<dim>240</dim>
					<dim>8</dim>
					<dim>28</dim>
					<dim>28</dim>
				</port>
			</input>
			<output>
				<port id="2" precision="FP32">
					<dim>1</dim>
					<dim>240</dim>
					<dim>8</dim>
					<dim>28</dim>
					<dim>28</dim>
				</port>
			</output>
		</layer>
		<layer id="153" name="412" type="Multiply" version="opset1">
			<input>
				<port id="0">
					<dim>1</dim>
					<dim>240</dim>
					<dim>8</dim>
					<dim>28</dim>
					<dim>28</dim>
				</port>
				<port id="1">
					<dim>1</dim>
					<dim>240</dim>
					<dim>8</dim>
					<dim>28</dim>
					<dim>28</dim>
				</port>
			</input>
			<output>
				<port id="2" precision="FP32">
					<dim>1</dim>
					<dim>240</dim>
					<dim>8</dim>
					<dim>28</dim>
					<dim>28</dim>
				</port>
			</output>
		</layer>
		<layer id="154" name="1741417417_const" type="Const" version="opset1">
			<data element_type="f32" offset="440536" shape="240,1,1,1,3,3" size="8640"/>
			<output>
				<port id="1" precision="FP32">
					<dim>240</dim>
					<dim>1</dim>
					<dim>1</dim>
					<dim>1</dim>
					<dim>3</dim>
					<dim>3</dim>
				</port>
			</output>
		</layer>
		<layer id="155" name="413" type="GroupConvolution" version="opset1">
			<data dilations="1,1,1" output_padding="0,0,0" pads_begin="0,1,1" pads_end="0,1,1" strides="1,2,2"/>
			<input>
				<port id="0">
					<dim>1</dim>
					<dim>240</dim>
					<dim>8</dim>
					<dim>28</dim>
					<dim>28</dim>
				</port>
				<port id="1">
					<dim>240</dim>
					<dim>1</dim>
					<dim>1</dim>
					<dim>1</dim>
					<dim>3</dim>
					<dim>3</dim>
				</port>
			</input>
			<output>
				<port id="2" precision="FP32">
					<dim>1</dim>
					<dim>240</dim>
					<dim>8</dim>
					<dim>14</dim>
					<dim>14</dim>
				</port>
			</output>
		</layer>
		<layer id="156" name="data_add_1037310378/copy_const" type="Const" version="opset1">
			<data element_type="f32" offset="449176" shape="1,240,1,1,1" size="960"/>
			<output>
				<port id="1" precision="FP32">
					<dim>1</dim>
					<dim>240</dim>
					<dim>1</dim>
					<dim>1</dim>
					<dim>1</dim>
				</port>
			</output>
		</layer>
		<layer id="157" name="Add1_9153/Fused_Add_" type="Add" version="opset1">
			<input>
				<port id="0">
					<dim>1</dim>
					<dim>240</dim>
					<dim>8</dim>
					<dim>14</dim>
					<dim>14</dim>
				</port>
				<port id="1">
					<dim>1</dim>
					<dim>240</dim>
					<dim>1</dim>
					<dim>1</dim>
					<dim>1</dim>
				</port>
			</input>
			<output>
				<port id="2" precision="FP32">
					<dim>1</dim>
					<dim>240</dim>
					<dim>8</dim>
					<dim>14</dim>
					<dim>14</dim>
				</port>
			</output>
		</layer>
		<layer id="158" name="419/reciprocal_/Output_0/Data_/copy_const" type="Const" version="opset1">
			<data element_type="f32" offset="0" shape="1,1,1,1,1" size="4"/>
			<output>
				<port id="1" precision="FP32">
					<dim>1</dim>
					<dim>1</dim>
					<dim>1</dim>
					<dim>1</dim>
					<dim>1</dim>
				</port>
			</output>
		</layer>
		<layer id="159" name="415/Output_0/Data_/copy_const" type="Const" version="opset1">
			<data element_type="f32" offset="1820" shape="1,1,1,1,1" size="4"/>
			<output>
				<port id="1" precision="FP32">
					<dim>1</dim>
					<dim>1</dim>
					<dim>1</dim>
					<dim>1</dim>
					<dim>1</dim>
				</port>
			</output>
		</layer>
		<layer id="160" name="416" type="Add" version="opset1">
			<input>
				<port id="0">
					<dim>1</dim>
					<dim>240</dim>
					<dim>8</dim>
					<dim>14</dim>
					<dim>14</dim>
				</port>
				<port id="1">
					<dim>1</dim>
					<dim>1</dim>
					<dim>1</dim>
					<dim>1</dim>
					<dim>1</dim>
				</port>
			</input>
			<output>
				<port id="2" precision="FP32">
					<dim>1</dim>
					<dim>240</dim>
					<dim>8</dim>
					<dim>14</dim>
					<dim>14</dim>
				</port>
			</output>
		</layer>
		<layer id="161" name="417" type="Clamp" version="opset1">
			<data max="6.0" min="0.0"/>
			<input>
				<port id="0">
					<dim>1</dim>
					<dim>240</dim>
					<dim>8</dim>
					<dim>14</dim>
					<dim>14</dim>
				</port>
			</input>
			<output>
				<port id="1" precision="FP32">
					<dim>1</dim>
					<dim>240</dim>
					<dim>8</dim>
					<dim>14</dim>
					<dim>14</dim>
				</port>
			</output>
		</layer>
		<layer id="162" name="419/mul_" type="Multiply" version="opset1">
			<input>
				<port id="0">
					<dim>1</dim>
					<dim>1</dim>
					<dim>1</dim>
					<dim>1</dim>
					<dim>1</dim>
				</port>
				<port id="1">
					<dim>1</dim>
					<dim>240</dim>
					<dim>8</dim>
					<dim>14</dim>
					<dim>14</dim>
				</port>
			</input>
			<output>
				<port id="2" precision="FP32">
					<dim>1</dim>
					<dim>240</dim>
					<dim>8</dim>
					<dim>14</dim>
					<dim>14</dim>
				</port>
			</output>
		</layer>
		<layer id="163" name="420" type="Multiply" version="opset1">
			<input>
				<port id="0">
					<dim>1</dim>
					<dim>240</dim>
					<dim>8</dim>
					<dim>14</dim>
					<dim>14</dim>
				</port>
				<port id="1">
					<dim>1</dim>
					<dim>240</dim>
					<dim>8</dim>
					<dim>14</dim>
					<dim>14</dim>
				</port>
			</input>
			<output>
				<port id="2" precision="FP32">
					<dim>1</dim>
					<dim>240</dim>
					<dim>8</dim>
					<dim>14</dim>
					<dim>14</dim>
				</port>
			</output>
		</layer>
		<layer id="164" name="Mul1_9392/Fused_Mul_1130111303_const" type="Const" version="opset1">
			<data element_type="f32" offset="450136" shape="80,240,5,1,1" size="384000"/>
			<output>
				<port id="1" precision="FP32">
					<dim>80</dim>
					<dim>240</dim>
					<dim>5</dim>
					<dim>1</dim>
					<dim>1</dim>
				</port>
			</output>
		</layer>
		<layer id="165" name="421" type="Convolution" version="opset1">
			<data dilations="1,1,1" output_padding="0,0,0" pads_begin="2,0,0" pads_end="2,0,0" strides="1,1,1"/>
			<input>
				<port id="0">
					<dim>1</dim>
					<dim>240</dim>
					<dim>8</dim>
					<dim>14</dim>
					<dim>14</dim>
				</port>
				<port id="1">
					<dim>80</dim>
					<dim>240</dim>
					<dim>5</dim>
					<dim>1</dim>
					<dim>1</dim>
				</port>
			</input>
			<output>
				<port id="2" precision="FP32">
					<dim>1</dim>
					<dim>80</dim>
					<dim>8</dim>
					<dim>14</dim>
					<dim>14</dim>
				</port>
			</output>
		</layer>
		<layer id="166" name="data_add_1038110386/copy_const" type="Const" version="opset1">
			<data element_type="f32" offset="834136" shape="1,80,1,1,1" size="320"/>
			<output>
				<port id="1" precision="FP32">
					<dim>1</dim>
					<dim>80</dim>
					<dim>1</dim>
					<dim>1</dim>
					<dim>1</dim>
				</port>
			</output>
		</layer>
		<layer id="167" name="Add1_9393/Fused_Add_" type="Add" version="opset1">
			<input>
				<port id="0">
					<dim>1</dim>
					<dim>80</dim>
					<dim>8</dim>
					<dim>14</dim>
					<dim>14</dim>
				</port>
				<port id="1">
					<dim>1</dim>
					<dim>80</dim>
					<dim>1</dim>
					<dim>1</dim>
					<dim>1</dim>
				</port>
			</input>
			<output>
				<port id="2" precision="FP32">
					<dim>1</dim>
					<dim>80</dim>
					<dim>8</dim>
					<dim>14</dim>
					<dim>14</dim>
				</port>
			</output>
		</layer>
		<layer id="168" name="Mul1_9164/Fused_Mul_1130511307_const" type="Const" version="opset1">
			<data element_type="f32" offset="834456" shape="200,80,1,1,1" size="64000"/>
			<output>
				<port id="1" precision="FP32">
					<dim>200</dim>
					<dim>80</dim>
					<dim>1</dim>
					<dim>1</dim>
					<dim>1</dim>
				</port>
			</output>
		</layer>
		<layer id="169" name="423" type="Convolution" version="opset1">
			<data dilations="1,1,1" output_padding="0,0,0" pads_begin="0,0,0" pads_end="0,0,0" strides="1,1,1"/>
			<input>
				<port id="0">
					<dim>1</dim>
					<dim>80</dim>
					<dim>8</dim>
					<dim>14</dim>
					<dim>14</dim>
				</port>
				<port id="1">
					<dim>200</dim>
					<dim>80</dim>
					<dim>1</dim>
					<dim>1</dim>
					<dim>1</dim>
				</port>
			</input>
			<output>
				<port id="2" precision="FP32">
					<dim>1</dim>
					<dim>200</dim>
					<dim>8</dim>
					<dim>14</dim>
					<dim>14</dim>
				</port>
			</output>
		</layer>
		<layer id="170" name="data_add_1038910394/copy_const" type="Const" version="opset1">
			<data element_type="f32" offset="898456" shape="1,200,1,1,1" size="800"/>
			<output>
				<port id="1" precision="FP32">
					<dim>1</dim>
					<dim>200</dim>
					<dim>1</dim>
					<dim>1</dim>
					<dim>1</dim>
				</port>
			</output>
		</layer>
		<layer id="171" name="Add1_9165/Fused_Add_" type="Add" version="opset1">
			<input>
				<port id="0">
					<dim>1</dim>
					<dim>200</dim>
					<dim>8</dim>
					<dim>14</dim>
					<dim>14</dim>
				</port>
				<port id="1">
					<dim>1</dim>
					<dim>200</dim>
					<dim>1</dim>
					<dim>1</dim>
					<dim>1</dim>
				</port>
			</input>
			<output>
				<port id="2" precision="FP32">
					<dim>1</dim>
					<dim>200</dim>
					<dim>8</dim>
					<dim>14</dim>
					<dim>14</dim>
				</port>
			</output>
		</layer>
		<layer id="172" name="429/reciprocal_/Output_0/Data_/copy_const" type="Const" version="opset1">
			<data element_type="f32" offset="0" shape="1,1,1,1,1" size="4"/>
			<output>
				<port id="1" precision="FP32">
					<dim>1</dim>
					<dim>1</dim>
					<dim>1</dim>
					<dim>1</dim>
					<dim>1</dim>
				</port>
			</output>
		</layer>
		<layer id="173" name="425/Output_0/Data_/copy_const" type="Const" version="opset1">
			<data element_type="f32" offset="1820" shape="1,1,1,1,1" size="4"/>
			<output>
				<port id="1" precision="FP32">
					<dim>1</dim>
					<dim>1</dim>
					<dim>1</dim>
					<dim>1</dim>
					<dim>1</dim>
				</port>
			</output>
		</layer>
		<layer id="174" name="426" type="Add" version="opset1">
			<input>
				<port id="0">
					<dim>1</dim>
					<dim>200</dim>
					<dim>8</dim>
					<dim>14</dim>
					<dim>14</dim>
				</port>
				<port id="1">
					<dim>1</dim>
					<dim>1</dim>
					<dim>1</dim>
					<dim>1</dim>
					<dim>1</dim>
				</port>
			</input>
			<output>
				<port id="2" precision="FP32">
					<dim>1</dim>
					<dim>200</dim>
					<dim>8</dim>
					<dim>14</dim>
					<dim>14</dim>
				</port>
			</output>
		</layer>
		<layer id="175" name="427" type="Clamp" version="opset1">
			<data max="6.0" min="0.0"/>
			<input>
				<port id="0">
					<dim>1</dim>
					<dim>200</dim>
					<dim>8</dim>
					<dim>14</dim>
					<dim>14</dim>
				</port>
			</input>
			<output>
				<port id="1" precision="FP32">
					<dim>1</dim>
					<dim>200</dim>
					<dim>8</dim>
					<dim>14</dim>
					<dim>14</dim>
				</port>
			</output>
		</layer>
		<layer id="176" name="429/mul_" type="Multiply" version="opset1">
			<input>
				<port id="0">
					<dim>1</dim>
					<dim>1</dim>
					<dim>1</dim>
					<dim>1</dim>
					<dim>1</dim>
				</port>
				<port id="1">
					<dim>1</dim>
					<dim>200</dim>
					<dim>8</dim>
					<dim>14</dim>
					<dim>14</dim>
				</port>
			</input>
			<output>
				<port id="2" precision="FP32">
					<dim>1</dim>
					<dim>200</dim>
					<dim>8</dim>
					<dim>14</dim>
					<dim>14</dim>
				</port>
			</output>
		</layer>
		<layer id="177" name="430" type="Multiply" version="opset1">
			<input>
				<port id="0">
					<dim>1</dim>
					<dim>200</dim>
					<dim>8</dim>
					<dim>14</dim>
					<dim>14</dim>
				</port>
				<port id="1">
					<dim>1</dim>
					<dim>200</dim>
					<dim>8</dim>
					<dim>14</dim>
					<dim>14</dim>
				</port>
			</input>
			<output>
				<port id="2" precision="FP32">
					<dim>1</dim>
					<dim>200</dim>
					<dim>8</dim>
					<dim>14</dim>
					<dim>14</dim>
				</port>
			</output>
		</layer>
		<layer id="178" name="1739817401_const" type="Const" version="opset1">
			<data element_type="f32" offset="899256" shape="200,1,1,1,3,3" size="7200"/>
			<output>
				<port id="1" precision="FP32">
					<dim>200</dim>
					<dim>1</dim>
					<dim>1</dim>
					<dim>1</dim>
					<dim>3</dim>
					<dim>3</dim>
				</port>
			</output>
		</layer>
		<layer id="179" name="431" type="GroupConvolution" version="opset1">
			<data dilations="1,1,1" output_padding="0,0,0" pads_begin="0,1,1" pads_end="0,1,1" strides="1,1,1"/>
			<input>
				<port id="0">
					<dim>1</dim>
					<dim>200</dim>
					<dim>8</dim>
					<dim>14</dim>
					<dim>14</dim>
				</port>
				<port id="1">
					<dim>200</dim>
					<dim>1</dim>
					<dim>1</dim>
					<dim>1</dim>
					<dim>3</dim>
					<dim>3</dim>
				</port>
			</input>
			<output>
				<port id="2" precision="FP32">
					<dim>1</dim>
					<dim>200</dim>
					<dim>8</dim>
					<dim>14</dim>
					<dim>14</dim>
				</port>
			</output>
		</layer>
		<layer id="180" name="data_add_1039710402/copy_const" type="Const" version="opset1">
			<data element_type="f32" offset="906456" shape="1,200,1,1,1" size="800"/>
			<output>
				<port id="1" precision="FP32">
					<dim>1</dim>
					<dim>200</dim>
					<dim>1</dim>
					<dim>1</dim>
					<dim>1</dim>
				</port>
			</output>
		</layer>
		<layer id="181" name="Add1_9309/Fused_Add_" type="Add" version="opset1">
			<input>
				<port id="0">
					<dim>1</dim>
					<dim>200</dim>
					<dim>8</dim>
					<dim>14</dim>
					<dim>14</dim>
				</port>
				<port id="1">
					<dim>1</dim>
					<dim>200</dim>
					<dim>1</dim>
					<dim>1</dim>
					<dim>1</dim>
				</port>
			</input>
			<output>
				<port id="2" precision="FP32">
					<dim>1</dim>
					<dim>200</dim>
					<dim>8</dim>
					<dim>14</dim>
					<dim>14</dim>
				</port>
			</output>
		</layer>
		<layer id="182" name="437/reciprocal_/Output_0/Data_/copy_const" type="Const" version="opset1">
			<data element_type="f32" offset="0" shape="1,1,1,1,1" size="4"/>
			<output>
				<port id="1" precision="FP32">
					<dim>1</dim>
					<dim>1</dim>
					<dim>1</dim>
					<dim>1</dim>
					<dim>1</dim>
				</port>
			</output>
		</layer>
		<layer id="183" name="433/Output_0/Data_/copy_const" type="Const" version="opset1">
			<data element_type="f32" offset="1820" shape="1,1,1,1,1" size="4"/>
			<output>
				<port id="1" precision="FP32">
					<dim>1</dim>
					<dim>1</dim>
					<dim>1</dim>
					<dim>1</dim>
					<dim>1</dim>
				</port>
			</output>
		</layer>
		<layer id="184" name="434" type="Add" version="opset1">
			<input>
				<port id="0">
					<dim>1</dim>
					<dim>200</dim>
					<dim>8</dim>
					<dim>14</dim>
					<dim>14</dim>
				</port>
				<port id="1">
					<dim>1</dim>
					<dim>1</dim>
					<dim>1</dim>
					<dim>1</dim>
					<dim>1</dim>
				</port>
			</input>
			<output>
				<port id="2" precision="FP32">
					<dim>1</dim>
					<dim>200</dim>
					<dim>8</dim>
					<dim>14</dim>
					<dim>14</dim>
				</port>
			</output>
		</layer>
		<layer id="185" name="435" type="Clamp" version="opset1">
			<data max="6.0" min="0.0"/>
			<input>
				<port id="0">
					<dim>1</dim>
					<dim>200</dim>
					<dim>8</dim>
					<dim>14</dim>
					<dim>14</dim>
				</port>
			</input>
			<output>
				<port id="1" precision="FP32">
					<dim>1</dim>
					<dim>200</dim>
					<dim>8</dim>
					<dim>14</dim>
					<dim>14</dim>
				</port>
			</output>
		</layer>
		<layer id="186" name="437/mul_" type="Multiply" version="opset1">
			<input>
				<port id="0">
					<dim>1</dim>
					<dim>1</dim>
					<dim>1</dim>
					<dim>1</dim>
					<dim>1</dim>
				</port>
				<port id="1">
					<dim>1</dim>
					<dim>200</dim>
					<dim>8</dim>
					<dim>14</dim>
					<dim>14</dim>
				</port>
			</input>
			<output>
				<port id="2" precision="FP32">
					<dim>1</dim>
					<dim>200</dim>
					<dim>8</dim>
					<dim>14</dim>
					<dim>14</dim>
				</port>
			</output>
		</layer>
		<layer id="187" name="438" type="Multiply" version="opset1">
			<input>
				<port id="0">
					<dim>1</dim>
					<dim>200</dim>
					<dim>8</dim>
					<dim>14</dim>
					<dim>14</dim>
				</port>
				<port id="1">
					<dim>1</dim>
					<dim>200</dim>
					<dim>8</dim>
					<dim>14</dim>
					<dim>14</dim>
				</port>
			</input>
			<output>
				<port id="2" precision="FP32">
					<dim>1</dim>
					<dim>200</dim>
					<dim>8</dim>
					<dim>14</dim>
					<dim>14</dim>
				</port>
			</output>
		</layer>
		<layer id="188" name="Mul1_9404/Fused_Mul_1131311315_const" type="Const" version="opset1">
			<data element_type="f32" offset="907256" shape="80,200,3,1,1" size="192000"/>
			<output>
				<port id="1" precision="FP32">
					<dim>80</dim>
					<dim>200</dim>
					<dim>3</dim>
					<dim>1</dim>
					<dim>1</dim>
				</port>
			</output>
		</layer>
		<layer id="189" name="439" type="Convolution" version="opset1">
			<data dilations="1,1,1" output_padding="0,0,0" pads_begin="1,0,0" pads_end="1,0,0" strides="1,1,1"/>
			<input>
				<port id="0">
					<dim>1</dim>
					<dim>200</dim>
					<dim>8</dim>
					<dim>14</dim>
					<dim>14</dim>
				</port>
				<port id="1">
					<dim>80</dim>
					<dim>200</dim>
					<dim>3</dim>
					<dim>1</dim>
					<dim>1</dim>
				</port>
			</input>
			<output>
				<port id="2" precision="FP32">
					<dim>1</dim>
					<dim>80</dim>
					<dim>8</dim>
					<dim>14</dim>
					<dim>14</dim>
				</port>
			</output>
		</layer>
		<layer id="190" name="data_add_1040510410/copy_const" type="Const" version="opset1">
			<data element_type="f32" offset="1099256" shape="1,80,1,1,1" size="320"/>
			<output>
				<port id="1" precision="FP32">
					<dim>1</dim>
					<dim>80</dim>
					<dim>1</dim>
					<dim>1</dim>
					<dim>1</dim>
				</port>
			</output>
		</layer>
		<layer id="191" name="Add1_9405/Fused_Add_" type="Add" version="opset1">
			<input>
				<port id="0">
					<dim>1</dim>
					<dim>80</dim>
					<dim>8</dim>
					<dim>14</dim>
					<dim>14</dim>
				</port>
				<port id="1">
					<dim>1</dim>
					<dim>80</dim>
					<dim>1</dim>
					<dim>1</dim>
					<dim>1</dim>
				</port>
			</input>
			<output>
				<port id="2" precision="FP32">
					<dim>1</dim>
					<dim>80</dim>
					<dim>8</dim>
					<dim>14</dim>
					<dim>14</dim>
				</port>
			</output>
		</layer>
		<layer id="192" name="441" type="Add" version="opset1">
			<input>
				<port id="0">
					<dim>1</dim>
					<dim>80</dim>
					<dim>8</dim>
					<dim>14</dim>
					<dim>14</dim>
				</port>
				<port id="1">
					<dim>1</dim>
					<dim>80</dim>
					<dim>8</dim>
					<dim>14</dim>
					<dim>14</dim>
				</port>
			</input>
			<output>
				<port id="2" precision="FP32">
					<dim>1</dim>
					<dim>80</dim>
					<dim>8</dim>
					<dim>14</dim>
					<dim>14</dim>
				</port>
			</output>
		</layer>
		<layer id="193" name="Mul1_9464/Fused_Mul_1131711319_const" type="Const" version="opset1">
			<data element_type="f32" offset="1099576" shape="184,80,1,1,1" size="58880"/>
			<output>
				<port id="1" precision="FP32">
					<dim>184</dim>
					<dim>80</dim>
					<dim>1</dim>
					<dim>1</dim>
					<dim>1</dim>
				</port>
			</output>
		</layer>
		<layer id="194" name="442" type="Convolution" version="opset1">
			<data dilations="1,1,1" output_padding="0,0,0" pads_begin="0,0,0" pads_end="0,0,0" strides="1,1,1"/>
			<input>
				<port id="0">
					<dim>1</dim>
					<dim>80</dim>
					<dim>8</dim>
					<dim>14</dim>
					<dim>14</dim>
				</port>
				<port id="1">
					<dim>184</dim>
					<dim>80</dim>
					<dim>1</dim>
					<dim>1</dim>
					<dim>1</dim>
				</port>
			</input>
			<output>
				<port id="2" precision="FP32">
					<dim>1</dim>
					<dim>184</dim>
					<dim>8</dim>
					<dim>14</dim>
					<dim>14</dim>
				</port>
			</output>
		</layer>
		<layer id="195" name="data_add_1041310418/copy_const" type="Const" version="opset1">
			<data element_type="f32" offset="1158456" shape="1,184,1,1,1" size="736"/>
			<output>
				<port id="1" precision="FP32">
					<dim>1</dim>
					<dim>184</dim>
					<dim>1</dim>
					<dim>1</dim>
					<dim>1</dim>
				</port>
			</output>
		</layer>
		<layer id="196" name="Add1_9465/Fused_Add_" type="Add" version="opset1">
			<input>
				<port id="0">
					<dim>1</dim>
					<dim>184</dim>
					<dim>8</dim>
					<dim>14</dim>
					<dim>14</dim>
				</port>
				<port id="1">
					<dim>1</dim>
					<dim>184</dim>
					<dim>1</dim>
					<dim>1</dim>
					<dim>1</dim>
				</port>
			</input>
			<output>
				<port id="2" precision="FP32">
					<dim>1</dim>
					<dim>184</dim>
					<dim>8</dim>
					<dim>14</dim>
					<dim>14</dim>
				</port>
			</output>
		</layer>
		<layer id="197" name="448/reciprocal_/Output_0/Data_/copy_const" type="Const" version="opset1">
			<data element_type="f32" offset="0" shape="1,1,1,1,1" size="4"/>
			<output>
				<port id="1" precision="FP32">
					<dim>1</dim>
					<dim>1</dim>
					<dim>1</dim>
					<dim>1</dim>
					<dim>1</dim>
				</port>
			</output>
		</layer>
		<layer id="198" name="444/Output_0/Data_/copy_const" type="Const" version="opset1">
			<data element_type="f32" offset="1820" shape="1,1,1,1,1" size="4"/>
			<output>
				<port id="1" precision="FP32">
					<dim>1</dim>
					<dim>1</dim>
					<dim>1</dim>
					<dim>1</dim>
					<dim>1</dim>
				</port>
			</output>
		</layer>
		<layer id="199" name="445" type="Add" version="opset1">
			<input>
				<port id="0">
					<dim>1</dim>
					<dim>184</dim>
					<dim>8</dim>
					<dim>14</dim>
					<dim>14</dim>
				</port>
				<port id="1">
					<dim>1</dim>
					<dim>1</dim>
					<dim>1</dim>
					<dim>1</dim>
					<dim>1</dim>
				</port>
			</input>
			<output>
				<port id="2" precision="FP32">
					<dim>1</dim>
					<dim>184</dim>
					<dim>8</dim>
					<dim>14</dim>
					<dim>14</dim>
				</port>
			</output>
		</layer>
		<layer id="200" name="446" type="Clamp" version="opset1">
			<data max="6.0" min="0.0"/>
			<input>
				<port id="0">
					<dim>1</dim>
					<dim>184</dim>
					<dim>8</dim>
					<dim>14</dim>
					<dim>14</dim>
				</port>
			</input>
			<output>
				<port id="1" precision="FP32">
					<dim>1</dim>
					<dim>184</dim>
					<dim>8</dim>
					<dim>14</dim>
					<dim>14</dim>
				</port>
			</output>
		</layer>
		<layer id="201" name="448/mul_" type="Multiply" version="opset1">
			<input>
				<port id="0">
					<dim>1</dim>
					<dim>1</dim>
					<dim>1</dim>
					<dim>1</dim>
					<dim>1</dim>
				</port>
				<port id="1">
					<dim>1</dim>
					<dim>184</dim>
					<dim>8</dim>
					<dim>14</dim>
					<dim>14</dim>
				</port>
			</input>
			<output>
				<port id="2" precision="FP32">
					<dim>1</dim>
					<dim>184</dim>
					<dim>8</dim>
					<dim>14</dim>
					<dim>14</dim>
				</port>
			</output>
		</layer>
		<layer id="202" name="449" type="Multiply" version="opset1">
			<input>
				<port id="0">
					<dim>1</dim>
					<dim>184</dim>
					<dim>8</dim>
					<dim>14</dim>
					<dim>14</dim>
				</port>
				<port id="1">
					<dim>1</dim>
					<dim>184</dim>
					<dim>8</dim>
					<dim>14</dim>
					<dim>14</dim>
				</port>
			</input>
			<output>
				<port id="2" precision="FP32">
					<dim>1</dim>
					<dim>184</dim>
					<dim>8</dim>
					<dim>14</dim>
					<dim>14</dim>
				</port>
			</output>
		</layer>
		<layer id="203" name="1743417437_const" type="Const" version="opset1">
			<data element_type="f32" offset="1159192" shape="184,1,1,1,3,3" size="6624"/>
			<output>
				<port id="1" precision="FP32">
					<dim>184</dim>
					<dim>1</dim>
					<dim>1</dim>
					<dim>1</dim>
					<dim>3</dim>
					<dim>3</dim>
				</port>
			</output>
		</layer>
		<layer id="204" name="450" type="GroupConvolution" version="opset1">
			<data dilations="1,1,1" output_padding="0,0,0" pads_begin="0,1,1" pads_end="0,1,1" strides="1,1,1"/>
			<input>
				<port id="0">
					<dim>1</dim>
					<dim>184</dim>
					<dim>8</dim>
					<dim>14</dim>
					<dim>14</dim>
				</port>
				<port id="1">
					<dim>184</dim>
					<dim>1</dim>
					<dim>1</dim>
					<dim>1</dim>
					<dim>3</dim>
					<dim>3</dim>
				</port>
			</input>
			<output>
				<port id="2" precision="FP32">
					<dim>1</dim>
					<dim>184</dim>
					<dim>8</dim>
					<dim>14</dim>
					<dim>14</dim>
				</port>
			</output>
		</layer>
		<layer id="205" name="data_add_1042110426/copy_const" type="Const" version="opset1">
			<data element_type="f32" offset="1165816" shape="1,184,1,1,1" size="736"/>
			<output>
				<port id="1" precision="FP32">
					<dim>1</dim>
					<dim>184</dim>
					<dim>1</dim>
					<dim>1</dim>
					<dim>1</dim>
				</port>
			</output>
		</layer>
		<layer id="206" name="Add1_9477/Fused_Add_" type="Add" version="opset1">
			<input>
				<port id="0">
					<dim>1</dim>
					<dim>184</dim>
					<dim>8</dim>
					<dim>14</dim>
					<dim>14</dim>
				</port>
				<port id="1">
					<dim>1</dim>
					<dim>184</dim>
					<dim>1</dim>
					<dim>1</dim>
					<dim>1</dim>
				</port>
			</input>
			<output>
				<port id="2" precision="FP32">
					<dim>1</dim>
					<dim>184</dim>
					<dim>8</dim>
					<dim>14</dim>
					<dim>14</dim>
				</port>
			</output>
		</layer>
		<layer id="207" name="456/reciprocal_/Output_0/Data_/copy_const" type="Const" version="opset1">
			<data element_type="f32" offset="0" shape="1,1,1,1,1" size="4"/>
			<output>
				<port id="1" precision="FP32">
					<dim>1</dim>
					<dim>1</dim>
					<dim>1</dim>
					<dim>1</dim>
					<dim>1</dim>
				</port>
			</output>
		</layer>
		<layer id="208" name="452/Output_0/Data_/copy_const" type="Const" version="opset1">
			<data element_type="f32" offset="1820" shape="1,1,1,1,1" size="4"/>
			<output>
				<port id="1" precision="FP32">
					<dim>1</dim>
					<dim>1</dim>
					<dim>1</dim>
					<dim>1</dim>
					<dim>1</dim>
				</port>
			</output>
		</layer>
		<layer id="209" name="453" type="Add" version="opset1">
			<input>
				<port id="0">
					<dim>1</dim>
					<dim>184</dim>
					<dim>8</dim>
					<dim>14</dim>
					<dim>14</dim>
				</port>
				<port id="1">
					<dim>1</dim>
					<dim>1</dim>
					<dim>1</dim>
					<dim>1</dim>
					<dim>1</dim>
				</port>
			</input>
			<output>
				<port id="2" precision="FP32">
					<dim>1</dim>
					<dim>184</dim>
					<dim>8</dim>
					<dim>14</dim>
					<dim>14</dim>
				</port>
			</output>
		</layer>
		<layer id="210" name="454" type="Clamp" version="opset1">
			<data max="6.0" min="0.0"/>
			<input>
				<port id="0">
					<dim>1</dim>
					<dim>184</dim>
					<dim>8</dim>
					<dim>14</dim>
					<dim>14</dim>
				</port>
			</input>
			<output>
				<port id="1" precision="FP32">
					<dim>1</dim>
					<dim>184</dim>
					<dim>8</dim>
					<dim>14</dim>
					<dim>14</dim>
				</port>
			</output>
		</layer>
		<layer id="211" name="456/mul_" type="Multiply" version="opset1">
			<input>
				<port id="0">
					<dim>1</dim>
					<dim>1</dim>
					<dim>1</dim>
					<dim>1</dim>
					<dim>1</dim>
				</port>
				<port id="1">
					<dim>1</dim>
					<dim>184</dim>
					<dim>8</dim>
					<dim>14</dim>
					<dim>14</dim>
				</port>
			</input>
			<output>
				<port id="2" precision="FP32">
					<dim>1</dim>
					<dim>184</dim>
					<dim>8</dim>
					<dim>14</dim>
					<dim>14</dim>
				</port>
			</output>
		</layer>
		<layer id="212" name="457" type="Multiply" version="opset1">
			<input>
				<port id="0">
					<dim>1</dim>
					<dim>184</dim>
					<dim>8</dim>
					<dim>14</dim>
					<dim>14</dim>
				</port>
				<port id="1">
					<dim>1</dim>
					<dim>184</dim>
					<dim>8</dim>
					<dim>14</dim>
					<dim>14</dim>
				</port>
			</input>
			<output>
				<port id="2" precision="FP32">
					<dim>1</dim>
					<dim>184</dim>
					<dim>8</dim>
					<dim>14</dim>
					<dim>14</dim>
				</port>
			</output>
		</layer>
		<layer id="213" name="Mul1_9440/Fused_Mul_1132511327_const" type="Const" version="opset1">
			<data element_type="f32" offset="1166552" shape="80,184,3,1,1" size="176640"/>
			<output>
				<port id="1" precision="FP32">
					<dim>80</dim>
					<dim>184</dim>
					<dim>3</dim>
					<dim>1</dim>
					<dim>1</dim>
				</port>
			</output>
		</layer>
		<layer id="214" name="458" type="Convolution" version="opset1">
			<data dilations="1,1,1" output_padding="0,0,0" pads_begin="1,0,0" pads_end="1,0,0" strides="1,1,1"/>
			<input>
				<port id="0">
					<dim>1</dim>
					<dim>184</dim>
					<dim>8</dim>
					<dim>14</dim>
					<dim>14</dim>
				</port>
				<port id="1">
					<dim>80</dim>
					<dim>184</dim>
					<dim>3</dim>
					<dim>1</dim>
					<dim>1</dim>
				</port>
			</input>
			<output>
				<port id="2" precision="FP32">
					<dim>1</dim>
					<dim>80</dim>
					<dim>8</dim>
					<dim>14</dim>
					<dim>14</dim>
				</port>
			</output>
		</layer>
		<layer id="215" name="data_add_1042910434/copy_const" type="Const" version="opset1">
			<data element_type="f32" offset="1343192" shape="1,80,1,1,1" size="320"/>
			<output>
				<port id="1" precision="FP32">
					<dim>1</dim>
					<dim>80</dim>
					<dim>1</dim>
					<dim>1</dim>
					<dim>1</dim>
				</port>
			</output>
		</layer>
		<layer id="216" name="Add1_9441/Fused_Add_" type="Add" version="opset1">
			<input>
				<port id="0">
					<dim>1</dim>
					<dim>80</dim>
					<dim>8</dim>
					<dim>14</dim>
					<dim>14</dim>
				</port>
				<port id="1">
					<dim>1</dim>
					<dim>80</dim>
					<dim>1</dim>
					<dim>1</dim>
					<dim>1</dim>
				</port>
			</input>
			<output>
				<port id="2" precision="FP32">
					<dim>1</dim>
					<dim>80</dim>
					<dim>8</dim>
					<dim>14</dim>
					<dim>14</dim>
				</port>
			</output>
		</layer>
		<layer id="217" name="460" type="Add" version="opset1">
			<input>
				<port id="0">
					<dim>1</dim>
					<dim>80</dim>
					<dim>8</dim>
					<dim>14</dim>
					<dim>14</dim>
				</port>
				<port id="1">
					<dim>1</dim>
					<dim>80</dim>
					<dim>8</dim>
					<dim>14</dim>
					<dim>14</dim>
				</port>
			</input>
			<output>
				<port id="2" precision="FP32">
					<dim>1</dim>
					<dim>80</dim>
					<dim>8</dim>
					<dim>14</dim>
					<dim>14</dim>
				</port>
			</output>
		</layer>
		<layer id="218" name="Mul1_9212/Fused_Mul_1132911331_const" type="Const" version="opset1">
			<data element_type="f32" offset="1343512" shape="184,80,1,1,1" size="58880"/>
			<output>
				<port id="1" precision="FP32">
					<dim>184</dim>
					<dim>80</dim>
					<dim>1</dim>
					<dim>1</dim>
					<dim>1</dim>
				</port>
			</output>
		</layer>
		<layer id="219" name="461" type="Convolution" version="opset1">
			<data dilations="1,1,1" output_padding="0,0,0" pads_begin="0,0,0" pads_end="0,0,0" strides="1,1,1"/>
			<input>
				<port id="0">
					<dim>1</dim>
					<dim>80</dim>
					<dim>8</dim>
					<dim>14</dim>
					<dim>14</dim>
				</port>
				<port id="1">
					<dim>184</dim>
					<dim>80</dim>
					<dim>1</dim>
					<dim>1</dim>
					<dim>1</dim>
				</port>
			</input>
			<output>
				<port id="2" precision="FP32">
					<dim>1</dim>
					<dim>184</dim>
					<dim>8</dim>
					<dim>14</dim>
					<dim>14</dim>
				</port>
			</output>
		</layer>
		<layer id="220" name="data_add_1043710442/copy_const" type="Const" version="opset1">
			<data element_type="f32" offset="1402392" shape="1,184,1,1,1" size="736"/>
			<output>
				<port id="1" precision="FP32">
					<dim>1</dim>
					<dim>184</dim>
					<dim>1</dim>
					<dim>1</dim>
					<dim>1</dim>
				</port>
			</output>
		</layer>
		<layer id="221" name="Add1_9213/Fused_Add_" type="Add" version="opset1">
			<input>
				<port id="0">
					<dim>1</dim>
					<dim>184</dim>
					<dim>8</dim>
					<dim>14</dim>
					<dim>14</dim>
				</port>
				<port id="1">
					<dim>1</dim>
					<dim>184</dim>
					<dim>1</dim>
					<dim>1</dim>
					<dim>1</dim>
				</port>
			</input>
			<output>
				<port id="2" precision="FP32">
					<dim>1</dim>
					<dim>184</dim>
					<dim>8</dim>
					<dim>14</dim>
					<dim>14</dim>
				</port>
			</output>
		</layer>
		<layer id="222" name="467/reciprocal_/Output_0/Data_/copy_const" type="Const" version="opset1">
			<data element_type="f32" offset="0" shape="1,1,1,1,1" size="4"/>
			<output>
				<port id="1" precision="FP32">
					<dim>1</dim>
					<dim>1</dim>
					<dim>1</dim>
					<dim>1</dim>
					<dim>1</dim>
				</port>
			</output>
		</layer>
		<layer id="223" name="463/Output_0/Data_/copy_const" type="Const" version="opset1">
			<data element_type="f32" offset="1820" shape="1,1,1,1,1" size="4"/>
			<output>
				<port id="1" precision="FP32">
					<dim>1</dim>
					<dim>1</dim>
					<dim>1</dim>
					<dim>1</dim>
					<dim>1</dim>
				</port>
			</output>
		</layer>
		<layer id="224" name="464" type="Add" version="opset1">
			<input>
				<port id="0">
					<dim>1</dim>
					<dim>184</dim>
					<dim>8</dim>
					<dim>14</dim>
					<dim>14</dim>
				</port>
				<port id="1">
					<dim>1</dim>
					<dim>1</dim>
					<dim>1</dim>
					<dim>1</dim>
					<dim>1</dim>
				</port>
			</input>
			<output>
				<port id="2" precision="FP32">
					<dim>1</dim>
					<dim>184</dim>
					<dim>8</dim>
					<dim>14</dim>
					<dim>14</dim>
				</port>
			</output>
		</layer>
		<layer id="225" name="465" type="Clamp" version="opset1">
			<data max="6.0" min="0.0"/>
			<input>
				<port id="0">
					<dim>1</dim>
					<dim>184</dim>
					<dim>8</dim>
					<dim>14</dim>
					<dim>14</dim>
				</port>
			</input>
			<output>
				<port id="1" precision="FP32">
					<dim>1</dim>
					<dim>184</dim>
					<dim>8</dim>
					<dim>14</dim>
					<dim>14</dim>
				</port>
			</output>
		</layer>
		<layer id="226" name="467/mul_" type="Multiply" version="opset1">
			<input>
				<port id="0">
					<dim>1</dim>
					<dim>1</dim>
					<dim>1</dim>
					<dim>1</dim>
					<dim>1</dim>
				</port>
				<port id="1">
					<dim>1</dim>
					<dim>184</dim>
					<dim>8</dim>
					<dim>14</dim>
					<dim>14</dim>
				</port>
			</input>
			<output>
				<port id="2" precision="FP32">
					<dim>1</dim>
					<dim>184</dim>
					<dim>8</dim>
					<dim>14</dim>
					<dim>14</dim>
				</port>
			</output>
		</layer>
		<layer id="227" name="468" type="Multiply" version="opset1">
			<input>
				<port id="0">
					<dim>1</dim>
					<dim>184</dim>
					<dim>8</dim>
					<dim>14</dim>
					<dim>14</dim>
				</port>
				<port id="1">
					<dim>1</dim>
					<dim>184</dim>
					<dim>8</dim>
					<dim>14</dim>
					<dim>14</dim>
				</port>
			</input>
			<output>
				<port id="2" precision="FP32">
					<dim>1</dim>
					<dim>184</dim>
					<dim>8</dim>
					<dim>14</dim>
					<dim>14</dim>
				</port>
			</output>
		</layer>
		<layer id="228" name="1742617429_const" type="Const" version="opset1">
			<data element_type="f32" offset="1403128" shape="184,1,1,1,3,3" size="6624"/>
			<output>
				<port id="1" precision="FP32">
					<dim>184</dim>
					<dim>1</dim>
					<dim>1</dim>
					<dim>1</dim>
					<dim>3</dim>
					<dim>3</dim>
				</port>
			</output>
		</layer>
		<layer id="229" name="469" type="GroupConvolution" version="opset1">
			<data dilations="1,1,1" output_padding="0,0,0" pads_begin="0,1,1" pads_end="0,1,1" strides="1,1,1"/>
			<input>
				<port id="0">
					<dim>1</dim>
					<dim>184</dim>
					<dim>8</dim>
					<dim>14</dim>
					<dim>14</dim>
				</port>
				<port id="1">
					<dim>184</dim>
					<dim>1</dim>
					<dim>1</dim>
					<dim>1</dim>
					<dim>3</dim>
					<dim>3</dim>
				</port>
			</input>
			<output>
				<port id="2" precision="FP32">
					<dim>1</dim>
					<dim>184</dim>
					<dim>8</dim>
					<dim>14</dim>
					<dim>14</dim>
				</port>
			</output>
		</layer>
		<layer id="230" name="data_add_1044510450/copy_const" type="Const" version="opset1">
			<data element_type="f32" offset="1409752" shape="1,184,1,1,1" size="736"/>
			<output>
				<port id="1" precision="FP32">
					<dim>1</dim>
					<dim>184</dim>
					<dim>1</dim>
					<dim>1</dim>
					<dim>1</dim>
				</port>
			</output>
		</layer>
		<layer id="231" name="Add1_9129/Fused_Add_" type="Add" version="opset1">
			<input>
				<port id="0">
					<dim>1</dim>
					<dim>184</dim>
					<dim>8</dim>
					<dim>14</dim>
					<dim>14</dim>
				</port>
				<port id="1">
					<dim>1</dim>
					<dim>184</dim>
					<dim>1</dim>
					<dim>1</dim>
					<dim>1</dim>
				</port>
			</input>
			<output>
				<port id="2" precision="FP32">
					<dim>1</dim>
					<dim>184</dim>
					<dim>8</dim>
					<dim>14</dim>
					<dim>14</dim>
				</port>
			</output>
		</layer>
		<layer id="232" name="475/reciprocal_/Output_0/Data_/copy_const" type="Const" version="opset1">
			<data element_type="f32" offset="0" shape="1,1,1,1,1" size="4"/>
			<output>
				<port id="1" precision="FP32">
					<dim>1</dim>
					<dim>1</dim>
					<dim>1</dim>
					<dim>1</dim>
					<dim>1</dim>
				</port>
			</output>
		</layer>
		<layer id="233" name="471/Output_0/Data_/copy_const" type="Const" version="opset1">
			<data element_type="f32" offset="1820" shape="1,1,1,1,1" size="4"/>
			<output>
				<port id="1" precision="FP32">
					<dim>1</dim>
					<dim>1</dim>
					<dim>1</dim>
					<dim>1</dim>
					<dim>1</dim>
				</port>
			</output>
		</layer>
		<layer id="234" name="472" type="Add" version="opset1">
			<input>
				<port id="0">
					<dim>1</dim>
					<dim>184</dim>
					<dim>8</dim>
					<dim>14</dim>
					<dim>14</dim>
				</port>
				<port id="1">
					<dim>1</dim>
					<dim>1</dim>
					<dim>1</dim>
					<dim>1</dim>
					<dim>1</dim>
				</port>
			</input>
			<output>
				<port id="2" precision="FP32">
					<dim>1</dim>
					<dim>184</dim>
					<dim>8</dim>
					<dim>14</dim>
					<dim>14</dim>
				</port>
			</output>
		</layer>
		<layer id="235" name="473" type="Clamp" version="opset1">
			<data max="6.0" min="0.0"/>
			<input>
				<port id="0">
					<dim>1</dim>
					<dim>184</dim>
					<dim>8</dim>
					<dim>14</dim>
					<dim>14</dim>
				</port>
			</input>
			<output>
				<port id="1" precision="FP32">
					<dim>1</dim>
					<dim>184</dim>
					<dim>8</dim>
					<dim>14</dim>
					<dim>14</dim>
				</port>
			</output>
		</layer>
		<layer id="236" name="475/mul_" type="Multiply" version="opset1">
			<input>
				<port id="0">
					<dim>1</dim>
					<dim>1</dim>
					<dim>1</dim>
					<dim>1</dim>
					<dim>1</dim>
				</port>
				<port id="1">
					<dim>1</dim>
					<dim>184</dim>
					<dim>8</dim>
					<dim>14</dim>
					<dim>14</dim>
				</port>
			</input>
			<output>
				<port id="2" precision="FP32">
					<dim>1</dim>
					<dim>184</dim>
					<dim>8</dim>
					<dim>14</dim>
					<dim>14</dim>
				</port>
			</output>
		</layer>
		<layer id="237" name="476" type="Multiply" version="opset1">
			<input>
				<port id="0">
					<dim>1</dim>
					<dim>184</dim>
					<dim>8</dim>
					<dim>14</dim>
					<dim>14</dim>
				</port>
				<port id="1">
					<dim>1</dim>
					<dim>184</dim>
					<dim>8</dim>
					<dim>14</dim>
					<dim>14</dim>
				</port>
			</input>
			<output>
				<port id="2" precision="FP32">
					<dim>1</dim>
					<dim>184</dim>
					<dim>8</dim>
					<dim>14</dim>
					<dim>14</dim>
				</port>
			</output>
		</layer>
		<layer id="238" name="Mul1_9056/Fused_Mul_1133711339_const" type="Const" version="opset1">
			<data element_type="f32" offset="1410488" shape="80,184,5,1,1" size="294400"/>
			<output>
				<port id="1" precision="FP32">
					<dim>80</dim>
					<dim>184</dim>
					<dim>5</dim>
					<dim>1</dim>
					<dim>1</dim>
				</port>
			</output>
		</layer>
		<layer id="239" name="477" type="Convolution" version="opset1">
			<data dilations="1,1,1" output_padding="0,0,0" pads_begin="2,0,0" pads_end="2,0,0" strides="1,1,1"/>
			<input>
				<port id="0">
					<dim>1</dim>
					<dim>184</dim>
					<dim>8</dim>
					<dim>14</dim>
					<dim>14</dim>
				</port>
				<port id="1">
					<dim>80</dim>
					<dim>184</dim>
					<dim>5</dim>
					<dim>1</dim>
					<dim>1</dim>
				</port>
			</input>
			<output>
				<port id="2" precision="FP32">
					<dim>1</dim>
					<dim>80</dim>
					<dim>8</dim>
					<dim>14</dim>
					<dim>14</dim>
				</port>
			</output>
		</layer>
		<layer id="240" name="data_add_1045310458/copy_const" type="Const" version="opset1">
			<data element_type="f32" offset="1704888" shape="1,80,1,1,1" size="320"/>
			<output>
				<port id="1" precision="FP32">
					<dim>1</dim>
					<dim>80</dim>
					<dim>1</dim>
					<dim>1</dim>
					<dim>1</dim>
				</port>
			</output>
		</layer>
		<layer id="241" name="Add1_9057/Fused_Add_" type="Add" version="opset1">
			<input>
				<port id="0">
					<dim>1</dim>
					<dim>80</dim>
					<dim>8</dim>
					<dim>14</dim>
					<dim>14</dim>
				</port>
				<port id="1">
					<dim>1</dim>
					<dim>80</dim>
					<dim>1</dim>
					<dim>1</dim>
					<dim>1</dim>
				</port>
			</input>
			<output>
				<port id="2" precision="FP32">
					<dim>1</dim>
					<dim>80</dim>
					<dim>8</dim>
					<dim>14</dim>
					<dim>14</dim>
				</port>
			</output>
		</layer>
		<layer id="242" name="479" type="Add" version="opset1">
			<input>
				<port id="0">
					<dim>1</dim>
					<dim>80</dim>
					<dim>8</dim>
					<dim>14</dim>
					<dim>14</dim>
				</port>
				<port id="1">
					<dim>1</dim>
					<dim>80</dim>
					<dim>8</dim>
					<dim>14</dim>
					<dim>14</dim>
				</port>
			</input>
			<output>
				<port id="2" precision="FP32">
					<dim>1</dim>
					<dim>80</dim>
					<dim>8</dim>
					<dim>14</dim>
					<dim>14</dim>
				</port>
			</output>
		</layer>
		<layer id="243" name="Mul1_9428/Fused_Mul_1134111343_const" type="Const" version="opset1">
			<data element_type="f32" offset="1705208" shape="480,80,1,1,1" size="153600"/>
			<output>
				<port id="1" precision="FP32">
					<dim>480</dim>
					<dim>80</dim>
					<dim>1</dim>
					<dim>1</dim>
					<dim>1</dim>
				</port>
			</output>
		</layer>
		<layer id="244" name="480" type="Convolution" version="opset1">
			<data dilations="1,1,1" output_padding="0,0,0" pads_begin="0,0,0" pads_end="0,0,0" strides="1,1,1"/>
			<input>
				<port id="0">
					<dim>1</dim>
					<dim>80</dim>
					<dim>8</dim>
					<dim>14</dim>
					<dim>14</dim>
				</port>
				<port id="1">
					<dim>480</dim>
					<dim>80</dim>
					<dim>1</dim>
					<dim>1</dim>
					<dim>1</dim>
				</port>
			</input>
			<output>
				<port id="2" precision="FP32">
					<dim>1</dim>
					<dim>480</dim>
					<dim>8</dim>
					<dim>14</dim>
					<dim>14</dim>
				</port>
			</output>
		</layer>
		<layer id="245" name="data_add_1046110466/copy_const" type="Const" version="opset1">
			<data element_type="f32" offset="1858808" shape="1,480,1,1,1" size="1920"/>
			<output>
				<port id="1" precision="FP32">
					<dim>1</dim>
					<dim>480</dim>
					<dim>1</dim>
					<dim>1</dim>
					<dim>1</dim>
				</port>
			</output>
		</layer>
		<layer id="246" name="Add1_9429/Fused_Add_" type="Add" version="opset1">
			<input>
				<port id="0">
					<dim>1</dim>
					<dim>480</dim>
					<dim>8</dim>
					<dim>14</dim>
					<dim>14</dim>
				</port>
				<port id="1">
					<dim>1</dim>
					<dim>480</dim>
					<dim>1</dim>
					<dim>1</dim>
					<dim>1</dim>
				</port>
			</input>
			<output>
				<port id="2" precision="FP32">
					<dim>1</dim>
					<dim>480</dim>
					<dim>8</dim>
					<dim>14</dim>
					<dim>14</dim>
				</port>
			</output>
		</layer>
		<layer id="247" name="486/reciprocal_/Output_0/Data_/copy_const" type="Const" version="opset1">
			<data element_type="f32" offset="0" shape="1,1,1,1,1" size="4"/>
			<output>
				<port id="1" precision="FP32">
					<dim>1</dim>
					<dim>1</dim>
					<dim>1</dim>
					<dim>1</dim>
					<dim>1</dim>
				</port>
			</output>
		</layer>
		<layer id="248" name="482/Output_0/Data_/copy_const" type="Const" version="opset1">
			<data element_type="f32" offset="1820" shape="1,1,1,1,1" size="4"/>
			<output>
				<port id="1" precision="FP32">
					<dim>1</dim>
					<dim>1</dim>
					<dim>1</dim>
					<dim>1</dim>
					<dim>1</dim>
				</port>
			</output>
		</layer>
		<layer id="249" name="483" type="Add" version="opset1">
			<input>
				<port id="0">
					<dim>1</dim>
					<dim>480</dim>
					<dim>8</dim>
					<dim>14</dim>
					<dim>14</dim>
				</port>
				<port id="1">
					<dim>1</dim>
					<dim>1</dim>
					<dim>1</dim>
					<dim>1</dim>
					<dim>1</dim>
				</port>
			</input>
			<output>
				<port id="2" precision="FP32">
					<dim>1</dim>
					<dim>480</dim>
					<dim>8</dim>
					<dim>14</dim>
					<dim>14</dim>
				</port>
			</output>
		</layer>
		<layer id="250" name="484" type="Clamp" version="opset1">
			<data max="6.0" min="0.0"/>
			<input>
				<port id="0">
					<dim>1</dim>
					<dim>480</dim>
					<dim>8</dim>
					<dim>14</dim>
					<dim>14</dim>
				</port>
			</input>
			<output>
				<port id="1" precision="FP32">
					<dim>1</dim>
					<dim>480</dim>
					<dim>8</dim>
					<dim>14</dim>
					<dim>14</dim>
				</port>
			</output>
		</layer>
		<layer id="251" name="486/mul_" type="Multiply" version="opset1">
			<input>
				<port id="0">
					<dim>1</dim>
					<dim>1</dim>
					<dim>1</dim>
					<dim>1</dim>
					<dim>1</dim>
				</port>
				<port id="1">
					<dim>1</dim>
					<dim>480</dim>
					<dim>8</dim>
					<dim>14</dim>
					<dim>14</dim>
				</port>
			</input>
			<output>
				<port id="2" precision="FP32">
					<dim>1</dim>
					<dim>480</dim>
					<dim>8</dim>
					<dim>14</dim>
					<dim>14</dim>
				</port>
			</output>
		</layer>
		<layer id="252" name="487" type="Multiply" version="opset1">
			<input>
				<port id="0">
					<dim>1</dim>
					<dim>480</dim>
					<dim>8</dim>
					<dim>14</dim>
					<dim>14</dim>
				</port>
				<port id="1">
					<dim>1</dim>
					<dim>480</dim>
					<dim>8</dim>
					<dim>14</dim>
					<dim>14</dim>
				</port>
			</input>
			<output>
				<port id="2" precision="FP32">
					<dim>1</dim>
					<dim>480</dim>
					<dim>8</dim>
					<dim>14</dim>
					<dim>14</dim>
				</port>
			</output>
		</layer>
		<layer id="253" name="1739017393_const" type="Const" version="opset1">
			<data element_type="f32" offset="1860728" shape="480,1,1,1,3,3" size="17280"/>
			<output>
				<port id="1" precision="FP32">
					<dim>480</dim>
					<dim>1</dim>
					<dim>1</dim>
					<dim>1</dim>
					<dim>3</dim>
					<dim>3</dim>
				</port>
			</output>
		</layer>
		<layer id="254" name="488" type="GroupConvolution" version="opset1">
			<data dilations="1,1,1" output_padding="0,0,0" pads_begin="0,1,1" pads_end="0,1,1" strides="1,1,1"/>
			<input>
				<port id="0">
					<dim>1</dim>
					<dim>480</dim>
					<dim>8</dim>
					<dim>14</dim>
					<dim>14</dim>
				</port>
				<port id="1">
					<dim>480</dim>
					<dim>1</dim>
					<dim>1</dim>
					<dim>1</dim>
					<dim>3</dim>
					<dim>3</dim>
				</port>
			</input>
			<output>
				<port id="2" precision="FP32">
					<dim>1</dim>
					<dim>480</dim>
					<dim>8</dim>
					<dim>14</dim>
					<dim>14</dim>
				</port>
			</output>
		</layer>
		<layer id="255" name="data_add_1046910474/copy_const" type="Const" version="opset1">
			<data element_type="f32" offset="1878008" shape="1,480,1,1,1" size="1920"/>
			<output>
				<port id="1" precision="FP32">
					<dim>1</dim>
					<dim>480</dim>
					<dim>1</dim>
					<dim>1</dim>
					<dim>1</dim>
				</port>
			</output>
		</layer>
		<layer id="256" name="Add1_9105/Fused_Add_" type="Add" version="opset1">
			<input>
				<port id="0">
					<dim>1</dim>
					<dim>480</dim>
					<dim>8</dim>
					<dim>14</dim>
					<dim>14</dim>
				</port>
				<port id="1">
					<dim>1</dim>
					<dim>480</dim>
					<dim>1</dim>
					<dim>1</dim>
					<dim>1</dim>
				</port>
			</input>
			<output>
				<port id="2" precision="FP32">
					<dim>1</dim>
					<dim>480</dim>
					<dim>8</dim>
					<dim>14</dim>
					<dim>14</dim>
				</port>
			</output>
		</layer>
		<layer id="257" name="491" type="AvgPool" version="opset1">
			<data exclude-pad="true" kernel="1,14,14" pads_begin="0,0,0" pads_end="0,0,0" rounding_type="floor" strides="1,1,1"/>
			<input>
				<port id="0">
					<dim>1</dim>
					<dim>480</dim>
					<dim>8</dim>
					<dim>14</dim>
					<dim>14</dim>
				</port>
			</input>
			<output>
				<port id="1" precision="FP32">
					<dim>1</dim>
					<dim>480</dim>
					<dim>8</dim>
					<dim>1</dim>
					<dim>1</dim>
				</port>
			</output>
		</layer>
		<layer id="258" name="onnx_initializer_node_backbone.features.11.conv.5.fc.0.weight/Output_0/Data__const" type="Const" version="opset1">
			<data element_type="f32" offset="1879928" shape="120,480,1,1,1" size="230400"/>
			<output>
				<port id="1" precision="FP32">
					<dim>120</dim>
					<dim>480</dim>
					<dim>1</dim>
					<dim>1</dim>
					<dim>1</dim>
				</port>
			</output>
		</layer>
		<layer id="259" name="492/WithoutBiases" type="Convolution" version="opset1">
			<data dilations="1,1,1" output_padding="0,0,0" pads_begin="0,0,0" pads_end="0,0,0" strides="1,1,1"/>
			<input>
				<port id="0">
					<dim>1</dim>
					<dim>480</dim>
					<dim>8</dim>
					<dim>1</dim>
					<dim>1</dim>
				</port>
				<port id="1">
					<dim>120</dim>
					<dim>480</dim>
					<dim>1</dim>
					<dim>1</dim>
					<dim>1</dim>
				</port>
			</input>
			<output>
				<port id="2" precision="FP32">
					<dim>1</dim>
					<dim>120</dim>
					<dim>8</dim>
					<dim>1</dim>
					<dim>1</dim>
				</port>
			</output>
		</layer>
		<layer id="260" name="492/Dims6351/copy_const" type="Const" version="opset1">
			<data element_type="f32" offset="2110328" shape="1,120,1,1,1" size="480"/>
			<output>
				<port id="1" precision="FP32">
					<dim>1</dim>
					<dim>120</dim>
					<dim>1</dim>
					<dim>1</dim>
					<dim>1</dim>
				</port>
			</output>
		</layer>
		<layer id="261" name="492" type="Add" version="opset1">
			<input>
				<port id="0">
					<dim>1</dim>
					<dim>120</dim>
					<dim>8</dim>
					<dim>1</dim>
					<dim>1</dim>
				</port>
				<port id="1">
					<dim>1</dim>
					<dim>120</dim>
					<dim>1</dim>
					<dim>1</dim>
					<dim>1</dim>
				</port>
			</input>
			<output>
				<port id="2" precision="FP32">
					<dim>1</dim>
					<dim>120</dim>
					<dim>8</dim>
					<dim>1</dim>
					<dim>1</dim>
				</port>
			</output>
		</layer>
		<layer id="262" name="493" type="ReLU" version="opset1">
			<input>
				<port id="0">
					<dim>1</dim>
					<dim>120</dim>
					<dim>8</dim>
					<dim>1</dim>
					<dim>1</dim>
				</port>
			</input>
			<output>
				<port id="1" precision="FP32">
					<dim>1</dim>
					<dim>120</dim>
					<dim>8</dim>
					<dim>1</dim>
					<dim>1</dim>
				</port>
			</output>
		</layer>
		<layer id="263" name="onnx_initializer_node_backbone.features.11.conv.5.fc.2.weight/Output_0/Data__const" type="Const" version="opset1">
			<data element_type="f32" offset="2110808" shape="480,120,1,1,1" size="230400"/>
			<output>
				<port id="1" precision="FP32">
					<dim>480</dim>
					<dim>120</dim>
					<dim>1</dim>
					<dim>1</dim>
					<dim>1</dim>
				</port>
			</output>
		</layer>
		<layer id="264" name="494/WithoutBiases" type="Convolution" version="opset1">
			<data dilations="1,1,1" output_padding="0,0,0" pads_begin="0,0,0" pads_end="0,0,0" strides="1,1,1"/>
			<input>
				<port id="0">
					<dim>1</dim>
					<dim>120</dim>
					<dim>8</dim>
					<dim>1</dim>
					<dim>1</dim>
				</port>
				<port id="1">
					<dim>480</dim>
					<dim>120</dim>
					<dim>1</dim>
					<dim>1</dim>
					<dim>1</dim>
				</port>
			</input>
			<output>
				<port id="2" precision="FP32">
					<dim>1</dim>
					<dim>480</dim>
					<dim>8</dim>
					<dim>1</dim>
					<dim>1</dim>
				</port>
			</output>
		</layer>
		<layer id="265" name="data_add_1047610478/copy_const" type="Const" version="opset1">
			<data element_type="f32" offset="2341208" shape="1,480,1,1,1" size="1920"/>
			<output>
				<port id="1" precision="FP32">
					<dim>1</dim>
					<dim>480</dim>
					<dim>1</dim>
					<dim>1</dim>
					<dim>1</dim>
				</port>
			</output>
		</layer>
		<layer id="266" name="494/Fused_Add_" type="Add" version="opset1">
			<input>
				<port id="0">
					<dim>1</dim>
					<dim>480</dim>
					<dim>8</dim>
					<dim>1</dim>
					<dim>1</dim>
				</port>
				<port id="1">
					<dim>1</dim>
					<dim>480</dim>
					<dim>1</dim>
					<dim>1</dim>
					<dim>1</dim>
				</port>
			</input>
			<output>
				<port id="2" precision="FP32">
					<dim>1</dim>
					<dim>480</dim>
					<dim>8</dim>
					<dim>1</dim>
					<dim>1</dim>
				</port>
			</output>
		</layer>
		<layer id="267" name="497" type="Clamp" version="opset1">
			<data max="6.0" min="0.0"/>
			<input>
				<port id="0">
					<dim>1</dim>
					<dim>480</dim>
					<dim>8</dim>
					<dim>1</dim>
					<dim>1</dim>
				</port>
			</input>
			<output>
				<port id="1" precision="FP32">
					<dim>1</dim>
					<dim>480</dim>
					<dim>8</dim>
					<dim>1</dim>
					<dim>1</dim>
				</port>
			</output>
		</layer>
		<layer id="268" name="499/mul_" type="Multiply" version="opset1">
			<input>
				<port id="0">
					<dim>1</dim>
					<dim>1</dim>
					<dim>1</dim>
					<dim>1</dim>
					<dim>1</dim>
				</port>
				<port id="1">
					<dim>1</dim>
					<dim>480</dim>
					<dim>8</dim>
					<dim>1</dim>
					<dim>1</dim>
				</port>
			</input>
			<output>
				<port id="2" precision="FP32">
					<dim>1</dim>
					<dim>480</dim>
					<dim>8</dim>
					<dim>1</dim>
					<dim>1</dim>
				</port>
			</output>
		</layer>
		<layer id="269" name="500" type="Multiply" version="opset1">
			<input>
				<port id="0">
					<dim>1</dim>
					<dim>480</dim>
					<dim>8</dim>
					<dim>1</dim>
					<dim>1</dim>
				</port>
				<port id="1">
					<dim>1</dim>
					<dim>480</dim>
					<dim>8</dim>
					<dim>14</dim>
					<dim>14</dim>
				</port>
			</input>
			<output>
				<port id="2" precision="FP32">
					<dim>1</dim>
					<dim>480</dim>
					<dim>8</dim>
					<dim>14</dim>
					<dim>14</dim>
				</port>
			</output>
		</layer>
		<layer id="270" name="505/reciprocal_/Output_0/Data_/copy_const" type="Const" version="opset1">
			<data element_type="f32" offset="0" shape="1,1,1,1,1" size="4"/>
			<output>
				<port id="1" precision="FP32">
					<dim>1</dim>
					<dim>1</dim>
					<dim>1</dim>
					<dim>1</dim>
					<dim>1</dim>
				</port>
			</output>
		</layer>
		<layer id="271" name="501/Output_0/Data_/copy_const" type="Const" version="opset1">
			<data element_type="f32" offset="1820" shape="1,1,1,1,1" size="4"/>
			<output>
				<port id="1" precision="FP32">
					<dim>1</dim>
					<dim>1</dim>
					<dim>1</dim>
					<dim>1</dim>
					<dim>1</dim>
				</port>
			</output>
		</layer>
		<layer id="272" name="502" type="Add" version="opset1">
			<input>
				<port id="0">
					<dim>1</dim>
					<dim>480</dim>
					<dim>8</dim>
					<dim>14</dim>
					<dim>14</dim>
				</port>
				<port id="1">
					<dim>1</dim>
					<dim>1</dim>
					<dim>1</dim>
					<dim>1</dim>
					<dim>1</dim>
				</port>
			</input>
			<output>
				<port id="2" precision="FP32">
					<dim>1</dim>
					<dim>480</dim>
					<dim>8</dim>
					<dim>14</dim>
					<dim>14</dim>
				</port>
			</output>
		</layer>
		<layer id="273" name="503" type="Clamp" version="opset1">
			<data max="6.0" min="0.0"/>
			<input>
				<port id="0">
					<dim>1</dim>
					<dim>480</dim>
					<dim>8</dim>
					<dim>14</dim>
					<dim>14</dim>
				</port>
			</input>
			<output>
				<port id="1" precision="FP32">
					<dim>1</dim>
					<dim>480</dim>
					<dim>8</dim>
					<dim>14</dim>
					<dim>14</dim>
				</port>
			</output>
		</layer>
		<layer id="274" name="505/mul_" type="Multiply" version="opset1">
			<input>
				<port id="0">
					<dim>1</dim>
					<dim>1</dim>
					<dim>1</dim>
					<dim>1</dim>
					<dim>1</dim>
				</port>
				<port id="1">
					<dim>1</dim>
					<dim>480</dim>
					<dim>8</dim>
					<dim>14</dim>
					<dim>14</dim>
				</port>
			</input>
			<output>
				<port id="2" precision="FP32">
					<dim>1</dim>
					<dim>480</dim>
					<dim>8</dim>
					<dim>14</dim>
					<dim>14</dim>
				</port>
			</output>
		</layer>
		<layer id="275" name="506" type="Multiply" version="opset1">
			<input>
				<port id="0">
					<dim>1</dim>
					<dim>480</dim>
					<dim>8</dim>
					<dim>14</dim>
					<dim>14</dim>
				</port>
				<port id="1">
					<dim>1</dim>
					<dim>480</dim>
					<dim>8</dim>
					<dim>14</dim>
					<dim>14</dim>
				</port>
			</input>
			<output>
				<port id="2" precision="FP32">
					<dim>1</dim>
					<dim>480</dim>
					<dim>8</dim>
					<dim>14</dim>
					<dim>14</dim>
				</port>
			</output>
		</layer>
		<layer id="276" name="Mul1_9200/Fused_Mul_1134911351_const" type="Const" version="opset1">
			<data element_type="f32" offset="2343128" shape="112,480,3,1,1" size="645120"/>
			<output>
				<port id="1" precision="FP32">
					<dim>112</dim>
					<dim>480</dim>
					<dim>3</dim>
					<dim>1</dim>
					<dim>1</dim>
				</port>
			</output>
		</layer>
		<layer id="277" name="507" type="Convolution" version="opset1">
			<data dilations="1,1,1" output_padding="0,0,0" pads_begin="1,0,0" pads_end="1,0,0" strides="1,1,1"/>
			<input>
				<port id="0">
					<dim>1</dim>
					<dim>480</dim>
					<dim>8</dim>
					<dim>14</dim>
					<dim>14</dim>
				</port>
				<port id="1">
					<dim>112</dim>
					<dim>480</dim>
					<dim>3</dim>
					<dim>1</dim>
					<dim>1</dim>
				</port>
			</input>
			<output>
				<port id="2" precision="FP32">
					<dim>1</dim>
					<dim>112</dim>
					<dim>8</dim>
					<dim>14</dim>
					<dim>14</dim>
				</port>
			</output>
		</layer>
		<layer id="278" name="data_add_1048110486/copy_const" type="Const" version="opset1">
			<data element_type="f32" offset="2988248" shape="1,112,1,1,1" size="448"/>
			<output>
				<port id="1" precision="FP32">
					<dim>1</dim>
					<dim>112</dim>
					<dim>1</dim>
					<dim>1</dim>
					<dim>1</dim>
				</port>
			</output>
		</layer>
		<layer id="279" name="Add1_9201/Fused_Add_" type="Add" version="opset1">
			<input>
				<port id="0">
					<dim>1</dim>
					<dim>112</dim>
					<dim>8</dim>
					<dim>14</dim>
					<dim>14</dim>
				</port>
				<port id="1">
					<dim>1</dim>
					<dim>112</dim>
					<dim>1</dim>
					<dim>1</dim>
					<dim>1</dim>
				</port>
			</input>
			<output>
				<port id="2" precision="FP32">
					<dim>1</dim>
					<dim>112</dim>
					<dim>8</dim>
					<dim>14</dim>
					<dim>14</dim>
				</port>
			</output>
		</layer>
		<layer id="280" name="510" type="AvgPool" version="opset1">
			<data exclude-pad="true" kernel="2,1,1" pads_begin="0,0,0" pads_end="0,0,0" rounding_type="floor" strides="2,1,1"/>
			<input>
				<port id="0">
					<dim>1</dim>
					<dim>112</dim>
					<dim>8</dim>
					<dim>14</dim>
					<dim>14</dim>
				</port>
			</input>
			<output>
				<port id="1" precision="FP32">
					<dim>1</dim>
					<dim>112</dim>
					<dim>4</dim>
					<dim>14</dim>
					<dim>14</dim>
				</port>
			</output>
		</layer>
		<layer id="281" name="530/reciprocal_/Output_0/Data_/copy_const" type="Const" version="opset1">
			<data element_type="f32" offset="0" shape="1,1,1,1,1" size="4"/>
			<output>
				<port id="1" precision="FP32">
					<dim>1</dim>
					<dim>1</dim>
					<dim>1</dim>
					<dim>1</dim>
					<dim>1</dim>
				</port>
			</output>
		</layer>
		<layer id="282" name="Mul1_9452/Fused_Mul_1135311355_const" type="Const" version="opset1">
			<data element_type="f32" offset="2988696" shape="672,112,1,1,1" size="301056"/>
			<output>
				<port id="1" precision="FP32">
					<dim>672</dim>
					<dim>112</dim>
					<dim>1</dim>
					<dim>1</dim>
					<dim>1</dim>
				</port>
			</output>
		</layer>
		<layer id="283" name="511" type="Convolution" version="opset1">
			<data dilations="1,1,1" output_padding="0,0,0" pads_begin="0,0,0" pads_end="0,0,0" strides="1,1,1"/>
			<input>
				<port id="0">
					<dim>1</dim>
					<dim>112</dim>
					<dim>4</dim>
					<dim>14</dim>
					<dim>14</dim>
				</port>
				<port id="1">
					<dim>672</dim>
					<dim>112</dim>
					<dim>1</dim>
					<dim>1</dim>
					<dim>1</dim>
				</port>
			</input>
			<output>
				<port id="2" precision="FP32">
					<dim>1</dim>
					<dim>672</dim>
					<dim>4</dim>
					<dim>14</dim>
					<dim>14</dim>
				</port>
			</output>
		</layer>
		<layer id="284" name="data_add_1048910494/copy_const" type="Const" version="opset1">
			<data element_type="f32" offset="3289752" shape="1,672,1,1,1" size="2688"/>
			<output>
				<port id="1" precision="FP32">
					<dim>1</dim>
					<dim>672</dim>
					<dim>1</dim>
					<dim>1</dim>
					<dim>1</dim>
				</port>
			</output>
		</layer>
		<layer id="285" name="Add1_9453/Fused_Add_" type="Add" version="opset1">
			<input>
				<port id="0">
					<dim>1</dim>
					<dim>672</dim>
					<dim>4</dim>
					<dim>14</dim>
					<dim>14</dim>
				</port>
				<port id="1">
					<dim>1</dim>
					<dim>672</dim>
					<dim>1</dim>
					<dim>1</dim>
					<dim>1</dim>
				</port>
			</input>
			<output>
				<port id="2" precision="FP32">
					<dim>1</dim>
					<dim>672</dim>
					<dim>4</dim>
					<dim>14</dim>
					<dim>14</dim>
				</port>
			</output>
		</layer>
		<layer id="286" name="517/reciprocal_/Output_0/Data_/copy_const" type="Const" version="opset1">
			<data element_type="f32" offset="0" shape="1,1,1,1,1" size="4"/>
			<output>
				<port id="1" precision="FP32">
					<dim>1</dim>
					<dim>1</dim>
					<dim>1</dim>
					<dim>1</dim>
					<dim>1</dim>
				</port>
			</output>
		</layer>
		<layer id="287" name="513/Output_0/Data_/copy_const" type="Const" version="opset1">
			<data element_type="f32" offset="1820" shape="1,1,1,1,1" size="4"/>
			<output>
				<port id="1" precision="FP32">
					<dim>1</dim>
					<dim>1</dim>
					<dim>1</dim>
					<dim>1</dim>
					<dim>1</dim>
				</port>
			</output>
		</layer>
		<layer id="288" name="514" type="Add" version="opset1">
			<input>
				<port id="0">
					<dim>1</dim>
					<dim>672</dim>
					<dim>4</dim>
					<dim>14</dim>
					<dim>14</dim>
				</port>
				<port id="1">
					<dim>1</dim>
					<dim>1</dim>
					<dim>1</dim>
					<dim>1</dim>
					<dim>1</dim>
				</port>
			</input>
			<output>
				<port id="2" precision="FP32">
					<dim>1</dim>
					<dim>672</dim>
					<dim>4</dim>
					<dim>14</dim>
					<dim>14</dim>
				</port>
			</output>
		</layer>
		<layer id="289" name="515" type="Clamp" version="opset1">
			<data max="6.0" min="0.0"/>
			<input>
				<port id="0">
					<dim>1</dim>
					<dim>672</dim>
					<dim>4</dim>
					<dim>14</dim>
					<dim>14</dim>
				</port>
			</input>
			<output>
				<port id="1" precision="FP32">
					<dim>1</dim>
					<dim>672</dim>
					<dim>4</dim>
					<dim>14</dim>
					<dim>14</dim>
				</port>
			</output>
		</layer>
		<layer id="290" name="517/mul_" type="Multiply" version="opset1">
			<input>
				<port id="0">
					<dim>1</dim>
					<dim>1</dim>
					<dim>1</dim>
					<dim>1</dim>
					<dim>1</dim>
				</port>
				<port id="1">
					<dim>1</dim>
					<dim>672</dim>
					<dim>4</dim>
					<dim>14</dim>
					<dim>14</dim>
				</port>
			</input>
			<output>
				<port id="2" precision="FP32">
					<dim>1</dim>
					<dim>672</dim>
					<dim>4</dim>
					<dim>14</dim>
					<dim>14</dim>
				</port>
			</output>
		</layer>
		<layer id="291" name="518" type="Multiply" version="opset1">
			<input>
				<port id="0">
					<dim>1</dim>
					<dim>672</dim>
					<dim>4</dim>
					<dim>14</dim>
					<dim>14</dim>
				</port>
				<port id="1">
					<dim>1</dim>
					<dim>672</dim>
					<dim>4</dim>
					<dim>14</dim>
					<dim>14</dim>
				</port>
			</input>
			<output>
				<port id="2" precision="FP32">
					<dim>1</dim>
					<dim>672</dim>
					<dim>4</dim>
					<dim>14</dim>
					<dim>14</dim>
				</port>
			</output>
		</layer>
		<layer id="292" name="1740617409_const" type="Const" version="opset1">
			<data element_type="f32" offset="3292440" shape="672,1,1,1,3,3" size="24192"/>
			<output>
				<port id="1" precision="FP32">
					<dim>672</dim>
					<dim>1</dim>
					<dim>1</dim>
					<dim>1</dim>
					<dim>3</dim>
					<dim>3</dim>
				</port>
			</output>
		</layer>
		<layer id="293" name="519" type="GroupConvolution" version="opset1">
			<data dilations="1,1,1" output_padding="0,0,0" pads_begin="0,1,1" pads_end="0,1,1" strides="1,1,1"/>
			<input>
				<port id="0">
					<dim>1</dim>
					<dim>672</dim>
					<dim>4</dim>
					<dim>14</dim>
					<dim>14</dim>
				</port>
				<port id="1">
					<dim>672</dim>
					<dim>1</dim>
					<dim>1</dim>
					<dim>1</dim>
					<dim>3</dim>
					<dim>3</dim>
				</port>
			</input>
			<output>
				<port id="2" precision="FP32">
					<dim>1</dim>
					<dim>672</dim>
					<dim>4</dim>
					<dim>14</dim>
					<dim>14</dim>
				</port>
			</output>
		</layer>
		<layer id="294" name="data_add_1049710502/copy_const" type="Const" version="opset1">
			<data element_type="f32" offset="3316632" shape="1,672,1,1,1" size="2688"/>
			<output>
				<port id="1" precision="FP32">
					<dim>1</dim>
					<dim>672</dim>
					<dim>1</dim>
					<dim>1</dim>
					<dim>1</dim>
				</port>
			</output>
		</layer>
		<layer id="295" name="Add1_9357/Fused_Add_" type="Add" version="opset1">
			<input>
				<port id="0">
					<dim>1</dim>
					<dim>672</dim>
					<dim>4</dim>
					<dim>14</dim>
					<dim>14</dim>
				</port>
				<port id="1">
					<dim>1</dim>
					<dim>672</dim>
					<dim>1</dim>
					<dim>1</dim>
					<dim>1</dim>
				</port>
			</input>
			<output>
				<port id="2" precision="FP32">
					<dim>1</dim>
					<dim>672</dim>
					<dim>4</dim>
					<dim>14</dim>
					<dim>14</dim>
				</port>
			</output>
		</layer>
		<layer id="296" name="522" type="AvgPool" version="opset1">
			<data exclude-pad="true" kernel="1,14,14" pads_begin="0,0,0" pads_end="0,0,0" rounding_type="floor" strides="1,1,1"/>
			<input>
				<port id="0">
					<dim>1</dim>
					<dim>672</dim>
					<dim>4</dim>
					<dim>14</dim>
					<dim>14</dim>
				</port>
			</input>
			<output>
				<port id="1" precision="FP32">
					<dim>1</dim>
					<dim>672</dim>
					<dim>4</dim>
					<dim>1</dim>
					<dim>1</dim>
				</port>
			</output>
		</layer>
		<layer id="297" name="onnx_initializer_node_backbone.features.12.conv.5.fc.0.weight/Output_0/Data__const" type="Const" version="opset1">
			<data element_type="f32" offset="3319320" shape="168,672,1,1,1" size="451584"/>
			<output>
				<port id="1" precision="FP32">
					<dim>168</dim>
					<dim>672</dim>
					<dim>1</dim>
					<dim>1</dim>
					<dim>1</dim>
				</port>
			</output>
		</layer>
		<layer id="298" name="523/WithoutBiases" type="Convolution" version="opset1">
			<data dilations="1,1,1" output_padding="0,0,0" pads_begin="0,0,0" pads_end="0,0,0" strides="1,1,1"/>
			<input>
				<port id="0">
					<dim>1</dim>
					<dim>672</dim>
					<dim>4</dim>
					<dim>1</dim>
					<dim>1</dim>
				</port>
				<port id="1">
					<dim>168</dim>
					<dim>672</dim>
					<dim>1</dim>
					<dim>1</dim>
					<dim>1</dim>
				</port>
			</input>
			<output>
				<port id="2" precision="FP32">
					<dim>1</dim>
					<dim>168</dim>
					<dim>4</dim>
					<dim>1</dim>
					<dim>1</dim>
				</port>
			</output>
		</layer>
		<layer id="299" name="523/Dims6339/copy_const" type="Const" version="opset1">
			<data element_type="f32" offset="3770904" shape="1,168,1,1,1" size="672"/>
			<output>
				<port id="1" precision="FP32">
					<dim>1</dim>
					<dim>168</dim>
					<dim>1</dim>
					<dim>1</dim>
					<dim>1</dim>
				</port>
			</output>
		</layer>
		<layer id="300" name="523" type="Add" version="opset1">
			<input>
				<port id="0">
					<dim>1</dim>
					<dim>168</dim>
					<dim>4</dim>
					<dim>1</dim>
					<dim>1</dim>
				</port>
				<port id="1">
					<dim>1</dim>
					<dim>168</dim>
					<dim>1</dim>
					<dim>1</dim>
					<dim>1</dim>
				</port>
			</input>
			<output>
				<port id="2" precision="FP32">
					<dim>1</dim>
					<dim>168</dim>
					<dim>4</dim>
					<dim>1</dim>
					<dim>1</dim>
				</port>
			</output>
		</layer>
		<layer id="301" name="524" type="ReLU" version="opset1">
			<input>
				<port id="0">
					<dim>1</dim>
					<dim>168</dim>
					<dim>4</dim>
					<dim>1</dim>
					<dim>1</dim>
				</port>
			</input>
			<output>
				<port id="1" precision="FP32">
					<dim>1</dim>
					<dim>168</dim>
					<dim>4</dim>
					<dim>1</dim>
					<dim>1</dim>
				</port>
			</output>
		</layer>
		<layer id="302" name="onnx_initializer_node_backbone.features.12.conv.5.fc.2.weight/Output_0/Data__const" type="Const" version="opset1">
			<data element_type="f32" offset="3771576" shape="672,168,1,1,1" size="451584"/>
			<output>
				<port id="1" precision="FP32">
					<dim>672</dim>
					<dim>168</dim>
					<dim>1</dim>
					<dim>1</dim>
					<dim>1</dim>
				</port>
			</output>
		</layer>
		<layer id="303" name="525/WithoutBiases" type="Convolution" version="opset1">
			<data dilations="1,1,1" output_padding="0,0,0" pads_begin="0,0,0" pads_end="0,0,0" strides="1,1,1"/>
			<input>
				<port id="0">
					<dim>1</dim>
					<dim>168</dim>
					<dim>4</dim>
					<dim>1</dim>
					<dim>1</dim>
				</port>
				<port id="1">
					<dim>672</dim>
					<dim>168</dim>
					<dim>1</dim>
					<dim>1</dim>
					<dim>1</dim>
				</port>
			</input>
			<output>
				<port id="2" precision="FP32">
					<dim>1</dim>
					<dim>672</dim>
					<dim>4</dim>
					<dim>1</dim>
					<dim>1</dim>
				</port>
			</output>
		</layer>
		<layer id="304" name="data_add_1050410506/copy_const" type="Const" version="opset1">
			<data element_type="f32" offset="4223160" shape="1,672,1,1,1" size="2688"/>
			<output>
				<port id="1" precision="FP32">
					<dim>1</dim>
					<dim>672</dim>
					<dim>1</dim>
					<dim>1</dim>
					<dim>1</dim>
				</port>
			</output>
		</layer>
		<layer id="305" name="525/Fused_Add_" type="Add" version="opset1">
			<input>
				<port id="0">
					<dim>1</dim>
					<dim>672</dim>
					<dim>4</dim>
					<dim>1</dim>
					<dim>1</dim>
				</port>
				<port id="1">
					<dim>1</dim>
					<dim>672</dim>
					<dim>1</dim>
					<dim>1</dim>
					<dim>1</dim>
				</port>
			</input>
			<output>
				<port id="2" precision="FP32">
					<dim>1</dim>
					<dim>672</dim>
					<dim>4</dim>
					<dim>1</dim>
					<dim>1</dim>
				</port>
			</output>
		</layer>
		<layer id="306" name="528" type="Clamp" version="opset1">
			<data max="6.0" min="0.0"/>
			<input>
				<port id="0">
					<dim>1</dim>
					<dim>672</dim>
					<dim>4</dim>
					<dim>1</dim>
					<dim>1</dim>
				</port>
			</input>
			<output>
				<port id="1" precision="FP32">
					<dim>1</dim>
					<dim>672</dim>
					<dim>4</dim>
					<dim>1</dim>
					<dim>1</dim>
				</port>
			</output>
		</layer>
		<layer id="307" name="530/mul_" type="Multiply" version="opset1">
			<input>
				<port id="0">
					<dim>1</dim>
					<dim>1</dim>
					<dim>1</dim>
					<dim>1</dim>
					<dim>1</dim>
				</port>
				<port id="1">
					<dim>1</dim>
					<dim>672</dim>
					<dim>4</dim>
					<dim>1</dim>
					<dim>1</dim>
				</port>
			</input>
			<output>
				<port id="2" precision="FP32">
					<dim>1</dim>
					<dim>672</dim>
					<dim>4</dim>
					<dim>1</dim>
					<dim>1</dim>
				</port>
			</output>
		</layer>
		<layer id="308" name="531" type="Multiply" version="opset1">
			<input>
				<port id="0">
					<dim>1</dim>
					<dim>672</dim>
					<dim>4</dim>
					<dim>1</dim>
					<dim>1</dim>
				</port>
				<port id="1">
					<dim>1</dim>
					<dim>672</dim>
					<dim>4</dim>
					<dim>14</dim>
					<dim>14</dim>
				</port>
			</input>
			<output>
				<port id="2" precision="FP32">
					<dim>1</dim>
					<dim>672</dim>
					<dim>4</dim>
					<dim>14</dim>
					<dim>14</dim>
				</port>
			</output>
		</layer>
		<layer id="309" name="536/reciprocal_/Output_0/Data_/copy_const" type="Const" version="opset1">
			<data element_type="f32" offset="0" shape="1,1,1,1,1" size="4"/>
			<output>
				<port id="1" precision="FP32">
					<dim>1</dim>
					<dim>1</dim>
					<dim>1</dim>
					<dim>1</dim>
					<dim>1</dim>
				</port>
			</output>
		</layer>
		<layer id="310" name="532/Output_0/Data_/copy_const" type="Const" version="opset1">
			<data element_type="f32" offset="1820" shape="1,1,1,1,1" size="4"/>
			<output>
				<port id="1" precision="FP32">
					<dim>1</dim>
					<dim>1</dim>
					<dim>1</dim>
					<dim>1</dim>
					<dim>1</dim>
				</port>
			</output>
		</layer>
		<layer id="311" name="533" type="Add" version="opset1">
			<input>
				<port id="0">
					<dim>1</dim>
					<dim>672</dim>
					<dim>4</dim>
					<dim>14</dim>
					<dim>14</dim>
				</port>
				<port id="1">
					<dim>1</dim>
					<dim>1</dim>
					<dim>1</dim>
					<dim>1</dim>
					<dim>1</dim>
				</port>
			</input>
			<output>
				<port id="2" precision="FP32">
					<dim>1</dim>
					<dim>672</dim>
					<dim>4</dim>
					<dim>14</dim>
					<dim>14</dim>
				</port>
			</output>
		</layer>
		<layer id="312" name="534" type="Clamp" version="opset1">
			<data max="6.0" min="0.0"/>
			<input>
				<port id="0">
					<dim>1</dim>
					<dim>672</dim>
					<dim>4</dim>
					<dim>14</dim>
					<dim>14</dim>
				</port>
			</input>
			<output>
				<port id="1" precision="FP32">
					<dim>1</dim>
					<dim>672</dim>
					<dim>4</dim>
					<dim>14</dim>
					<dim>14</dim>
				</port>
			</output>
		</layer>
		<layer id="313" name="536/mul_" type="Multiply" version="opset1">
			<input>
				<port id="0">
					<dim>1</dim>
					<dim>1</dim>
					<dim>1</dim>
					<dim>1</dim>
					<dim>1</dim>
				</port>
				<port id="1">
					<dim>1</dim>
					<dim>672</dim>
					<dim>4</dim>
					<dim>14</dim>
					<dim>14</dim>
				</port>
			</input>
			<output>
				<port id="2" precision="FP32">
					<dim>1</dim>
					<dim>672</dim>
					<dim>4</dim>
					<dim>14</dim>
					<dim>14</dim>
				</port>
			</output>
		</layer>
		<layer id="314" name="537" type="Multiply" version="opset1">
			<input>
				<port id="0">
					<dim>1</dim>
					<dim>672</dim>
					<dim>4</dim>
					<dim>14</dim>
					<dim>14</dim>
				</port>
				<port id="1">
					<dim>1</dim>
					<dim>672</dim>
					<dim>4</dim>
					<dim>14</dim>
					<dim>14</dim>
				</port>
			</input>
			<output>
				<port id="2" precision="FP32">
					<dim>1</dim>
					<dim>672</dim>
					<dim>4</dim>
					<dim>14</dim>
					<dim>14</dim>
				</port>
			</output>
		</layer>
		<layer id="315" name="Mul1_/Fused_Mul_1136111363_const" type="Const" version="opset1">
			<data element_type="f32" offset="4225848" shape="112,672,3,1,1" size="903168"/>
			<output>
				<port id="1" precision="FP32">
					<dim>112</dim>
					<dim>672</dim>
					<dim>3</dim>
					<dim>1</dim>
					<dim>1</dim>
				</port>
			</output>
		</layer>
		<layer id="316" name="538" type="Convolution" version="opset1">
			<data dilations="1,1,1" output_padding="0,0,0" pads_begin="1,0,0" pads_end="1,0,0" strides="1,1,1"/>
			<input>
				<port id="0">
					<dim>1</dim>
					<dim>672</dim>
					<dim>4</dim>
					<dim>14</dim>
					<dim>14</dim>
				</port>
				<port id="1">
					<dim>112</dim>
					<dim>672</dim>
					<dim>3</dim>
					<dim>1</dim>
					<dim>1</dim>
				</port>
			</input>
			<output>
				<port id="2" precision="FP32">
					<dim>1</dim>
					<dim>112</dim>
					<dim>4</dim>
					<dim>14</dim>
					<dim>14</dim>
				</port>
			</output>
		</layer>
		<layer id="317" name="data_add_1050910514/copy_const" type="Const" version="opset1">
			<data element_type="f32" offset="5129016" shape="1,112,1,1,1" size="448"/>
			<output>
				<port id="1" precision="FP32">
					<dim>1</dim>
					<dim>112</dim>
					<dim>1</dim>
					<dim>1</dim>
					<dim>1</dim>
				</port>
			</output>
		</layer>
		<layer id="318" name="Add1_/Fused_Add_" type="Add" version="opset1">
			<input>
				<port id="0">
					<dim>1</dim>
					<dim>112</dim>
					<dim>4</dim>
					<dim>14</dim>
					<dim>14</dim>
				</port>
				<port id="1">
					<dim>1</dim>
					<dim>112</dim>
					<dim>1</dim>
					<dim>1</dim>
					<dim>1</dim>
				</port>
			</input>
			<output>
				<port id="2" precision="FP32">
					<dim>1</dim>
					<dim>112</dim>
					<dim>4</dim>
					<dim>14</dim>
					<dim>14</dim>
				</port>
			</output>
		</layer>
		<layer id="319" name="540" type="Add" version="opset1">
			<input>
				<port id="0">
					<dim>1</dim>
					<dim>112</dim>
					<dim>4</dim>
					<dim>14</dim>
					<dim>14</dim>
				</port>
				<port id="1">
					<dim>1</dim>
					<dim>112</dim>
					<dim>4</dim>
					<dim>14</dim>
					<dim>14</dim>
				</port>
			</input>
			<output>
				<port id="2" precision="FP32">
					<dim>1</dim>
					<dim>112</dim>
					<dim>4</dim>
					<dim>14</dim>
					<dim>14</dim>
				</port>
			</output>
		</layer>
		<layer id="320" name="Mul1_9272/Fused_Mul_1136511367_const" type="Const" version="opset1">
			<data element_type="f32" offset="5129464" shape="672,112,1,1,1" size="301056"/>
			<output>
				<port id="1" precision="FP32">
					<dim>672</dim>
					<dim>112</dim>
					<dim>1</dim>
					<dim>1</dim>
					<dim>1</dim>
				</port>
			</output>
		</layer>
		<layer id="321" name="541" type="Convolution" version="opset1">
			<data dilations="1,1,1" output_padding="0,0,0" pads_begin="0,0,0" pads_end="0,0,0" strides="1,1,1"/>
			<input>
				<port id="0">
					<dim>1</dim>
					<dim>112</dim>
					<dim>4</dim>
					<dim>14</dim>
					<dim>14</dim>
				</port>
				<port id="1">
					<dim>672</dim>
					<dim>112</dim>
					<dim>1</dim>
					<dim>1</dim>
					<dim>1</dim>
				</port>
			</input>
			<output>
				<port id="2" precision="FP32">
					<dim>1</dim>
					<dim>672</dim>
					<dim>4</dim>
					<dim>14</dim>
					<dim>14</dim>
				</port>
			</output>
		</layer>
		<layer id="322" name="data_add_1051710522/copy_const" type="Const" version="opset1">
			<data element_type="f32" offset="5430520" shape="1,672,1,1,1" size="2688"/>
			<output>
				<port id="1" precision="FP32">
					<dim>1</dim>
					<dim>672</dim>
					<dim>1</dim>
					<dim>1</dim>
					<dim>1</dim>
				</port>
			</output>
		</layer>
		<layer id="323" name="Add1_9273/Fused_Add_" type="Add" version="opset1">
			<input>
				<port id="0">
					<dim>1</dim>
					<dim>672</dim>
					<dim>4</dim>
					<dim>14</dim>
					<dim>14</dim>
				</port>
				<port id="1">
					<dim>1</dim>
					<dim>672</dim>
					<dim>1</dim>
					<dim>1</dim>
					<dim>1</dim>
				</port>
			</input>
			<output>
				<port id="2" precision="FP32">
					<dim>1</dim>
					<dim>672</dim>
					<dim>4</dim>
					<dim>14</dim>
					<dim>14</dim>
				</port>
			</output>
		</layer>
		<layer id="324" name="547/reciprocal_/Output_0/Data_/copy_const" type="Const" version="opset1">
			<data element_type="f32" offset="0" shape="1,1,1,1,1" size="4"/>
			<output>
				<port id="1" precision="FP32">
					<dim>1</dim>
					<dim>1</dim>
					<dim>1</dim>
					<dim>1</dim>
					<dim>1</dim>
				</port>
			</output>
		</layer>
		<layer id="325" name="543/Output_0/Data_/copy_const" type="Const" version="opset1">
			<data element_type="f32" offset="1820" shape="1,1,1,1,1" size="4"/>
			<output>
				<port id="1" precision="FP32">
					<dim>1</dim>
					<dim>1</dim>
					<dim>1</dim>
					<dim>1</dim>
					<dim>1</dim>
				</port>
			</output>
		</layer>
		<layer id="326" name="544" type="Add" version="opset1">
			<input>
				<port id="0">
					<dim>1</dim>
					<dim>672</dim>
					<dim>4</dim>
					<dim>14</dim>
					<dim>14</dim>
				</port>
				<port id="1">
					<dim>1</dim>
					<dim>1</dim>
					<dim>1</dim>
					<dim>1</dim>
					<dim>1</dim>
				</port>
			</input>
			<output>
				<port id="2" precision="FP32">
					<dim>1</dim>
					<dim>672</dim>
					<dim>4</dim>
					<dim>14</dim>
					<dim>14</dim>
				</port>
			</output>
		</layer>
		<layer id="327" name="545" type="Clamp" version="opset1">
			<data max="6.0" min="0.0"/>
			<input>
				<port id="0">
					<dim>1</dim>
					<dim>672</dim>
					<dim>4</dim>
					<dim>14</dim>
					<dim>14</dim>
				</port>
			</input>
			<output>
				<port id="1" precision="FP32">
					<dim>1</dim>
					<dim>672</dim>
					<dim>4</dim>
					<dim>14</dim>
					<dim>14</dim>
				</port>
			</output>
		</layer>
		<layer id="328" name="547/mul_" type="Multiply" version="opset1">
			<input>
				<port id="0">
					<dim>1</dim>
					<dim>1</dim>
					<dim>1</dim>
					<dim>1</dim>
					<dim>1</dim>
				</port>
				<port id="1">
					<dim>1</dim>
					<dim>672</dim>
					<dim>4</dim>
					<dim>14</dim>
					<dim>14</dim>
				</port>
			</input>
			<output>
				<port id="2" precision="FP32">
					<dim>1</dim>
					<dim>672</dim>
					<dim>4</dim>
					<dim>14</dim>
					<dim>14</dim>
				</port>
			</output>
		</layer>
		<layer id="329" name="548" type="Multiply" version="opset1">
			<input>
				<port id="0">
					<dim>1</dim>
					<dim>672</dim>
					<dim>4</dim>
					<dim>14</dim>
					<dim>14</dim>
				</port>
				<port id="1">
					<dim>1</dim>
					<dim>672</dim>
					<dim>4</dim>
					<dim>14</dim>
					<dim>14</dim>
				</port>
			</input>
			<output>
				<port id="2" precision="FP32">
					<dim>1</dim>
					<dim>672</dim>
					<dim>4</dim>
					<dim>14</dim>
					<dim>14</dim>
				</port>
			</output>
		</layer>
		<layer id="330" name="1741817421_const" type="Const" version="opset1">
			<data element_type="f32" offset="5433208" shape="672,1,1,1,5,5" size="67200"/>
			<output>
				<port id="1" precision="FP32">
					<dim>672</dim>
					<dim>1</dim>
					<dim>1</dim>
					<dim>1</dim>
					<dim>5</dim>
					<dim>5</dim>
				</port>
			</output>
		</layer>
		<layer id="331" name="549" type="GroupConvolution" version="opset1">
			<data dilations="1,1,1" output_padding="0,0,0" pads_begin="0,2,2" pads_end="0,2,2" strides="1,1,1"/>
			<input>
				<port id="0">
					<dim>1</dim>
					<dim>672</dim>
					<dim>4</dim>
					<dim>14</dim>
					<dim>14</dim>
				</port>
				<port id="1">
					<dim>672</dim>
					<dim>1</dim>
					<dim>1</dim>
					<dim>1</dim>
					<dim>5</dim>
					<dim>5</dim>
				</port>
			</input>
			<output>
				<port id="2" precision="FP32">
					<dim>1</dim>
					<dim>672</dim>
					<dim>4</dim>
					<dim>14</dim>
					<dim>14</dim>
				</port>
			</output>
		</layer>
		<layer id="332" name="data_add_1052510530/copy_const" type="Const" version="opset1">
			<data element_type="f32" offset="5500408" shape="1,672,1,1,1" size="2688"/>
			<output>
				<port id="1" precision="FP32">
					<dim>1</dim>
					<dim>672</dim>
					<dim>1</dim>
					<dim>1</dim>
					<dim>1</dim>
				</port>
			</output>
		</layer>
		<layer id="333" name="Add1_9513/Fused_Add_" type="Add" version="opset1">
			<input>
				<port id="0">
					<dim>1</dim>
					<dim>672</dim>
					<dim>4</dim>
					<dim>14</dim>
					<dim>14</dim>
				</port>
				<port id="1">
					<dim>1</dim>
					<dim>672</dim>
					<dim>1</dim>
					<dim>1</dim>
					<dim>1</dim>
				</port>
			</input>
			<output>
				<port id="2" precision="FP32">
					<dim>1</dim>
					<dim>672</dim>
					<dim>4</dim>
					<dim>14</dim>
					<dim>14</dim>
				</port>
			</output>
		</layer>
		<layer id="334" name="552" type="AvgPool" version="opset1">
…
					<dim>7</dim>
				</port>
			</input>
			<output>
				<port id="2" precision="FP32">
					<dim>1</dim>
					<dim>960</dim>
					<dim>4</dim>
					<dim>7</dim>
					<dim>7</dim>
				</port>
			</output>
		</layer>
		<layer id="422" name="624/reciprocal_/Output_0/Data_/copy_const" type="Const" version="opset1">
			<data element_type="f32" offset="0" shape="1,1,1,1,1" size="4"/>
			<output>
				<port id="1" precision="FP32">
					<dim>1</dim>
					<dim>1</dim>
					<dim>1</dim>
					<dim>1</dim>
					<dim>1</dim>
				</port>
			</output>
		</layer>
		<layer id="423" name="620/Output_0/Data_/copy_const" type="Const" version="opset1">
			<data element_type="f32" offset="1820" shape="1,1,1,1,1" size="4"/>
			<output>
				<port id="1" precision="FP32">
					<dim>1</dim>
					<dim>1</dim>
					<dim>1</dim>
					<dim>1</dim>
					<dim>1</dim>
				</port>
			</output>
		</layer>
		<layer id="424" name="621" type="Add" version="opset1">
			<input>
				<port id="0">
					<dim>1</dim>
					<dim>960</dim>
					<dim>4</dim>
					<dim>7</dim>
					<dim>7</dim>
				</port>
				<port id="1">
					<dim>1</dim>
					<dim>1</dim>
					<dim>1</dim>
					<dim>1</dim>
					<dim>1</dim>
				</port>
			</input>
			<output>
				<port id="2" precision="FP32">
					<dim>1</dim>
					<dim>960</dim>
					<dim>4</dim>
					<dim>7</dim>
					<dim>7</dim>
				</port>
			</output>
		</layer>
		<layer id="425" name="622" type="Clamp" version="opset1">
			<data max="6.0" min="0.0"/>
			<input>
				<port id="0">
					<dim>1</dim>
					<dim>960</dim>
					<dim>4</dim>
					<dim>7</dim>
					<dim>7</dim>
				</port>
			</input>
			<output>
				<port id="1" precision="FP32">
					<dim>1</dim>
					<dim>960</dim>
					<dim>4</dim>
					<dim>7</dim>
					<dim>7</dim>
				</port>
			</output>
		</layer>
		<layer id="426" name="624/mul_" type="Multiply" version="opset1">
			<input>
				<port id="0">
					<dim>1</dim>
					<dim>1</dim>
					<dim>1</dim>
					<dim>1</dim>
					<dim>1</dim>
				</port>
				<port id="1">
					<dim>1</dim>
					<dim>960</dim>
					<dim>4</dim>
					<dim>7</dim>
					<dim>7</dim>
				</port>
			</input>
			<output>
				<port id="2" precision="FP32">
					<dim>1</dim>
					<dim>960</dim>
					<dim>4</dim>
					<dim>7</dim>
					<dim>7</dim>
				</port>
			</output>
		</layer>
		<layer id="427" name="625" type="Multiply" version="opset1">
			<input>
				<port id="0">
					<dim>1</dim>
					<dim>960</dim>
					<dim>4</dim>
					<dim>7</dim>
					<dim>7</dim>
				</port>
				<port id="1">
					<dim>1</dim>
					<dim>960</dim>
					<dim>4</dim>
					<dim>7</dim>
					<dim>7</dim>
				</port>
			</input>
			<output>
				<port id="2" precision="FP32">
					<dim>1</dim>
					<dim>960</dim>
					<dim>4</dim>
					<dim>7</dim>
					<dim>7</dim>
				</port>
			</output>
		</layer>
		<layer id="428" name="Mul1_9188/Fused_Mul_1139711399_const" type="Const" version="opset1">
			<data element_type="f32" offset="12966648" shape="160,960,3,1,1" size="1843200"/>
			<output>
				<port id="1" precision="FP32">
					<dim>160</dim>
					<dim>960</dim>
					<dim>3</dim>
					<dim>1</dim>
					<dim>1</dim>
				</port>
			</output>
		</layer>
		<layer id="429" name="626" type="Convolution" version="opset1">
			<data dilations="1,1,1" output_padding="0,0,0" pads_begin="1,0,0" pads_end="1,0,0" strides="1,1,1"/>
			<input>
				<port id="0">
					<dim>1</dim>
					<dim>960</dim>
					<dim>4</dim>
					<dim>7</dim>
					<dim>7</dim>
				</port>
				<port id="1">
					<dim>160</dim>
					<dim>960</dim>
					<dim>3</dim>
					<dim>1</dim>
					<dim>1</dim>
				</port>
			</input>
			<output>
				<port id="2" precision="FP32">
					<dim>1</dim>
					<dim>160</dim>
					<dim>4</dim>
					<dim>7</dim>
					<dim>7</dim>
				</port>
			</output>
		</layer>
		<layer id="430" name="data_add_1059310598/copy_const" type="Const" version="opset1">
			<data element_type="f32" offset="14809848" shape="1,160,1,1,1" size="640"/>
			<output>
				<port id="1" precision="FP32">
					<dim>1</dim>
					<dim>160</dim>
					<dim>1</dim>
					<dim>1</dim>
					<dim>1</dim>
				</port>
			</output>
		</layer>
		<layer id="431" name="Add1_9189/Fused_Add_" type="Add" version="opset1">
			<input>
				<port id="0">
					<dim>1</dim>
					<dim>160</dim>
					<dim>4</dim>
					<dim>7</dim>
					<dim>7</dim>
				</port>
				<port id="1">
					<dim>1</dim>
					<dim>160</dim>
					<dim>1</dim>
					<dim>1</dim>
					<dim>1</dim>
				</port>
			</input>
			<output>
				<port id="2" precision="FP32">
					<dim>1</dim>
					<dim>160</dim>
					<dim>4</dim>
					<dim>7</dim>
					<dim>7</dim>
				</port>
			</output>
		</layer>
		<layer id="432" name="628" type="Add" version="opset1">
			<input>
				<port id="0">
					<dim>1</dim>
					<dim>160</dim>
					<dim>4</dim>
					<dim>7</dim>
					<dim>7</dim>
				</port>
				<port id="1">
					<dim>1</dim>
					<dim>160</dim>
					<dim>4</dim>
					<dim>7</dim>
					<dim>7</dim>
				</port>
			</input>
			<output>
				<port id="2" precision="FP32">
					<dim>1</dim>
					<dim>160</dim>
					<dim>4</dim>
					<dim>7</dim>
					<dim>7</dim>
				</port>
			</output>
		</layer>
		<layer id="433" name="Mul1_9260/Fused_Mul_1140111403_const" type="Const" version="opset1">
			<data element_type="f32" offset="14810488" shape="960,160,1,1,1" size="614400"/>
			<output>
				<port id="1" precision="FP32">
					<dim>960</dim>
					<dim>160</dim>
					<dim>1</dim>
					<dim>1</dim>
					<dim>1</dim>
				</port>
			</output>
		</layer>
		<layer id="434" name="629" type="Convolution" version="opset1">
			<data dilations="1,1,1" output_padding="0,0,0" pads_begin="0,0,0" pads_end="0,0,0" strides="1,1,1"/>
			<input>
				<port id="0">
					<dim>1</dim>
					<dim>160</dim>
					<dim>4</dim>
					<dim>7</dim>
					<dim>7</dim>
				</port>
				<port id="1">
					<dim>960</dim>
					<dim>160</dim>
					<dim>1</dim>
					<dim>1</dim>
					<dim>1</dim>
				</port>
			</input>
			<output>
				<port id="2" precision="FP32">
					<dim>1</dim>
					<dim>960</dim>
					<dim>4</dim>
					<dim>7</dim>
					<dim>7</dim>
				</port>
			</output>
		</layer>
		<layer id="435" name="data_add_1060110606/copy_const" type="Const" version="opset1">
			<data element_type="f32" offset="15424888" shape="1,960,1,1,1" size="3840"/>
			<output>
				<port id="1" precision="FP32">
					<dim>1</dim>
					<dim>960</dim>
					<dim>1</dim>
					<dim>1</dim>
					<dim>1</dim>
				</port>
			</output>
		</layer>
		<layer id="436" name="Add1_9261/Fused_Add_" type="Add" version="opset1">
			<input>
				<port id="0">
					<dim>1</dim>
					<dim>960</dim>
					<dim>4</dim>
					<dim>7</dim>
					<dim>7</dim>
				</port>
				<port id="1">
					<dim>1</dim>
					<dim>960</dim>
					<dim>1</dim>
					<dim>1</dim>
					<dim>1</dim>
				</port>
			</input>
			<output>
				<port id="2" precision="FP32">
					<dim>1</dim>
					<dim>960</dim>
					<dim>4</dim>
					<dim>7</dim>
					<dim>7</dim>
				</port>
			</output>
		</layer>
		<layer id="437" name="635/reciprocal_/Output_0/Data_/copy_const" type="Const" version="opset1">
			<data element_type="f32" offset="0" shape="1,1,1,1,1" size="4"/>
			<output>
				<port id="1" precision="FP32">
					<dim>1</dim>
					<dim>1</dim>
					<dim>1</dim>
					<dim>1</dim>
					<dim>1</dim>
				</port>
			</output>
		</layer>
		<layer id="438" name="631/Output_0/Data_/copy_const" type="Const" version="opset1">
			<data element_type="f32" offset="1820" shape="1,1,1,1,1" size="4"/>
			<output>
				<port id="1" precision="FP32">
					<dim>1</dim>
					<dim>1</dim>
					<dim>1</dim>
					<dim>1</dim>
					<dim>1</dim>
				</port>
			</output>
		</layer>
		<layer id="439" name="632" type="Add" version="opset1">
			<input>
				<port id="0">
					<dim>1</dim>
					<dim>960</dim>
					<dim>4</dim>
					<dim>7</dim>
					<dim>7</dim>
				</port>
				<port id="1">
					<dim>1</dim>
					<dim>1</dim>
					<dim>1</dim>
					<dim>1</dim>
					<dim>1</dim>
				</port>
			</input>
			<output>
				<port id="2" precision="FP32">
					<dim>1</dim>
					<dim>960</dim>
					<dim>4</dim>
					<dim>7</dim>
					<dim>7</dim>
				</port>
			</output>
		</layer>
		<layer id="440" name="633" type="Clamp" version="opset1">
			<data max="6.0" min="0.0"/>
			<input>
				<port id="0">
					<dim>1</dim>
					<dim>960</dim>
					<dim>4</dim>
					<dim>7</dim>
					<dim>7</dim>
				</port>
			</input>
			<output>
				<port id="1" precision="FP32">
					<dim>1</dim>
					<dim>960</dim>
					<dim>4</dim>
					<dim>7</dim>
					<dim>7</dim>
				</port>
			</output>
		</layer>
		<layer id="441" name="635/mul_" type="Multiply" version="opset1">
			<input>
				<port id="0">
					<dim>1</dim>
					<dim>1</dim>
					<dim>1</dim>
					<dim>1</dim>
					<dim>1</dim>
				</port>
				<port id="1">
					<dim>1</dim>
					<dim>960</dim>
					<dim>4</dim>
					<dim>7</dim>
					<dim>7</dim>
				</port>
			</input>
			<output>
				<port id="2" precision="FP32">
					<dim>1</dim>
					<dim>960</dim>
					<dim>4</dim>
					<dim>7</dim>
					<dim>7</dim>
				</port>
			</output>
		</layer>
		<layer id="442" name="636" type="Multiply" version="opset1">
			<input>
				<port id="0">
					<dim>1</dim>
					<dim>960</dim>
					<dim>4</dim>
					<dim>7</dim>
					<dim>7</dim>
				</port>
				<port id="1">
					<dim>1</dim>
					<dim>960</dim>
					<dim>4</dim>
					<dim>7</dim>
					<dim>7</dim>
				</port>
			</input>
			<output>
				<port id="2" precision="FP32">
					<dim>1</dim>
					<dim>960</dim>
					<dim>4</dim>
					<dim>7</dim>
					<dim>7</dim>
				</port>
			</output>
		</layer>
		<layer id="443" name="638" type="AvgPool" version="opset1">
			<data exclude-pad="true" kernel="4,7,7" pads_begin="0,0,0" pads_end="0,0,0" rounding_type="floor" strides="1,1,1"/>
			<input>
				<port id="0">
					<dim>1</dim>
					<dim>960</dim>
					<dim>4</dim>
					<dim>7</dim>
					<dim>7</dim>
				</port>
			</input>
			<output>
				<port id="1" precision="FP32">
					<dim>1</dim>
					<dim>960</dim>
					<dim>1</dim>
					<dim>1</dim>
					<dim>1</dim>
				</port>
			</output>
		</layer>
		<layer id="444" name="640/Cast_117799_const" type="Const" version="opset1">
			<data element_type="i64" offset="15428728" shape="2" size="16"/>
			<output>
				<port id="1" precision="I64">
					<dim>2</dim>
				</port>
			</output>
		</layer>
		<layer id="445" name="640" type="Reshape" version="opset1">
			<data special_zero="True"/>
			<input>
				<port id="0">
					<dim>1</dim>
					<dim>960</dim>
					<dim>1</dim>
					<dim>1</dim>
					<dim>1</dim>
				</port>
				<port id="1">
					<dim>2</dim>
				</port>
			</input>
			<output>
				<port id="2" precision="FP32">
					<dim>1</dim>
					<dim>960</dim>
				</port>
			</output>
		</layer>
		<layer id="446" name="onnx_initializer_node_cls_head.fc_pre_angular.weight/Output_0/Data__const" type="Const" version="opset1">
			<data element_type="f32" offset="15428744" shape="256,960" size="983040"/>
			<output>
				<port id="1" precision="FP32">
					<dim>256</dim>
					<dim>960</dim>
				</port>
			</output>
		</layer>
		<layer id="447" name="641/WithoutBiases" type="MatMul" version="opset1">
			<data transpose_a="0" transpose_b="1"/>
			<input>
				<port id="0">
					<dim>1</dim>
					<dim>960</dim>
				</port>
				<port id="1">
					<dim>256</dim>
					<dim>960</dim>
				</port>
			</input>
			<output>
				<port id="2" precision="FP32">
					<dim>1</dim>
					<dim>256</dim>
				</port>
			</output>
		</layer>
		<layer id="448" name="onnx_initializer_node_cls_head.fc_pre_angular.bias/Output_0/Data_/copy_const" type="Const" version="opset1">
			<data element_type="f32" offset="16411784" shape="1,256" size="1024"/>
			<output>
				<port id="1" precision="FP32">
					<dim>1</dim>
					<dim>256</dim>
				</port>
			</output>
		</layer>
		<layer id="449" name="641" type="Add" version="opset1">
			<input>
				<port id="0">
					<dim>1</dim>
					<dim>256</dim>
				</port>
				<port id="1">
					<dim>1</dim>
					<dim>256</dim>
				</port>
			</input>
			<output>
				<port id="2" precision="FP32">
					<dim>1</dim>
					<dim>256</dim>
				</port>
			</output>
		</layer>
		<layer id="450" name="642/Axis/Output_0/Data__const" type="Const" version="opset1">
			<data element_type="i64" offset="16412808" shape="1" size="8"/>
			<output>
				<port id="1" precision="I64">
					<dim>1</dim>
				</port>
			</output>
		</layer>
		<layer id="451" name="642" type="NormalizeL2" version="opset1">
			<data eps="1e-06" eps_mode="add"/>
			<input>
				<port id="0">
					<dim>1</dim>
					<dim>256</dim>
				</port>
				<port id="1">
					<dim>1</dim>
				</port>
			</input>
			<output>
				<port id="2" precision="FP32">
					<dim>1</dim>
					<dim>256</dim>
				</port>
			</output>
		</layer>
		<layer id="452" name="output/WithoutBiases/1_port_transpose14826_const" type="Const" version="opset1">
			<data element_type="f32" offset="16412816" shape="100,256" size="102400"/>
			<output>
				<port id="1" precision="FP32">
					<dim>100</dim>
					<dim>256</dim>
				</port>
			</output>
		</layer>
		<layer id="453" name="output/WithoutBiases" type="MatMul" version="opset1">
			<data transpose_a="0" transpose_b="True"/>
			<input>
				<port id="0">
					<dim>1</dim>
					<dim>256</dim>
				</port>
				<port id="1">
					<dim>100</dim>
					<dim>256</dim>
				</port>
			</input>
			<output>
				<port id="2" precision="FP32">
					<dim>1</dim>
					<dim>100</dim>
				</port>
			</output>
		</layer>
		<layer id="454" name="output/Beta_/Output_0/Data_/copy_const" type="Const" version="opset1">
			<data element_type="f32" offset="16515216" shape="1,1" size="4"/>
			<output>
				<port id="1" precision="FP32">
					<dim>1</dim>
					<dim>1</dim>
				</port>
			</output>
		</layer>
		<layer id="455" name="output" type="Add" version="opset1">
			<input>
				<port id="0">
					<dim>1</dim>
					<dim>100</dim>
				</port>
				<port id="1">
					<dim>1</dim>
					<dim>1</dim>
				</port>
			</input>
			<output>
				<port id="2" precision="FP32">
					<dim>1</dim>
					<dim>100</dim>
				</port>
			</output>
		</layer>
		<layer id="456" name="output/sink_port_0" type="Result" version="opset1">
			<input>
				<port id="0">
					<dim>1</dim>
					<dim>100</dim>
				</port>
			</input>
		</layer>
	</layers>
	<edges>
		<edge from-layer="4" from-port="0" to-layer="6" to-port="0"/>
		<edge from-layer="5" from-port="1" to-layer="6" to-port="1"/>
		<edge from-layer="6" from-port="2" to-layer="8" to-port="0"/>
		<edge from-layer="7" from-port="1" to-layer="8" to-port="1"/>
		<edge from-layer="8" from-port="2" to-layer="10" to-port="0"/>
		<edge from-layer="9" from-port="1" to-layer="10" to-port="1"/>
		<edge from-layer="10" from-port="2" to-layer="12" to-port="0"/>
		<edge from-layer="11" from-port="1" to-layer="12" to-port="1"/>
		<edge from-layer="12" from-port="2" to-layer="15" to-port="0"/>
		<edge from-layer="14" from-port="1" to-layer="15" to-port="1"/>
		<edge from-layer="15" from-port="2" to-layer="16" to-port="0"/>
		<edge from-layer="13" from-port="1" to-layer="17" to-port="0"/>
		<edge from-layer="16" from-port="1" to-layer="17" to-port="1"/>
		<edge from-layer="12" from-port="2" to-layer="18" to-port="0"/>
		<edge from-layer="17" from-port="2" to-layer="18" to-port="1"/>
		<edge from-layer="18" from-port="2" to-layer="20" to-port="0"/>
		<edge from-layer="19" from-port="1" to-layer="20" to-port="1"/>
		<edge from-layer="20" from-port="2" to-layer="22" to-port="0"/>
		<edge from-layer="21" from-port="1" to-layer="22" to-port="1"/>
		<edge from-layer="22" from-port="2" to-layer="23" to-port="0"/>
		<edge from-layer="23" from-port="1" to-layer="25" to-port="0"/>
		<edge from-layer="24" from-port="1" to-layer="25" to-port="1"/>
		<edge from-layer="25" from-port="2" to-layer="27" to-port="0"/>
		<edge from-layer="26" from-port="1" to-layer="27" to-port="1"/>
		<edge from-layer="18" from-port="2" to-layer="28" to-port="0"/>
		<edge from-layer="27" from-port="2" to-layer="28" to-port="1"/>
		<edge from-layer="28" from-port="2" to-layer="30" to-port="0"/>
		<edge from-layer="29" from-port="1" to-layer="30" to-port="1"/>
		<edge from-layer="30" from-port="2" to-layer="32" to-port="0"/>
		<edge from-layer="31" from-port="1" to-layer="32" to-port="1"/>
		<edge from-layer="32" from-port="2" to-layer="33" to-port="0"/>
		<edge from-layer="33" from-port="1" to-layer="35" to-port="0"/>
		<edge from-layer="34" from-port="1" to-layer="35" to-port="1"/>
		<edge from-layer="35" from-port="2" to-layer="37" to-port="0"/>
		<edge from-layer="36" from-port="1" to-layer="37" to-port="1"/>
		<edge from-layer="37" from-port="2" to-layer="38" to-port="0"/>
		<edge from-layer="38" from-port="1" to-layer="40" to-port="0"/>
		<edge from-layer="39" from-port="1" to-layer="40" to-port="1"/>
		<edge from-layer="40" from-port="2" to-layer="42" to-port="0"/>
		<edge from-layer="41" from-port="1" to-layer="42" to-port="1"/>
		<edge from-layer="42" from-port="2" to-layer="43" to-port="0"/>
		<edge from-layer="43" from-port="1" to-layer="45" to-port="0"/>
		<edge from-layer="44" from-port="1" to-layer="45" to-port="1"/>
		<edge from-layer="45" from-port="2" to-layer="47" to-port="0"/>
		<edge from-layer="46" from-port="1" to-layer="47" to-port="1"/>
		<edge from-layer="47" from-port="2" to-layer="48" to-port="0"/>
		<edge from-layer="48" from-port="1" to-layer="50" to-port="0"/>
		<edge from-layer="49" from-port="1" to-layer="50" to-port="1"/>
		<edge from-layer="50" from-port="2" to-layer="52" to-port="0"/>
		<edge from-layer="51" from-port="1" to-layer="52" to-port="1"/>
		<edge from-layer="52" from-port="2" to-layer="53" to-port="0"/>
		<edge from-layer="53" from-port="1" to-layer="55" to-port="0"/>
		<edge from-layer="54" from-port="1" to-layer="55" to-port="1"/>
		<edge from-layer="55" from-port="2" to-layer="57" to-port="0"/>
		<edge from-layer="56" from-port="1" to-layer="57" to-port="1"/>
		<edge from-layer="43" from-port="1" to-layer="58" to-port="0"/>
		<edge from-layer="57" from-port="2" to-layer="58" to-port="1"/>
		<edge from-layer="58" from-port="2" to-layer="60" to-port="0"/>
		<edge from-layer="59" from-port="1" to-layer="60" to-port="1"/>
		<edge from-layer="60" from-port="2" to-layer="62" to-port="0"/>
		<edge from-layer="61" from-port="1" to-layer="62" to-port="1"/>
		<edge from-layer="62" from-port="2" to-layer="63" to-port="0"/>
		<edge from-layer="63" from-port="1" to-layer="65" to-port="0"/>
		<edge from-layer="64" from-port="1" to-layer="65" to-port="1"/>
		<edge from-layer="65" from-port="2" to-layer="67" to-port="0"/>
		<edge from-layer="66" from-port="1" to-layer="67" to-port="1"/>
		<edge from-layer="67" from-port="2" to-layer="68" to-port="0"/>
		<edge from-layer="68" from-port="1" to-layer="70" to-port="0"/>
		<edge from-layer="69" from-port="1" to-layer="70" to-port="1"/>
		<edge from-layer="70" from-port="2" to-layer="72" to-port="0"/>
		<edge from-layer="71" from-port="1" to-layer="72" to-port="1"/>
		<edge from-layer="72" from-port="2" to-layer="73" to-port="0"/>
		<edge from-layer="73" from-port="1" to-layer="75" to-port="0"/>
		<edge from-layer="74" from-port="1" to-layer="75" to-port="1"/>
		<edge from-layer="75" from-port="2" to-layer="77" to-port="0"/>
		<edge from-layer="76" from-port="1" to-layer="77" to-port="1"/>
		<edge from-layer="77" from-port="2" to-layer="78" to-port="0"/>
		<edge from-layer="3" from-port="1" to-layer="79" to-port="0"/>
		<edge from-layer="78" from-port="1" to-layer="79" to-port="1"/>
		<edge from-layer="79" from-port="2" to-layer="80" to-port="0"/>
		<edge from-layer="67" from-port="2" to-layer="80" to-port="1"/>
		<edge from-layer="80" from-port="2" to-layer="81" to-port="0"/>
		<edge from-layer="81" from-port="1" to-layer="83" to-port="0"/>
		<edge from-layer="82" from-port="1" to-layer="83" to-port="1"/>
		<edge from-layer="83" from-port="2" to-layer="85" to-port="0"/>
		<edge from-layer="84" from-port="1" to-layer="85" to-port="1"/>
		<edge from-layer="85" from-port="2" to-layer="88" to-port="0"/>
		<edge from-layer="87" from-port="1" to-layer="88" to-port="1"/>
		<edge from-layer="88" from-port="2" to-layer="90" to-port="0"/>
		<edge from-layer="89" from-port="1" to-layer="90" to-port="1"/>
		<edge from-layer="90" from-port="2" to-layer="91" to-port="0"/>
		<edge from-layer="91" from-port="1" to-layer="93" to-port="0"/>
		<edge from-layer="92" from-port="1" to-layer="93" to-port="1"/>
		<edge from-layer="93" from-port="2" to-layer="95" to-port="0"/>
		<edge from-layer="94" from-port="1" to-layer="95" to-port="1"/>
		<edge from-layer="95" from-port="2" to-layer="96" to-port="0"/>
		<edge from-layer="96" from-port="1" to-layer="98" to-port="0"/>
		<edge from-layer="97" from-port="1" to-layer="98" to-port="1"/>
		<edge from-layer="98" from-port="2" to-layer="100" to-port="0"/>
		<edge from-layer="99" from-port="1" to-layer="100" to-port="1"/>
		<edge from-layer="100" from-port="2" to-layer="101" to-port="0"/>
		<edge from-layer="101" from-port="1" to-layer="103" to-port="0"/>
		<edge from-layer="102" from-port="1" to-layer="103" to-port="1"/>
		<edge from-layer="103" from-port="2" to-layer="105" to-port="0"/>
		<edge from-layer="104" from-port="1" to-layer="105" to-port="1"/>
		<edge from-layer="105" from-port="2" to-layer="106" to-port="0"/>
		<edge from-layer="86" from-port="1" to-layer="107" to-port="0"/>
		<edge from-layer="106" from-port="1" to-layer="107" to-port="1"/>
		<edge from-layer="107" from-port="2" to-layer="108" to-port="0"/>
		<edge from-layer="95" from-port="2" to-layer="108" to-port="1"/>
		<edge from-layer="108" from-port="2" to-layer="109" to-port="0"/>
		<edge from-layer="109" from-port="1" to-layer="111" to-port="0"/>
		<edge from-layer="110" from-port="1" to-layer="111" to-port="1"/>
		<edge from-layer="111" from-port="2" to-layer="113" to-port="0"/>
		<edge from-layer="112" from-port="1" to-layer="113" to-port="1"/>
		<edge from-layer="85" from-port="2" to-layer="114" to-port="0"/>
		<edge from-layer="113" from-port="2" to-layer="114" to-port="1"/>
		<edge from-layer="114" from-port="2" to-layer="117" to-port="0"/>
		<edge from-layer="116" from-port="1" to-layer="117" to-port="1"/>
		<edge from-layer="117" from-port="2" to-layer="119" to-port="0"/>
		<edge from-layer="118" from-port="1" to-layer="119" to-port="1"/>
		<edge from-layer="119" from-port="2" to-layer="120" to-port="0"/>
		<edge from-layer="120" from-port="1" to-layer="122" to-port="0"/>
		<edge from-layer="121" from-port="1" to-layer="122" to-port="1"/>
		<edge from-layer="122" from-port="2" to-layer="124" to-port="0"/>
		<edge from-layer="123" from-port="1" to-layer="124" to-port="1"/>
		<edge from-layer="124" from-port="2" to-layer="125" to-port="0"/>
		<edge from-layer="125" from-port="1" to-layer="127" to-port="0"/>
		<edge from-layer="126" from-port="1" to-layer="127" to-port="1"/>
		<edge from-layer="127" from-port="2" to-layer="129" to-port="0"/>
		<edge from-layer="128" from-port="1" to-layer="129" to-port="1"/>
		<edge from-layer="129" from-port="2" to-layer="130" to-port="0"/>
		<edge from-layer="130" from-port="1" to-layer="132" to-port="0"/>
		<edge from-layer="131" from-port="1" to-layer="132" to-port="1"/>
		<edge from-layer="132" from-port="2" to-layer="134" to-port="0"/>
		<edge from-layer="133" from-port="1" to-layer="134" to-port="1"/>
		<edge from-layer="134" from-port="2" to-layer="135" to-port="0"/>
		<edge from-layer="115" from-port="1" to-layer="136" to-port="0"/>
		<edge from-layer="135" from-port="1" to-layer="136" to-port="1"/>
		<edge from-layer="136" from-port="2" to-layer="137" to-port="0"/>
		<edge from-layer="124" from-port="2" to-layer="137" to-port="1"/>
		<edge from-layer="137" from-port="2" to-layer="138" to-port="0"/>
		<edge from-layer="138" from-port="1" to-layer="140" to-port="0"/>
		<edge from-layer="139" from-port="1" to-layer="140" to-port="1"/>
		<edge from-layer="140" from-port="2" to-layer="142" to-port="0"/>
		<edge from-layer="141" from-port="1" to-layer="142" to-port="1"/>
		<edge from-layer="114" from-port="2" to-layer="143" to-port="0"/>
		<edge from-layer="142" from-port="2" to-layer="143" to-port="1"/>
		<edge from-layer="143" from-port="2" to-layer="145" to-port="0"/>
		<edge from-layer="144" from-port="1" to-layer="145" to-port="1"/>
		<edge from-layer="145" from-port="2" to-layer="147" to-port="0"/>
		<edge from-layer="146" from-port="1" to-layer="147" to-port="1"/>
		<edge from-layer="147" from-port="2" to-layer="150" to-port="0"/>
		<edge from-layer="149" from-port="1" to-layer="150" to-port="1"/>
		<edge from-layer="150" from-port="2" to-layer="151" to-port="0"/>
		<edge from-layer="148" from-port="1" to-layer="152" to-port="0"/>
		<edge from-layer="151" from-port="1" to-layer="152" to-port="1"/>
		<edge from-layer="147" from-port="2" to-layer="153" to-port="0"/>
		<edge from-layer="152" from-port="2" to-layer="153" to-port="1"/>
		<edge from-layer="153" from-port="2" to-layer="155" to-port="0"/>
		<edge from-layer="154" from-port="1" to-layer="155" to-port="1"/>
		<edge from-layer="155" from-port="2" to-layer="157" to-port="0"/>
		<edge from-layer="156" from-port="1" to-layer="157" to-port="1"/>
		<edge from-layer="157" from-port="2" to-layer="160" to-port="0"/>
		<edge from-layer="159" from-port="1" to-layer="160" to-port="1"/>
		<edge from-layer="160" from-port="2" to-layer="161" to-port="0"/>
		<edge from-layer="158" from-port="1" to-layer="162" to-port="0"/>
		<edge from-layer="161" from-port="1" to-layer="162" to-port="1"/>
		<edge from-layer="157" from-port="2" to-layer="163" to-port="0"/>
		<edge from-layer="162" from-port="2" to-layer="163" to-port="1"/>
		<edge from-layer="163" from-port="2" to-layer="165" to-port="0"/>
		<edge from-layer="164" from-port="1" to-layer="165" to-port="1"/>
		<edge from-layer="165" from-port="2" to-layer="167" to-port="0"/>
		<edge from-layer="166" from-port="1" to-layer="167" to-port="1"/>
		<edge from-layer="167" from-port="2" to-layer="169" to-port="0"/>
		<edge from-layer="168" from-port="1" to-layer="169" to-port="1"/>
		<edge from-layer="169" from-port="2" to-layer="171" to-port="0"/>
		<edge from-layer="170" from-port="1" to-layer="171" to-port="1"/>
		<edge from-layer="171" from-port="2" to-layer="174" to-port="0"/>
		<edge from-layer="173" from-port="1" to-layer="174" to-port="1"/>
		<edge from-layer="174" from-port="2" to-layer="175" to-port="0"/>
		<edge from-layer="172" from-port="1" to-layer="176" to-port="0"/>
		<edge from-layer="175" from-port="1" to-layer="176" to-port="1"/>
		<edge from-layer="171" from-port="2" to-layer="177" to-port="0"/>
		<edge from-layer="176" from-port="2" to-layer="177" to-port="1"/>
		<edge from-layer="177" from-port="2" to-layer="179" to-port="0"/>
		<edge from-layer="178" from-port="1" to-layer="179" to-port="1"/>
		<edge from-layer="179" from-port="2" to-layer="181" to-port="0"/>
		<edge from-layer="180" from-port="1" to-layer="181" to-port="1"/>
		<edge from-layer="181" from-port="2" to-layer="184" to-port="0"/>
		<edge from-layer="183" from-port="1" to-layer="184" to-port="1"/>
		<edge from-layer="184" from-port="2" to-layer="185" to-port="0"/>
		<edge from-layer="182" from-port="1" to-layer="186" to-port="0"/>
		<edge from-layer="185" from-port="1" to-layer="186" to-port="1"/>
		<edge from-layer="181" from-port="2" to-layer="187" to-port="0"/>
		<edge from-layer="186" from-port="2" to-layer="187" to-port="1"/>
		<edge from-layer="187" from-port="2" to-layer="189" to-port="0"/>
		<edge from-layer="188" from-port="1" to-layer="189" to-port="1"/>
		<edge from-layer="189" from-port="2" to-layer="191" to-port="0"/>
		<edge from-layer="190" from-port="1" to-layer="191" to-port="1"/>
		<edge from-layer="167" from-port="2" to-layer="192" to-port="0"/>
		<edge from-layer="191" from-port="2" to-layer="192" to-port="1"/>
		<edge from-layer="192" from-port="2" to-layer="194" to-port="0"/>
		<edge from-layer="193" from-port="1" to-layer="194" to-port="1"/>
		<edge from-layer="194" from-port="2" to-layer="196" to-port="0"/>
		<edge from-layer="195" from-port="1" to-layer="196" to-port="1"/>
		<edge from-layer="196" from-port="2" to-layer="199" to-port="0"/>
		<edge from-layer="198" from-port="1" to-layer="199" to-port="1"/>
		<edge from-layer="199" from-port="2" to-layer="200" to-port="0"/>
		<edge from-layer="197" from-port="1" to-layer="201" to-port="0"/>
		<edge from-layer="200" from-port="1" to-layer="201" to-port="1"/>
		<edge from-layer="196" from-port="2" to-layer="202" to-port="0"/>
		<edge from-layer="201" from-port="2" to-layer="202" to-port="1"/>
		<edge from-layer="202" from-port="2" to-layer="204" to-port="0"/>
		<edge from-layer="203" from-port="1" to-layer="204" to-port="1"/>
		<edge from-layer="204" from-port="2" to-layer="206" to-port="0"/>
		<edge from-layer="205" from-port="1" to-layer="206" to-port="1"/>
		<edge from-layer="206" from-port="2" to-layer="209" to-port="0"/>
		<edge from-layer="208" from-port="1" to-layer="209" to-port="1"/>
		<edge from-layer="209" from-port="2" to-layer="210" to-port="0"/>
		<edge from-layer="207" from-port="1" to-layer="211" to-port="0"/>
		<edge from-layer="210" from-port="1" to-layer="211" to-port="1"/>
		<edge from-layer="206" from-port="2" to-layer="212" to-port="0"/>
		<edge from-layer="211" from-port="2" to-layer="212" to-port="1"/>
		<edge from-layer="212" from-port="2" to-layer="214" to-port="0"/>
		<edge from-layer="213" from-port="1" to-layer="214" to-port="1"/>
		<edge from-layer="214" from-port="2" to-layer="216" to-port="0"/>
		<edge from-layer="215" from-port="1" to-layer="216" to-port="1"/>
		<edge from-layer="192" from-port="2" to-layer="217" to-port="0"/>
		<edge from-layer="216" from-port="2" to-layer="217" to-port="1"/>
		<edge from-layer="217" from-port="2" to-layer="219" to-port="0"/>
		<edge from-layer="218" from-port="1" to-layer="219" to-port="1"/>
		<edge from-layer="219" from-port="2" to-layer="221" to-port="0"/>
		<edge from-layer="220" from-port="1" to-layer="221" to-port="1"/>
		<edge from-layer="221" from-port="2" to-layer="224" to-port="0"/>
		<edge from-layer="223" from-port="1" to-layer="224" to-port="1"/>
		<edge from-layer="224" from-port="2" to-layer="225" to-port="0"/>
		<edge from-layer="222" from-port="1" to-layer="226" to-port="0"/>
		<edge from-layer="225" from-port="1" to-layer="226" to-port="1"/>
		<edge from-layer="221" from-port="2" to-layer="227" to-port="0"/>
		<edge from-layer="226" from-port="2" to-layer="227" to-port="1"/>
		<edge from-layer="227" from-port="2" to-layer="229" to-port="0"/>
		<edge from-layer="228" from-port="1" to-layer="229" to-port="1"/>
		<edge from-layer="229" from-port="2" to-layer="231" to-port="0"/>
		<edge from-layer="230" from-port="1" to-layer="231" to-port="1"/>
		<edge from-layer="231" from-port="2" to-layer="234" to-port="0"/>
		<edge from-layer="233" from-port="1" to-layer="234" to-port="1"/>
		<edge from-layer="234" from-port="2" to-layer="235" to-port="0"/>
		<edge from-layer="232" from-port="1" to-layer="236" to-port="0"/>
		<edge from-layer="235" from-port="1" to-layer="236" to-port="1"/>
		<edge from-layer="231" from-port="2" to-layer="237" to-port="0"/>
		<edge from-layer="236" from-port="2" to-layer="237" to-port="1"/>
		<edge from-layer="237" from-port="2" to-layer="239" to-port="0"/>
		<edge from-layer="238" from-port="1" to-layer="239" to-port="1"/>
		<edge from-layer="239" from-port="2" to-layer="241" to-port="0"/>
		<edge from-layer="240" from-port="1" to-layer="241" to-port="1"/>
		<edge from-layer="217" from-port="2" to-layer="242" to-port="0"/>
		<edge from-layer="241" from-port="2" to-layer="242" to-port="1"/>
		<edge from-layer="242" from-port="2" to-layer="244" to-port="0"/>
		<edge from-layer="243" from-port="1" to-layer="244" to-port="1"/>
		<edge from-layer="244" from-port="2" to-layer="246" to-port="0"/>
		<edge from-layer="245" from-port="1" to-layer="246" to-port="1"/>
		<edge from-layer="246" from-port="2" to-layer="249" to-port="0"/>
		<edge from-layer="248" from-port="1" to-layer="249" to-port="1"/>
		<edge from-layer="249" from-port="2" to-layer="250" to-port="0"/>
		<edge from-layer="247" from-port="1" to-layer="251" to-port="0"/>
		<edge from-layer="250" from-port="1" to-layer="251" to-port="1"/>
		<edge from-layer="246" from-port="2" to-layer="252" to-port="0"/>
		<edge from-layer="251" from-port="2" to-layer="252" to-port="1"/>
		<edge from-layer="252" from-port="2" to-layer="254" to-port="0"/>
		<edge from-layer="253" from-port="1" to-layer="254" to-port="1"/>
		<edge from-layer="254" from-port="2" to-layer="256" to-port="0"/>
		<edge from-layer="255" from-port="1" to-layer="256" to-port="1"/>
		<edge from-layer="256" from-port="2" to-layer="257" to-port="0"/>
		<edge from-layer="257" from-port="1" to-layer="259" to-port="0"/>
		<edge from-layer="258" from-port="1" to-layer="259" to-port="1"/>
		<edge from-layer="259" from-port="2" to-layer="261" to-port="0"/>
		<edge from-layer="260" from-port="1" to-layer="261" to-port="1"/>
		<edge from-layer="261" from-port="2" to-layer="262" to-port="0"/>
		<edge from-layer="262" from-port="1" to-layer="264" to-port="0"/>
		<edge from-layer="263" from-port="1" to-layer="264" to-port="1"/>
		<edge from-layer="264" from-port="2" to-layer="266" to-port="0"/>
		<edge from-layer="265" from-port="1" to-layer="266" to-port="1"/>
		<edge from-layer="266" from-port="2" to-layer="267" to-port="0"/>
		<edge from-layer="2" from-port="1" to-layer="268" to-port="0"/>
		<edge from-layer="267" from-port="1" to-layer="268" to-port="1"/>
		<edge from-layer="268" from-port="2" to-layer="269" to-port="0"/>
		<edge from-layer="256" from-port="2" to-layer="269" to-port="1"/>
		<edge from-layer="269" from-port="2" to-layer="272" to-port="0"/>
		<edge from-layer="271" from-port="1" to-layer="272" to-port="1"/>
		<edge from-layer="272" from-port="2" to-layer="273" to-port="0"/>
		<edge from-layer="270" from-port="1" to-layer="274" to-port="0"/>
		<edge from-layer="273" from-port="1" to-layer="274" to-port="1"/>
		<edge from-layer="269" from-port="2" to-layer="275" to-port="0"/>
		<edge from-layer="274" from-port="2" to-layer="275" to-port="1"/>
		<edge from-layer="275" from-port="2" to-layer="277" to-port="0"/>
		<edge from-layer="276" from-port="1" to-layer="277" to-port="1"/>
		<edge from-layer="277" from-port="2" to-layer="279" to-port="0"/>
		<edge from-layer="278" from-port="1" to-layer="279" to-port="1"/>
		<edge from-layer="279" from-port="2" to-layer="280" to-port="0"/>
		<edge from-layer="280" from-port="1" to-layer="283" to-port="0"/>
		<edge from-layer="282" from-port="1" to-layer="283" to-port="1"/>
		<edge from-layer="283" from-port="2" to-layer="285" to-port="0"/>
		<edge from-layer="284" from-port="1" to-layer="285" to-port="1"/>
		<edge from-layer="285" from-port="2" to-layer="288" to-port="0"/>
		<edge from-layer="287" from-port="1" to-layer="288" to-port="1"/>
		<edge from-layer="288" from-port="2" to-layer="289" to-port="0"/>
		<edge from-layer="286" from-port="1" to-layer="290" to-port="0"/>
		<edge from-layer="289" from-port="1" to-layer="290" to-port="1"/>
		<edge from-layer="285" from-port="2" to-layer="291" to-port="0"/>
		<edge from-layer="290" from-port="2" to-layer="291" to-port="1"/>
		<edge from-layer="291" from-port="2" to-layer="293" to-port="0"/>
		<edge from-layer="292" from-port="1" to-layer="293" to-port="1"/>
		<edge from-layer="293" from-port="2" to-layer="295" to-port="0"/>
		<edge from-layer="294" from-port="1" to-layer="295" to-port="1"/>
		<edge from-layer="295" from-port="2" to-layer="296" to-port="0"/>
		<edge from-layer="296" from-port="1" to-layer="298" to-port="0"/>
		<edge from-layer="297" from-port="1" to-layer="298" to-port="1"/>
		<edge from-layer="298" from-port="2" to-layer="300" to-port="0"/>
		<edge from-layer="299" from-port="1" to-layer="300" to-port="1"/>
		<edge from-layer="300" from-port="2" to-layer="301" to-port="0"/>
		<edge from-layer="301" from-port="1" to-layer="303" to-port="0"/>
		<edge from-layer="302" from-port="1" to-layer="303" to-port="1"/>
		<edge from-layer="303" from-port="2" to-layer="305" to-port="0"/>
		<edge from-layer="304" from-port="1" to-layer="305" to-port="1"/>
		<edge from-layer="305" from-port="2" to-layer="306" to-port="0"/>
		<edge from-layer="281" from-port="1" to-layer="307" to-port="0"/>
		<edge from-layer="306" from-port="1" to-layer="307" to-port="1"/>
		<edge from-layer="307" from-port="2" to-layer="308" to-port="0"/>
		<edge from-layer="295" from-port="2" to-layer="308" to-port="1"/>
		<edge from-layer="308" from-port="2" to-layer="311" to-port="0"/>
		<edge from-layer="310" from-port="1" to-layer="311" to-port="1"/>
		<edge from-layer="311" from-port="2" to-layer="312" to-port="0"/>
		<edge from-layer="309" from-port="1" to-layer="313" to-port="0"/>
		<edge from-layer="312" from-port="1" to-layer="313" to-port="1"/>
		<edge from-layer="308" from-port="2" to-layer="314" to-port="0"/>
		<edge from-layer="313" from-port="2" to-layer="314" to-port="1"/>
		<edge from-layer="314" from-port="2" to-layer="316" to-port="0"/>
		<edge from-layer="315" from-port="1" to-layer="316" to-port="1"/>
		<edge from-layer="316" from-port="2" to-layer="318" to-port="0"/>
		<edge from-layer="317" from-port="1" to-layer="318" to-port="1"/>
		<edge from-layer="280" from-port="1" to-layer="319" to-port="0"/>
		<edge from-layer="318" from-port="2" to-layer="319" to-port="1"/>
		<edge from-layer="319" from-port="2" to-layer="321" to-port="0"/>
		<edge from-layer="320" from-port="1" to-layer="321" to-port="1"/>
		<edge from-layer="321" from-port="2" to-layer="323" to-port="0"/>
		<edge from-layer="322" from-port="1" to-layer="323" to-port="1"/>
		<edge from-layer="323" from-port="2" to-layer="326" to-port="0"/>
		<edge from-layer="325" from-port="1" to-layer="326" to-port="1"/>
		<edge from-layer="326" from-port="2" to-layer="327" to-port="0"/>
		<edge from-layer="324" from-port="1" to-layer="328" to-port="0"/>
		<edge from-layer="327" from-port="1" to-layer="328" to-port="1"/>
		<edge from-layer="323" from-port="2" to-layer="329" to-port="0"/>
		<edge from-layer="328" from-port="2" to-layer="329" to-port="1"/>
		<edge from-layer="329" from-port="2" to-layer="331" to-port="0"/>
		<edge from-layer="330" from-port="1" to-layer="331" to-port="1"/>
		<edge from-layer="331" from-port="2" to-layer="333" to-port="0"/>
		<edge from-layer="332" from-port="1" to-layer="333" to-port="1"/>
		<edge from-layer="333" from-port="2" to-layer="334" to-port="0"/>
		<edge from-layer="334" from-port="1" to-layer="336" to-port="0"/>
		<edge from-layer="335" from-port="1" to-layer="336" to-port="1"/>
		<edge from-layer="336" from-port="2" to-layer="338" to-port="0"/>
		<edge from-layer="337" from-port="1" to-layer="338" to-port="1"/>
		<edge from-layer="338" from-port="2" to-layer="339" to-port="0"/>
		<edge from-layer="339" from-port="1" to-layer="341" to-port="0"/>
		<edge from-layer="340" from-port="1" to-layer="341" to-port="1"/>
		<edge from-layer="341" from-port="2" to-layer="343" to-port="0"/>
		<edge from-layer="342" from-port="1" to-layer="343" to-port="1"/>
		<edge from-layer="343" from-port="2" to-layer="344" to-port="0"/>
		<edge from-layer="1" from-port="1" to-layer="345" to-port="0"/>
		<edge from-layer="344" from-port="1" to-layer="345" to-port="1"/>
		<edge from-layer="345" from-port="2" to-layer="346" to-port="0"/>
		<edge from-layer="333" from-port="2" to-layer="346" to-port="1"/>
		<edge from-layer="346" from-port="2" to-layer="349" to-port="0"/>
		<edge from-layer="348" from-port="1" to-layer="349" to-port="1"/>
		<edge from-layer="349" from-port="2" to-layer="350" to-port="0"/>
		<edge from-layer="347" from-port="1" to-layer="351" to-port="0"/>
		<edge from-layer="350" from-port="1" to-layer="351" to-port="1"/>
		<edge from-layer="346" from-port="2" to-layer="352" to-port="0"/>
		<edge from-layer="351" from-port="2" to-layer="352" to-port="1"/>
		<edge from-layer="352" from-port="2" to-layer="354" to-port="0"/>
		<edge from-layer="353" from-port="1" to-layer="354" to-port="1"/>
		<edge from-layer="354" from-port="2" to-layer="356" to-port="0"/>
		<edge from-layer="355" from-port="1" to-layer="356" to-port="1"/>
		<edge from-layer="356" from-port="2" to-layer="358" to-port="0"/>
		<edge from-layer="357" from-port="1" to-layer="358" to-port="1"/>
		<edge from-layer="358" from-port="2" to-layer="360" to-port="0"/>
		<edge from-layer="359" from-port="1" to-layer="360" to-port="1"/>
		<edge from-layer="360" from-port="2" to-layer="363" to-port="0"/>
		<edge from-layer="362" from-port="1" to-layer="363" to-port="1"/>
		<edge from-layer="363" from-port="2" to-layer="364" to-port="0"/>
		<edge from-layer="361" from-port="1" to-layer="365" to-port="0"/>
		<edge from-layer="364" from-port="1" to-layer="365" to-port="1"/>
		<edge from-layer="360" from-port="2" to-layer="366" to-port="0"/>
		<edge from-layer="365" from-port="2" to-layer="366" to-port="1"/>
		<edge from-layer="366" from-port="2" to-layer="368" to-port="0"/>
		<edge from-layer="367" from-port="1" to-layer="368" to-port="1"/>
		<edge from-layer="368" from-port="2" to-layer="370" to-port="0"/>
		<edge from-layer="369" from-port="1" to-layer="370" to-port="1"/>
		<edge from-layer="370" from-port="2" to-layer="371" to-port="0"/>
		<edge from-layer="371" from-port="1" to-layer="373" to-port="0"/>
		<edge from-layer="372" from-port="1" to-layer="373" to-port="1"/>
		<edge from-layer="373" from-port="2" to-layer="375" to-port="0"/>
		<edge from-layer="374" from-port="1" to-layer="375" to-port="1"/>
		<edge from-layer="375" from-port="2" to-layer="376" to-port="0"/>
		<edge from-layer="376" from-port="1" to-layer="378" to-port="0"/>
		<edge from-layer="377" from-port="1" to-layer="378" to-port="1"/>
		<edge from-layer="378" from-port="2" to-layer="380" to-port="0"/>
		<edge from-layer="379" from-port="1" to-layer="380" to-port="1"/>
		<edge from-layer="380" from-port="2" to-layer="381" to-port="0"/>
		<edge from-layer="0" from-port="1" to-layer="382" to-port="0"/>
		<edge from-layer="381" from-port="1" to-layer="382" to-port="1"/>
		<edge from-layer="382" from-port="2" to-layer="383" to-port="0"/>
		<edge from-layer="370" from-port="2" to-layer="383" to-port="1"/>
		<edge from-layer="383" from-port="2" to-layer="386" to-port="0"/>
		<edge from-layer="385" from-port="1" to-layer="386" to-port="1"/>
		<edge from-layer="386" from-port="2" to-layer="387" to-port="0"/>
		<edge from-layer="384" from-port="1" to-layer="388" to-port="0"/>
		<edge from-layer="387" from-port="1" to-layer="388" to-port="1"/>
		<edge from-layer="383" from-port="2" to-layer="389" to-port="0"/>
		<edge from-layer="388" from-port="2" to-layer="389" to-port="1"/>
		<edge from-layer="389" from-port="2" to-layer="391" to-port="0"/>
		<edge from-layer="390" from-port="1" to-layer="391" to-port="1"/>
		<edge from-layer="391" from-port="2" to-layer="393" to-port="0"/>
		<edge from-layer="392" from-port="1" to-layer="393" to-port="1"/>
		<edge from-layer="393" from-port="2" to-layer="396" to-port="0"/>
		<edge from-layer="395" from-port="1" to-layer="396" to-port="1"/>
		<edge from-layer="396" from-port="2" to-layer="398" to-port="0"/>
		<edge from-layer="397" from-port="1" to-layer="398" to-port="1"/>
		<edge from-layer="398" from-port="2" to-layer="401" to-port="0"/>
		<edge from-layer="400" from-port="1" to-layer="401" to-port="1"/>
		<edge from-layer="401" from-port="2" to-layer="402" to-port="0"/>
		<edge from-layer="399" from-port="1" to-layer="403" to-port="0"/>
		<edge from-layer="402" from-port="1" to-layer="403" to-port="1"/>
		<edge from-layer="398" from-port="2" to-layer="404" to-port="0"/>
		<edge from-layer="403" from-port="2" to-layer="404" to-port="1"/>
		<edge from-layer="404" from-port="2" to-layer="406" to-port="0"/>
		<edge from-layer="405" from-port="1" to-layer="406" to-port="1"/>
		<edge from-layer="406" from-port="2" to-layer="408" to-port="0"/>
		<edge from-layer="407" from-port="1" to-layer="408" to-port="1"/>
		<edge from-layer="408" from-port="2" to-layer="409" to-port="0"/>
		<edge from-layer="409" from-port="1" to-layer="411" to-port="0"/>
		<edge from-layer="410" from-port="1" to-layer="411" to-port="1"/>
		<edge from-layer="411" from-port="2" to-layer="413" to-port="0"/>
		<edge from-layer="412" from-port="1" to-layer="413" to-port="1"/>
		<edge from-layer="413" from-port="2" to-layer="414" to-port="0"/>
		<edge from-layer="414" from-port="1" to-layer="416" to-port="0"/>
		<edge from-layer="415" from-port="1" to-layer="416" to-port="1"/>
		<edge from-layer="416" from-port="2" to-layer="418" to-port="0"/>
		<edge from-layer="417" from-port="1" to-layer="418" to-port="1"/>
		<edge from-layer="418" from-port="2" to-layer="419" to-port="0"/>
		<edge from-layer="394" from-port="1" to-layer="420" to-port="0"/>
		<edge from-layer="419" from-port="1" to-layer="420" to-port="1"/>
		<edge from-layer="420" from-port="2" to-layer="421" to-port="0"/>
		<edge from-layer="408" from-port="2" to-layer="421" to-port="1"/>
		<edge from-layer="421" from-port="2" to-layer="424" to-port="0"/>
		<edge from-layer="423" from-port="1" to-layer="424" to-port="1"/>
		<edge from-layer="424" from-port="2" to-layer="425" to-port="0"/>
		<edge from-layer="422" from-port="1" to-layer="426" to-port="0"/>
		<edge from-layer="425" from-port="1" to-layer="426" to-port="1"/>
		<edge from-layer="421" from-port="2" to-layer="427" to-port="0"/>
		<edge from-layer="426" from-port="2" to-layer="427" to-port="1"/>
		<edge from-layer="427" from-port="2" to-layer="429" to-port="0"/>
		<edge from-layer="428" from-port="1" to-layer="429" to-port="1"/>
		<edge from-layer="429" from-port="2" to-layer="431" to-port="0"/>
		<edge from-layer="430" from-port="1" to-layer="431" to-port="1"/>
		<edge from-layer="393" from-port="2" to-layer="432" to-port="0"/>
		<edge from-layer="431" from-port="2" to-layer="432" to-port="1"/>
		<edge from-layer="432" from-port="2" to-layer="434" to-port="0"/>
		<edge from-layer="433" from-port="1" to-layer="434" to-port="1"/>
		<edge from-layer="434" from-port="2" to-layer="436" to-port="0"/>
		<edge from-layer="435" from-port="1" to-layer="436" to-port="1"/>
		<edge from-layer="436" from-port="2" to-layer="439" to-port="0"/>
		<edge from-layer="438" from-port="1" to-layer="439" to-port="1"/>
		<edge from-layer="439" from-port="2" to-layer="440" to-port="0"/>
		<edge from-layer="437" from-port="1" to-layer="441" to-port="0"/>
		<edge from-layer="440" from-port="1" to-layer="441" to-port="1"/>
		<edge from-layer="436" from-port="2" to-layer="442" to-port="0"/>
		<edge from-layer="441" from-port="2" to-layer="442" to-port="1"/>
		<edge from-layer="442" from-port="2" to-layer="443" to-port="0"/>
		<edge from-layer="443" from-port="1" to-layer="445" to-port="0"/>
		<edge from-layer="444" from-port="1" to-layer="445" to-port="1"/>
		<edge from-layer="445" from-port="2" to-layer="447" to-port="0"/>
		<edge from-layer="446" from-port="1" to-layer="447" to-port="1"/>
		<edge from-layer="447" from-port="2" to-layer="449" to-port="0"/>
		<edge from-layer="448" from-port="1" to-layer="449" to-port="1"/>
		<edge from-layer="449" from-port="2" to-layer="451" to-port="0"/>
		<edge from-layer="450" from-port="1" to-layer="451" to-port="1"/>
		<edge from-layer="451" from-port="2" to-layer="453" to-port="0"/>
		<edge from-layer="452" from-port="1" to-layer="453" to-port="1"/>
		<edge from-layer="453" from-port="2" to-layer="455" to-port="0"/>
		<edge from-layer="454" from-port="1" to-layer="455" to-port="1"/>
		<edge from-layer="455" from-port="2" to-layer="456" to-port="0"/>
	</edges>
	<meta_data>
		<MO_version value="2020.1.0-55-g3b9c198827"/>
		<cli_parameters>
			<blobs_as_inputs value="True"/>
			<caffe_parser_path value="DIR"/>
			<data_type value="FP32"/>
			<disable_nhwc_to_nchw value="False"/>
			<disable_omitting_optional value="False"/>
			<disable_resnet_optimization value="False"/>
			<enable_concat_optimization value="False"/>
			<enable_flattening_nested_params value="False"/>
			<enable_ssd_gluoncv value="False"/>
			<extensions value="DIR"/>
			<framework value="onnx"/>
			<freeze_placeholder_with_value value="{}"/>
			<generate_deprecated_IR_V2 value="False"/>
			<generate_deprecated_IR_V7 value="False"/>
			<generate_experimental_IR_V10 value="True"/>
			<input value="input"/>
			<input_model value="DIR/v155_e29.onnx"/>
			<input_model_is_text value="False"/>
			<input_shape value="[1,3,16,224,224]"/>
			<k value="DIR/CustomLayersMapping.xml"/>
			<keep_quantize_ops_in_IR value="True"/>
			<keep_shape_ops value="False"/>
			<legacy_mxnet_model value="False"/>
			<log_level value="ERROR"/>
			<mean_scale_values value="{'input': {'scale': array([58.39501307, 57.12000914, 57.37501284]), 'mean': array([123.675, 116.28 , 103.53 ])}}"/>
			<mean_values value="input[123.675,116.28,103.53]"/>
			<model_name value="asl-recognition-0003"/>
			<move_to_preprocess value="False"/>
			<output value="['output']"/>
			<output_dir value="DIR"/>
			<placeholder_data_types value="{}"/>
			<placeholder_shapes value="{'input': array([  1,   3,  16, 224, 224])}"/>
			<progress value="False"/>
			<remove_memory value="False"/>
			<remove_output_softmax value="False"/>
			<reverse_input_channels value="False"/>
			<save_params_from_nd value="False"/>
			<scale_values value="input[58.39501306588417,57.12000913920146,57.37501283765912]"/>
			<silent value="False"/>
			<stream_output value="False"/>
			<unset unset_cli_parameters="batch, counts, disable_fusing, disable_gfusing, finegrain_fusing, input_checkpoint, input_meta_graph, input_proto, input_symbol, mean_file, mean_file_offsets, nd_prefix_name, pretrained_model_name, saved_model_dir, saved_model_tags, scale, tensorboard_logdir, tensorflow_custom_layer_libraries, tensorflow_custom_operations_config_update, tensorflow_object_detection_api_pipeline_config, tensorflow_operation_patterns, tensorflow_subgraph_patterns, tensorflow_use_custom_operations_config, transformations_config"/>
		</cli_parameters>
	</meta_data>
</net>
