<?xml version="1.0" ?>
<net name="person-reidentification-retail-0200" version="10">
	<layers>
		<layer id="0" name="data" type="Parameter" version="opset1">
			<data element_type="f32" shape="1,3,256,128"/>
			<output>
				<port id="0" precision="FP32">
					<dim>1</dim>
					<dim>3</dim>
					<dim>256</dim>
					<dim>128</dim>
				</port>
			</output>
		</layer>
		<layer id="1" name="data/reverse_input_channels32143/Concat32162_const1041_const" type="Const" version="opset1">
			<data element_type="f32" offset="0" shape="1,3,1,1" size="12"/>
			<output>
				<port id="1" precision="FP32">
					<dim>1</dim>
					<dim>3</dim>
					<dim>1</dim>
					<dim>1</dim>
				</port>
			</output>
		</layer>
		<layer id="2" name="Mul_/Fused_Mul_" type="Multiply" version="opset1">
			<input>
				<port id="0">
					<dim>1</dim>
					<dim>3</dim>
					<dim>256</dim>
					<dim>128</dim>
				</port>
				<port id="1">
					<dim>1</dim>
					<dim>3</dim>
					<dim>1</dim>
					<dim>1</dim>
				</port>
			</input>
			<output>
				<port id="2" precision="FP32">
					<dim>1</dim>
					<dim>3</dim>
					<dim>256</dim>
					<dim>128</dim>
				</port>
			</output>
		</layer>
		<layer id="3" name="data/reverse_input_channels32145/Concat32170_const1043_const" type="Const" version="opset1">
			<data element_type="f32" offset="12" shape="1,3,1,1" size="12"/>
			<output>
				<port id="1" precision="FP32">
					<dim>1</dim>
					<dim>3</dim>
					<dim>1</dim>
					<dim>1</dim>
				</port>
			</output>
		</layer>
		<layer id="4" name="Add_/Fused_Add_" type="Add" version="opset1">
			<input>
				<port id="0">
					<dim>1</dim>
					<dim>3</dim>
					<dim>256</dim>
					<dim>128</dim>
				</port>
				<port id="1">
					<dim>1</dim>
					<dim>3</dim>
					<dim>1</dim>
					<dim>1</dim>
				</port>
			</input>
			<output>
				<port id="2" precision="FP32">
					<dim>1</dim>
					<dim>3</dim>
					<dim>256</dim>
					<dim>128</dim>
				</port>
			</output>
		</layer>
		<layer id="5" name="62916295_const" type="Const" version="opset1">
			<data element_type="f32" offset="24" shape="" size="4"/>
			<output>
				<port id="1" precision="FP32"/>
			</output>
		</layer>
		<layer id="6" name="62926296_const" type="Const" version="opset1">
			<data element_type="f32" offset="28" shape="" size="4"/>
			<output>
				<port id="1" precision="FP32"/>
			</output>
		</layer>
		<layer id="7" name="62936297_const" type="Const" version="opset1">
			<data element_type="f32" offset="24" shape="" size="4"/>
			<output>
				<port id="1" precision="FP32"/>
			</output>
		</layer>
		<layer id="8" name="62946298_const" type="Const" version="opset1">
			<data element_type="f32" offset="28" shape="" size="4"/>
			<output>
				<port id="1" precision="FP32"/>
			</output>
		</layer>
		<layer id="9" name="584/fq_input_0" type="FakeQuantize" version="opset1">
			<data levels="256"/>
			<input>
				<port id="0">
					<dim>1</dim>
					<dim>3</dim>
					<dim>256</dim>
					<dim>128</dim>
				</port>
				<port id="1"/>
				<port id="2"/>
				<port id="3"/>
				<port id="4"/>
			</input>
			<output>
				<port id="5" precision="FP32">
					<dim>1</dim>
					<dim>3</dim>
					<dim>256</dim>
					<dim>128</dim>
				</port>
			</output>
		</layer>
		<layer id="10" name="data/reverse_input_channels/Concat32154_const1045_const" type="Const" version="opset1">
			<data element_type="f32" offset="32" shape="64,3,7,7" size="37632"/>
			<output>
				<port id="1" precision="FP32">
					<dim>64</dim>
					<dim>3</dim>
					<dim>7</dim>
					<dim>7</dim>
				</port>
			</output>
		</layer>
		<layer id="11" name="63016305_const" type="Const" version="opset1">
			<data element_type="f32" offset="37664" shape="64,1,1,1" size="256"/>
			<output>
				<port id="1" precision="FP32">
					<dim>64</dim>
					<dim>1</dim>
					<dim>1</dim>
					<dim>1</dim>
				</port>
			</output>
		</layer>
		<layer id="12" name="63026306_const" type="Const" version="opset1">
			<data element_type="f32" offset="37920" shape="64,1,1,1" size="256"/>
			<output>
				<port id="1" precision="FP32">
					<dim>64</dim>
					<dim>1</dim>
					<dim>1</dim>
					<dim>1</dim>
				</port>
			</output>
		</layer>
		<layer id="13" name="63036307_const" type="Const" version="opset1">
			<data element_type="f32" offset="38176" shape="64,1,1,1" size="256"/>
			<output>
				<port id="1" precision="FP32">
					<dim>64</dim>
					<dim>1</dim>
					<dim>1</dim>
					<dim>1</dim>
				</port>
			</output>
		</layer>
		<layer id="14" name="63046308_const" type="Const" version="opset1">
			<data element_type="f32" offset="38432" shape="64,1,1,1" size="256"/>
			<output>
				<port id="1" precision="FP32">
					<dim>64</dim>
					<dim>1</dim>
					<dim>1</dim>
					<dim>1</dim>
				</port>
			</output>
		</layer>
		<layer id="15" name="584/fq_weights_1" type="FakeQuantize" version="opset1">
			<data levels="255"/>
			<input>
				<port id="0">
					<dim>64</dim>
					<dim>3</dim>
					<dim>7</dim>
					<dim>7</dim>
				</port>
				<port id="1">
					<dim>64</dim>
					<dim>1</dim>
					<dim>1</dim>
					<dim>1</dim>
				</port>
				<port id="2">
					<dim>64</dim>
					<dim>1</dim>
					<dim>1</dim>
					<dim>1</dim>
				</port>
				<port id="3">
					<dim>64</dim>
					<dim>1</dim>
					<dim>1</dim>
					<dim>1</dim>
				</port>
				<port id="4">
					<dim>64</dim>
					<dim>1</dim>
					<dim>1</dim>
					<dim>1</dim>
				</port>
			</input>
			<output>
				<port id="5" precision="FP32">
					<dim>64</dim>
					<dim>3</dim>
					<dim>7</dim>
					<dim>7</dim>
				</port>
			</output>
		</layer>
		<layer id="16" name="584" type="Convolution" version="opset1">
			<data dilations="1,1" output_padding="0,0" pads_begin="3,3" pads_end="3,3" strides="2,2"/>
			<input>
				<port id="0">
					<dim>1</dim>
					<dim>3</dim>
					<dim>256</dim>
					<dim>128</dim>
				</port>
				<port id="1">
					<dim>64</dim>
					<dim>3</dim>
					<dim>7</dim>
					<dim>7</dim>
				</port>
			</input>
			<output>
				<port id="2" precision="FP32">
					<dim>1</dim>
					<dim>64</dim>
					<dim>128</dim>
					<dim>64</dim>
				</port>
			</output>
		</layer>
		<layer id="17" name="data_add_1909719102/copy_const1047_const" type="Const" version="opset1">
			<data element_type="f32" offset="38688" shape="1,64,1,1" size="256"/>
			<output>
				<port id="1" precision="FP32">
					<dim>1</dim>
					<dim>64</dim>
					<dim>1</dim>
					<dim>1</dim>
				</port>
			</output>
		</layer>
		<layer id="18" name="Add1_/Fused_Add_" type="Add" version="opset1">
			<input>
				<port id="0">
					<dim>1</dim>
					<dim>64</dim>
					<dim>128</dim>
					<dim>64</dim>
				</port>
				<port id="1">
					<dim>1</dim>
					<dim>64</dim>
					<dim>1</dim>
					<dim>1</dim>
				</port>
			</input>
			<output>
				<port id="2" precision="FP32">
					<dim>1</dim>
					<dim>64</dim>
					<dim>128</dim>
					<dim>64</dim>
				</port>
			</output>
		</layer>
		<layer id="19" name="586" type="ReLU" version="opset1">
			<input>
				<port id="0">
					<dim>1</dim>
					<dim>64</dim>
					<dim>128</dim>
					<dim>64</dim>
				</port>
			</input>
			<output>
				<port id="1" precision="FP32">
					<dim>1</dim>
					<dim>64</dim>
					<dim>128</dim>
					<dim>64</dim>
				</port>
			</output>
		</layer>
		<layer id="20" name="92359239_const" type="Const" version="opset1">
			<data element_type="f32" offset="38944" shape="" size="4"/>
			<output>
				<port id="1" precision="FP32"/>
			</output>
		</layer>
		<layer id="21" name="92369240_const" type="Const" version="opset1">
			<data element_type="f32" offset="38948" shape="" size="4"/>
			<output>
				<port id="1" precision="FP32"/>
			</output>
		</layer>
		<layer id="22" name="92379241_const" type="Const" version="opset1">
			<data element_type="f32" offset="38944" shape="" size="4"/>
			<output>
				<port id="1" precision="FP32"/>
			</output>
		</layer>
		<layer id="23" name="92389242_const" type="Const" version="opset1">
			<data element_type="f32" offset="38948" shape="" size="4"/>
			<output>
				<port id="1" precision="FP32"/>
			</output>
		</layer>
		<layer id="24" name="587/fq_input_0" type="FakeQuantize" version="opset1">
			<data levels="256"/>
			<input>
				<port id="0">
					<dim>1</dim>
					<dim>64</dim>
					<dim>128</dim>
					<dim>64</dim>
				</port>
				<port id="1"/>
				<port id="2"/>
				<port id="3"/>
				<port id="4"/>
			</input>
			<output>
				<port id="5" precision="FP32">
					<dim>1</dim>
					<dim>64</dim>
					<dim>128</dim>
					<dim>64</dim>
				</port>
			</output>
		</layer>
		<layer id="25" name="587" type="MaxPool" version="opset1">
			<data kernel="3,3" pads_begin="1,1" pads_end="1,1" rounding_type="floor" strides="2,2"/>
			<input>
				<port id="0">
					<dim>1</dim>
					<dim>64</dim>
					<dim>128</dim>
					<dim>64</dim>
				</port>
			</input>
			<output>
				<port id="1" precision="FP32">
					<dim>1</dim>
					<dim>64</dim>
					<dim>64</dim>
					<dim>32</dim>
				</port>
			</output>
		</layer>
		<layer id="26" name="Mul1_16930/Fused_Mul_2085420856_const1051_const" type="Const" version="opset1">
			<data element_type="f32" offset="38952" shape="64,64,1,1" size="16384"/>
			<output>
				<port id="1" precision="FP32">
					<dim>64</dim>
					<dim>64</dim>
					<dim>1</dim>
					<dim>1</dim>
				</port>
			</output>
		</layer>
		<layer id="27" name="66116615_const" type="Const" version="opset1">
			<data element_type="f32" offset="55336" shape="64,1,1,1" size="256"/>
			<output>
				<port id="1" precision="FP32">
					<dim>64</dim>
					<dim>1</dim>
					<dim>1</dim>
					<dim>1</dim>
				</port>
			</output>
		</layer>
		<layer id="28" name="66126616_const" type="Const" version="opset1">
			<data element_type="f32" offset="55592" shape="64,1,1,1" size="256"/>
			<output>
				<port id="1" precision="FP32">
					<dim>64</dim>
					<dim>1</dim>
					<dim>1</dim>
					<dim>1</dim>
				</port>
			</output>
		</layer>
		<layer id="29" name="66136617_const" type="Const" version="opset1">
			<data element_type="f32" offset="55336" shape="64,1,1,1" size="256"/>
			<output>
				<port id="1" precision="FP32">
					<dim>64</dim>
					<dim>1</dim>
					<dim>1</dim>
					<dim>1</dim>
				</port>
			</output>
		</layer>
		<layer id="30" name="66146618_const" type="Const" version="opset1">
			<data element_type="f32" offset="55592" shape="64,1,1,1" size="256"/>
			<output>
				<port id="1" precision="FP32">
					<dim>64</dim>
					<dim>1</dim>
					<dim>1</dim>
					<dim>1</dim>
				</port>
			</output>
		</layer>
		<layer id="31" name="588/fq_weights_1" type="FakeQuantize" version="opset1">
			<data levels="255"/>
			<input>
				<port id="0">
					<dim>64</dim>
					<dim>64</dim>
					<dim>1</dim>
					<dim>1</dim>
				</port>
				<port id="1">
					<dim>64</dim>
					<dim>1</dim>
					<dim>1</dim>
					<dim>1</dim>
				</port>
				<port id="2">
					<dim>64</dim>
					<dim>1</dim>
					<dim>1</dim>
					<dim>1</dim>
				</port>
				<port id="3">
					<dim>64</dim>
					<dim>1</dim>
					<dim>1</dim>
					<dim>1</dim>
				</port>
				<port id="4">
					<dim>64</dim>
					<dim>1</dim>
					<dim>1</dim>
					<dim>1</dim>
				</port>
			</input>
			<output>
				<port id="5" precision="FP32">
					<dim>64</dim>
					<dim>64</dim>
					<dim>1</dim>
					<dim>1</dim>
				</port>
			</output>
		</layer>
		<layer id="32" name="588" type="Convolution" version="opset1">
			<data dilations="1,1" output_padding="0,0" pads_begin="0,0" pads_end="0,0" strides="1,1"/>
			<input>
				<port id="0">
					<dim>1</dim>
					<dim>64</dim>
					<dim>64</dim>
					<dim>32</dim>
				</port>
				<port id="1">
					<dim>64</dim>
					<dim>64</dim>
					<dim>1</dim>
					<dim>1</dim>
				</port>
			</input>
			<output>
				<port id="2" precision="FP32">
					<dim>1</dim>
					<dim>64</dim>
					<dim>64</dim>
					<dim>32</dim>
				</port>
			</output>
		</layer>
		<layer id="33" name="data_add_1911319118/copy_const1053_const" type="Const" version="opset1">
			<data element_type="f32" offset="55848" shape="1,64,1,1" size="256"/>
			<output>
				<port id="1" precision="FP32">
					<dim>1</dim>
					<dim>64</dim>
					<dim>1</dim>
					<dim>1</dim>
				</port>
			</output>
		</layer>
		<layer id="34" name="Add1_16931/Fused_Add_" type="Add" version="opset1">
			<input>
				<port id="0">
					<dim>1</dim>
					<dim>64</dim>
					<dim>64</dim>
					<dim>32</dim>
				</port>
				<port id="1">
					<dim>1</dim>
					<dim>64</dim>
					<dim>1</dim>
					<dim>1</dim>
				</port>
			</input>
			<output>
				<port id="2" precision="FP32">
					<dim>1</dim>
					<dim>64</dim>
					<dim>64</dim>
					<dim>32</dim>
				</port>
			</output>
		</layer>
		<layer id="35" name="590" type="ReLU" version="opset1">
			<input>
				<port id="0">
					<dim>1</dim>
					<dim>64</dim>
					<dim>64</dim>
					<dim>32</dim>
				</port>
			</input>
			<output>
				<port id="1" precision="FP32">
					<dim>1</dim>
					<dim>64</dim>
					<dim>64</dim>
					<dim>32</dim>
				</port>
			</output>
		</layer>
		<layer id="36" name="67516755_const" type="Const" version="opset1">
			<data element_type="f32" offset="38944" shape="" size="4"/>
			<output>
				<port id="1" precision="FP32"/>
			</output>
		</layer>
		<layer id="37" name="67526756_const" type="Const" version="opset1">
			<data element_type="f32" offset="56104" shape="" size="4"/>
			<output>
				<port id="1" precision="FP32"/>
			</output>
		</layer>
		<layer id="38" name="67536757_const" type="Const" version="opset1">
			<data element_type="f32" offset="38944" shape="" size="4"/>
			<output>
				<port id="1" precision="FP32"/>
			</output>
		</layer>
		<layer id="39" name="67546758_const" type="Const" version="opset1">
			<data element_type="f32" offset="56104" shape="" size="4"/>
			<output>
				<port id="1" precision="FP32"/>
			</output>
		</layer>
		<layer id="40" name="591/fq_input_0" type="FakeQuantize" version="opset1">
			<data levels="256"/>
			<input>
				<port id="0">
					<dim>1</dim>
					<dim>64</dim>
					<dim>64</dim>
					<dim>32</dim>
				</port>
				<port id="1"/>
				<port id="2"/>
				<port id="3"/>
				<port id="4"/>
			</input>
			<output>
				<port id="5" precision="FP32">
					<dim>1</dim>
					<dim>64</dim>
					<dim>64</dim>
					<dim>32</dim>
				</port>
			</output>
		</layer>
		<layer id="41" name="onnx_initializer_node_conv2.0.conv2a.conv1.weight/Output_0/Data__const1056_const" type="Const" version="opset1">
			<data element_type="f32" offset="56108" shape="64,64,1,1" size="16384"/>
			<output>
				<port id="1" precision="FP32">
					<dim>64</dim>
					<dim>64</dim>
					<dim>1</dim>
					<dim>1</dim>
				</port>
			</output>
		</layer>
		<layer id="42" name="67616765_const" type="Const" version="opset1">
			<data element_type="f32" offset="72492" shape="64,1,1,1" size="256"/>
			<output>
				<port id="1" precision="FP32">
					<dim>64</dim>
					<dim>1</dim>
					<dim>1</dim>
					<dim>1</dim>
				</port>
			</output>
		</layer>
		<layer id="43" name="67626766_const" type="Const" version="opset1">
			<data element_type="f32" offset="72748" shape="64,1,1,1" size="256"/>
			<output>
				<port id="1" precision="FP32">
					<dim>64</dim>
					<dim>1</dim>
					<dim>1</dim>
					<dim>1</dim>
				</port>
			</output>
		</layer>
		<layer id="44" name="67636767_const" type="Const" version="opset1">
			<data element_type="f32" offset="72492" shape="64,1,1,1" size="256"/>
			<output>
				<port id="1" precision="FP32">
					<dim>64</dim>
					<dim>1</dim>
					<dim>1</dim>
					<dim>1</dim>
				</port>
			</output>
		</layer>
		<layer id="45" name="67646768_const" type="Const" version="opset1">
			<data element_type="f32" offset="72748" shape="64,1,1,1" size="256"/>
			<output>
				<port id="1" precision="FP32">
					<dim>64</dim>
					<dim>1</dim>
					<dim>1</dim>
					<dim>1</dim>
				</port>
			</output>
		</layer>
		<layer id="46" name="591/fq_weights_1" type="FakeQuantize" version="opset1">
			<data levels="255"/>
			<input>
				<port id="0">
					<dim>64</dim>
					<dim>64</dim>
					<dim>1</dim>
					<dim>1</dim>
				</port>
				<port id="1">
					<dim>64</dim>
					<dim>1</dim>
					<dim>1</dim>
					<dim>1</dim>
				</port>
				<port id="2">
					<dim>64</dim>
					<dim>1</dim>
					<dim>1</dim>
					<dim>1</dim>
				</port>
				<port id="3">
					<dim>64</dim>
					<dim>1</dim>
					<dim>1</dim>
					<dim>1</dim>
				</port>
				<port id="4">
					<dim>64</dim>
					<dim>1</dim>
					<dim>1</dim>
					<dim>1</dim>
				</port>
			</input>
			<output>
				<port id="5" precision="FP32">
					<dim>64</dim>
					<dim>64</dim>
					<dim>1</dim>
					<dim>1</dim>
				</port>
			</output>
		</layer>
		<layer id="47" name="591" type="Convolution" version="opset1">
			<data dilations="1,1" output_padding="0,0" pads_begin="0,0" pads_end="0,0" strides="1,1"/>
			<input>
				<port id="0">
					<dim>1</dim>
					<dim>64</dim>
					<dim>64</dim>
					<dim>32</dim>
				</port>
				<port id="1">
					<dim>64</dim>
					<dim>64</dim>
					<dim>1</dim>
					<dim>1</dim>
				</port>
			</input>
			<output>
				<port id="2" precision="FP32">
					<dim>1</dim>
					<dim>64</dim>
					<dim>64</dim>
					<dim>32</dim>
				</port>
			</output>
		</layer>
		<layer id="48" name="50715075_const" type="Const" version="opset1">
			<data element_type="f32" offset="73004" shape="1,64,1,1" size="256"/>
			<output>
				<port id="1" precision="FP32">
					<dim>1</dim>
					<dim>64</dim>
					<dim>1</dim>
					<dim>1</dim>
				</port>
			</output>
		</layer>
		<layer id="49" name="50725076_const" type="Const" version="opset1">
			<data element_type="f32" offset="73260" shape="1,64,1,1" size="256"/>
			<output>
				<port id="1" precision="FP32">
					<dim>1</dim>
					<dim>64</dim>
					<dim>1</dim>
					<dim>1</dim>
				</port>
			</output>
		</layer>
		<layer id="50" name="50735077_const" type="Const" version="opset1">
			<data element_type="f32" offset="73004" shape="1,64,1,1" size="256"/>
			<output>
				<port id="1" precision="FP32">
					<dim>1</dim>
					<dim>64</dim>
					<dim>1</dim>
					<dim>1</dim>
				</port>
			</output>
		</layer>
		<layer id="51" name="50745078_const" type="Const" version="opset1">
			<data element_type="f32" offset="73260" shape="1,64,1,1" size="256"/>
			<output>
				<port id="1" precision="FP32">
					<dim>1</dim>
					<dim>64</dim>
					<dim>1</dim>
					<dim>1</dim>
				</port>
			</output>
		</layer>
		<layer id="52" name="592/fq_input_0" type="FakeQuantize" version="opset1">
			<data levels="256"/>
			<input>
				<port id="0">
					<dim>1</dim>
					<dim>64</dim>
					<dim>64</dim>
					<dim>32</dim>
				</port>
				<port id="1">
					<dim>1</dim>
					<dim>64</dim>
					<dim>1</dim>
					<dim>1</dim>
				</port>
				<port id="2">
					<dim>1</dim>
					<dim>64</dim>
					<dim>1</dim>
					<dim>1</dim>
				</port>
				<port id="3">
					<dim>1</dim>
					<dim>64</dim>
					<dim>1</dim>
					<dim>1</dim>
				</port>
				<port id="4">
					<dim>1</dim>
					<dim>64</dim>
					<dim>1</dim>
					<dim>1</dim>
				</port>
			</input>
			<output>
				<port id="5" precision="FP32">
					<dim>1</dim>
					<dim>64</dim>
					<dim>64</dim>
					<dim>32</dim>
				</port>
			</output>
		</layer>
		<layer id="53" name="22041958_const" type="Const" version="opset1">
			<data element_type="f32" offset="73516" shape="64,1,3,3" size="2304"/>
			<output>
				<port id="1" precision="FP32">
					<dim>64</dim>
					<dim>1</dim>
					<dim>3</dim>
					<dim>3</dim>
				</port>
			</output>
		</layer>
		<layer id="54" name="50815085_const" type="Const" version="opset1">
			<data element_type="f32" offset="75820" shape="64,1,1,1" size="256"/>
			<output>
				<port id="1" precision="FP32">
					<dim>64</dim>
					<dim>1</dim>
					<dim>1</dim>
					<dim>1</dim>
				</port>
			</output>
		</layer>
		<layer id="55" name="50825086_const" type="Const" version="opset1">
			<data element_type="f32" offset="76076" shape="64,1,1,1" size="256"/>
			<output>
				<port id="1" precision="FP32">
					<dim>64</dim>
					<dim>1</dim>
					<dim>1</dim>
					<dim>1</dim>
				</port>
			</output>
		</layer>
		<layer id="56" name="50835087_const" type="Const" version="opset1">
			<data element_type="f32" offset="75820" shape="64,1,1,1" size="256"/>
			<output>
				<port id="1" precision="FP32">
					<dim>64</dim>
					<dim>1</dim>
					<dim>1</dim>
					<dim>1</dim>
				</port>
			</output>
		</layer>
		<layer id="57" name="50845088_const" type="Const" version="opset1">
			<data element_type="f32" offset="76076" shape="64,1,1,1" size="256"/>
			<output>
				<port id="1" precision="FP32">
					<dim>64</dim>
					<dim>1</dim>
					<dim>1</dim>
					<dim>1</dim>
				</port>
			</output>
		</layer>
		<layer id="58" name="592/fq_weights_1" type="FakeQuantize" version="opset1">
			<data levels="255"/>
			<input>
				<port id="0">
					<dim>64</dim>
					<dim>1</dim>
					<dim>3</dim>
					<dim>3</dim>
				</port>
				<port id="1">
					<dim>64</dim>
					<dim>1</dim>
					<dim>1</dim>
					<dim>1</dim>
				</port>
				<port id="2">
					<dim>64</dim>
					<dim>1</dim>
					<dim>1</dim>
					<dim>1</dim>
				</port>
				<port id="3">
					<dim>64</dim>
					<dim>1</dim>
					<dim>1</dim>
					<dim>1</dim>
				</port>
				<port id="4">
					<dim>64</dim>
					<dim>1</dim>
					<dim>1</dim>
					<dim>1</dim>
				</port>
			</input>
			<output>
				<port id="5" precision="FP32">
					<dim>64</dim>
					<dim>1</dim>
					<dim>3</dim>
					<dim>3</dim>
				</port>
			</output>
		</layer>
		<layer id="59" name="13420/value13422_const" type="Const" version="opset1">
			<data element_type="i64" offset="76332" shape="5" size="40"/>
			<output>
				<port id="1" precision="I64">
					<dim>5</dim>
				</port>
			</output>
		</layer>
		<layer id="60" name="13420" type="Reshape" version="opset1">
			<data special_zero="True"/>
			<input>
				<port id="0">
					<dim>64</dim>
					<dim>1</dim>
					<dim>3</dim>
					<dim>3</dim>
				</port>
				<port id="1">
					<dim>5</dim>
				</port>
			</input>
			<output>
				<port id="2" precision="FP32">
					<dim>64</dim>
					<dim>1</dim>
					<dim>1</dim>
					<dim>3</dim>
					<dim>3</dim>
				</port>
			</output>
		</layer>
		<layer id="61" name="592" type="GroupConvolution" version="opset1">
			<data dilations="1,1" output_padding="0,0" pads_begin="1,1" pads_end="1,1" strides="1,1"/>
			<input>
				<port id="0">
					<dim>1</dim>
					<dim>64</dim>
					<dim>64</dim>
					<dim>32</dim>
				</port>
				<port id="1">
					<dim>64</dim>
					<dim>1</dim>
					<dim>1</dim>
					<dim>3</dim>
					<dim>3</dim>
				</port>
			</input>
			<output>
				<port id="2" precision="FP32">
					<dim>1</dim>
					<dim>64</dim>
					<dim>64</dim>
					<dim>32</dim>
				</port>
			</output>
		</layer>
		<layer id="62" name="data_add_1919319198/copy_const1060_const" type="Const" version="opset1">
			<data element_type="f32" offset="76372" shape="1,64,1,1" size="256"/>
			<output>
				<port id="1" precision="FP32">
					<dim>1</dim>
					<dim>64</dim>
					<dim>1</dim>
					<dim>1</dim>
				</port>
			</output>
		</layer>
		<layer id="63" name="Add1_16943/Fused_Add_" type="Add" version="opset1">
			<input>
				<port id="0">
					<dim>1</dim>
					<dim>64</dim>
					<dim>64</dim>
					<dim>32</dim>
				</port>
				<port id="1">
					<dim>1</dim>
					<dim>64</dim>
					<dim>1</dim>
					<dim>1</dim>
				</port>
			</input>
			<output>
				<port id="2" precision="FP32">
					<dim>1</dim>
					<dim>64</dim>
					<dim>64</dim>
					<dim>32</dim>
				</port>
			</output>
		</layer>
		<layer id="64" name="594" type="ReLU" version="opset1">
			<input>
				<port id="0">
					<dim>1</dim>
					<dim>64</dim>
					<dim>64</dim>
					<dim>32</dim>
				</port>
			</input>
			<output>
				<port id="1" precision="FP32">
					<dim>1</dim>
					<dim>64</dim>
					<dim>64</dim>
					<dim>32</dim>
				</port>
			</output>
		</layer>
		<layer id="65" name="29112915_const" type="Const" version="opset1">
			<data element_type="f32" offset="38944" shape="" size="4"/>
			<output>
				<port id="1" precision="FP32"/>
			</output>
		</layer>
		<layer id="66" name="29122916_const" type="Const" version="opset1">
			<data element_type="f32" offset="76628" shape="" size="4"/>
			<output>
				<port id="1" precision="FP32"/>
			</output>
		</layer>
		<layer id="67" name="29132917_const" type="Const" version="opset1">
			<data element_type="f32" offset="38944" shape="" size="4"/>
			<output>
				<port id="1" precision="FP32"/>
			</output>
		</layer>
		<layer id="68" name="29142918_const" type="Const" version="opset1">
			<data element_type="f32" offset="76628" shape="" size="4"/>
			<output>
				<port id="1" precision="FP32"/>
			</output>
		</layer>
		<layer id="69" name="631/reduce/fq_input_0" type="FakeQuantize" version="opset1">
			<data levels="256"/>
			<input>
				<port id="0">
					<dim>1</dim>
					<dim>64</dim>
					<dim>64</dim>
					<dim>32</dim>
				</port>
				<port id="1"/>
				<port id="2"/>
				<port id="3"/>
				<port id="4"/>
			</input>
			<output>
				<port id="5" precision="FP32">
					<dim>1</dim>
					<dim>64</dim>
					<dim>64</dim>
					<dim>32</dim>
				</port>
			</output>
		</layer>
		<layer id="70" name="631/reduce/Cast_134396_const1063_const" type="Const" version="opset1">
			<data element_type="i64" offset="76632" shape="2" size="16"/>
			<output>
				<port id="1" precision="I64">
					<dim>2</dim>
				</port>
			</output>
		</layer>
		<layer id="71" name="631/reduce" type="ReduceMean" version="opset1">
			<data keep_dims="True"/>
			<input>
				<port id="0">
					<dim>1</dim>
					<dim>64</dim>
					<dim>64</dim>
					<dim>32</dim>
				</port>
				<port id="1">
					<dim>2</dim>
				</port>
			</input>
			<output>
				<port id="2" precision="FP32">
					<dim>1</dim>
					<dim>64</dim>
					<dim>1</dim>
					<dim>1</dim>
				</port>
			</output>
		</layer>
		<layer id="72" name="Copy_onnx_initializer_node_conv2.0.gate.fc1.weight/Output_0/Data__const1065_const" type="Const" version="opset1">
			<data element_type="f32" offset="76648" shape="4,64,1,1" size="1024"/>
			<output>
				<port id="1" precision="FP32">
					<dim>4</dim>
					<dim>64</dim>
					<dim>1</dim>
					<dim>1</dim>
				</port>
			</output>
		</layer>
		<layer id="73" name="632/WithoutBiases" type="Convolution" version="opset1">
			<data dilations="1,1" output_padding="0,0" pads_begin="0,0" pads_end="0,0" strides="1,1"/>
			<input>
				<port id="0">
					<dim>1</dim>
					<dim>64</dim>
					<dim>1</dim>
					<dim>1</dim>
				</port>
				<port id="1">
					<dim>4</dim>
					<dim>64</dim>
					<dim>1</dim>
					<dim>1</dim>
				</port>
			</input>
			<output>
				<port id="2" precision="FP32">
					<dim>1</dim>
					<dim>4</dim>
					<dim>1</dim>
					<dim>1</dim>
				</port>
			</output>
		</layer>
		<layer id="74" name="632/Dims11969/copy_const1067_const" type="Const" version="opset1">
			<data element_type="f32" offset="77672" shape="1,4,1,1" size="16"/>
			<output>
				<port id="1" precision="FP32">
					<dim>1</dim>
					<dim>4</dim>
					<dim>1</dim>
					<dim>1</dim>
				</port>
			</output>
		</layer>
		<layer id="75" name="632" type="Add" version="opset1">
			<input>
				<port id="0">
					<dim>1</dim>
					<dim>4</dim>
					<dim>1</dim>
					<dim>1</dim>
				</port>
				<port id="1">
					<dim>1</dim>
					<dim>4</dim>
					<dim>1</dim>
					<dim>1</dim>
				</port>
			</input>
			<output>
				<port id="2" precision="FP32">
					<dim>1</dim>
					<dim>4</dim>
					<dim>1</dim>
					<dim>1</dim>
				</port>
			</output>
		</layer>
		<layer id="76" name="633" type="ReLU" version="opset1">
			<input>
				<port id="0">
					<dim>1</dim>
					<dim>4</dim>
					<dim>1</dim>
					<dim>1</dim>
				</port>
			</input>
			<output>
				<port id="1" precision="FP32">
					<dim>1</dim>
					<dim>4</dim>
					<dim>1</dim>
					<dim>1</dim>
				</port>
			</output>
		</layer>
		<layer id="77" name="Copy_onnx_initializer_node_conv2.0.gate.fc2.weight/Output_0/Data__const1070_const" type="Const" version="opset1">
			<data element_type="f32" offset="77688" shape="64,4,1,1" size="1024"/>
			<output>
				<port id="1" precision="FP32">
					<dim>64</dim>
					<dim>4</dim>
					<dim>1</dim>
					<dim>1</dim>
				</port>
			</output>
		</layer>
		<layer id="78" name="634/WithoutBiases" type="Convolution" version="opset1">
			<data dilations="1,1" output_padding="0,0" pads_begin="0,0" pads_end="0,0" strides="1,1"/>
			<input>
				<port id="0">
					<dim>1</dim>
					<dim>4</dim>
					<dim>1</dim>
					<dim>1</dim>
				</port>
				<port id="1">
					<dim>64</dim>
					<dim>4</dim>
					<dim>1</dim>
					<dim>1</dim>
				</port>
			</input>
			<output>
				<port id="2" precision="FP32">
					<dim>1</dim>
					<dim>64</dim>
					<dim>1</dim>
					<dim>1</dim>
				</port>
			</output>
		</layer>
		<layer id="79" name="634/Dims11801/copy_const1072_const" type="Const" version="opset1">
			<data element_type="f32" offset="78712" shape="1,64,1,1" size="256"/>
			<output>
				<port id="1" precision="FP32">
					<dim>1</dim>
					<dim>64</dim>
					<dim>1</dim>
					<dim>1</dim>
				</port>
			</output>
		</layer>
		<layer id="80" name="634" type="Add" version="opset1">
			<input>
				<port id="0">
					<dim>1</dim>
					<dim>64</dim>
					<dim>1</dim>
					<dim>1</dim>
				</port>
				<port id="1">
					<dim>1</dim>
					<dim>64</dim>
					<dim>1</dim>
					<dim>1</dim>
				</port>
			</input>
			<output>
				<port id="2" precision="FP32">
					<dim>1</dim>
					<dim>64</dim>
					<dim>1</dim>
					<dim>1</dim>
				</port>
			</output>
		</layer>
		<layer id="81" name="635" type="Sigmoid" version="opset1">
			<input>
				<port id="0">
					<dim>1</dim>
					<dim>64</dim>
					<dim>1</dim>
					<dim>1</dim>
				</port>
			</input>
			<output>
				<port id="1" precision="FP32">
					<dim>1</dim>
					<dim>64</dim>
					<dim>1</dim>
					<dim>1</dim>
				</port>
			</output>
		</layer>
		<layer id="82" name="44014405_const" type="Const" version="opset1">
			<data element_type="f32" offset="38944" shape="" size="4"/>
			<output>
				<port id="1" precision="FP32"/>
			</output>
		</layer>
		<layer id="83" name="44024406_const" type="Const" version="opset1">
			<data element_type="f32" offset="78968" shape="" size="4"/>
			<output>
				<port id="1" precision="FP32"/>
			</output>
		</layer>
		<layer id="84" name="44034407_const" type="Const" version="opset1">
			<data element_type="f32" offset="38944" shape="" size="4"/>
			<output>
				<port id="1" precision="FP32"/>
			</output>
		</layer>
		<layer id="85" name="44044408_const" type="Const" version="opset1">
			<data element_type="f32" offset="78968" shape="" size="4"/>
			<output>
				<port id="1" precision="FP32"/>
			</output>
		</layer>
		<layer id="86" name="636/fq_input_1" type="FakeQuantize" version="opset1">
			<data levels="256"/>
			<input>
				<port id="0">
					<dim>1</dim>
					<dim>64</dim>
					<dim>1</dim>
					<dim>1</dim>
				</port>
				<port id="1"/>
				<port id="2"/>
				<port id="3"/>
				<port id="4"/>
			</input>
			<output>
				<port id="5" precision="FP32">
					<dim>1</dim>
					<dim>64</dim>
					<dim>1</dim>
					<dim>1</dim>
				</port>
			</output>
		</layer>
		<layer id="87" name="636" type="Multiply" version="opset1">
			<input>
				<port id="0">
					<dim>1</dim>
					<dim>64</dim>
					<dim>64</dim>
					<dim>32</dim>
				</port>
				<port id="1">
					<dim>1</dim>
					<dim>64</dim>
					<dim>1</dim>
					<dim>1</dim>
				</port>
			</input>
			<output>
				<port id="2" precision="FP32">
					<dim>1</dim>
					<dim>64</dim>
					<dim>64</dim>
					<dim>32</dim>
				</port>
			</output>
		</layer>
		<layer id="88" name="57715775_const" type="Const" version="opset1">
			<data element_type="f32" offset="38944" shape="" size="4"/>
			<output>
				<port id="1" precision="FP32"/>
			</output>
		</layer>
		<layer id="89" name="57725776_const" type="Const" version="opset1">
			<data element_type="f32" offset="78972" shape="" size="4"/>
			<output>
				<port id="1" precision="FP32"/>
			</output>
		</layer>
		<layer id="90" name="57735777_const" type="Const" version="opset1">
			<data element_type="f32" offset="38944" shape="" size="4"/>
			<output>
				<port id="1" precision="FP32"/>
			</output>
		</layer>
		<layer id="91" name="57745778_const" type="Const" version="opset1">
			<data element_type="f32" offset="78972" shape="" size="4"/>
			<output>
				<port id="1" precision="FP32"/>
			</output>
		</layer>
		<layer id="92" name="643/fq_input_0" type="FakeQuantize" version="opset1">
			<data levels="256"/>
			<input>
				<port id="0">
					<dim>1</dim>
					<dim>64</dim>
					<dim>64</dim>
					<dim>32</dim>
				</port>
				<port id="1"/>
				<port id="2"/>
				<port id="3"/>
				<port id="4"/>
			</input>
			<output>
				<port id="5" precision="FP32">
					<dim>1</dim>
					<dim>64</dim>
					<dim>64</dim>
					<dim>32</dim>
				</port>
			</output>
		</layer>
		<layer id="93" name="onnx_initializer_node_conv2.0.conv2b.0.conv1.weight/Output_0/Data__const1076_const" type="Const" version="opset1">
			<data element_type="f32" offset="78976" shape="64,64,1,1" size="16384"/>
			<output>
				<port id="1" precision="FP32">
					<dim>64</dim>
					<dim>64</dim>
					<dim>1</dim>
					<dim>1</dim>
				</port>
			</output>
		</layer>
		<layer id="94" name="40814085_const" type="Const" version="opset1">
			<data element_type="f32" offset="95360" shape="64,1,1,1" size="256"/>
			<output>
				<port id="1" precision="FP32">
					<dim>64</dim>
					<dim>1</dim>
					<dim>1</dim>
					<dim>1</dim>
				</port>
			</output>
		</layer>
		<layer id="95" name="40824086_const" type="Const" version="opset1">
			<data element_type="f32" offset="95616" shape="64,1,1,1" size="256"/>
			<output>
				<port id="1" precision="FP32">
					<dim>64</dim>
					<dim>1</dim>
					<dim>1</dim>
					<dim>1</dim>
				</port>
			</output>
		</layer>
		<layer id="96" name="40834087_const" type="Const" version="opset1">
			<data element_type="f32" offset="95360" shape="64,1,1,1" size="256"/>
			<output>
				<port id="1" precision="FP32">
					<dim>64</dim>
					<dim>1</dim>
					<dim>1</dim>
					<dim>1</dim>
				</port>
			</output>
		</layer>
		<layer id="97" name="40844088_const" type="Const" version="opset1">
			<data element_type="f32" offset="95616" shape="64,1,1,1" size="256"/>
			<output>
				<port id="1" precision="FP32">
					<dim>64</dim>
					<dim>1</dim>
					<dim>1</dim>
					<dim>1</dim>
				</port>
			</output>
		</layer>
		<layer id="98" name="595/fq_weights_1" type="FakeQuantize" version="opset1">
			<data levels="255"/>
			<input>
				<port id="0">
					<dim>64</dim>
					<dim>64</dim>
					<dim>1</dim>
					<dim>1</dim>
				</port>
				<port id="1">
					<dim>64</dim>
					<dim>1</dim>
					<dim>1</dim>
					<dim>1</dim>
				</port>
				<port id="2">
					<dim>64</dim>
					<dim>1</dim>
					<dim>1</dim>
					<dim>1</dim>
				</port>
				<port id="3">
					<dim>64</dim>
					<dim>1</dim>
					<dim>1</dim>
					<dim>1</dim>
				</port>
				<port id="4">
					<dim>64</dim>
					<dim>1</dim>
					<dim>1</dim>
					<dim>1</dim>
				</port>
			</input>
			<output>
				<port id="5" precision="FP32">
					<dim>64</dim>
					<dim>64</dim>
					<dim>1</dim>
					<dim>1</dim>
				</port>
			</output>
		</layer>
		<layer id="99" name="595" type="Convolution" version="opset1">
			<data dilations="1,1" output_padding="0,0" pads_begin="0,0" pads_end="0,0" strides="1,1"/>
			<input>
				<port id="0">
					<dim>1</dim>
					<dim>64</dim>
					<dim>64</dim>
					<dim>32</dim>
				</port>
				<port id="1">
					<dim>64</dim>
					<dim>64</dim>
					<dim>1</dim>
					<dim>1</dim>
				</port>
			</input>
			<output>
				<port id="2" precision="FP32">
					<dim>1</dim>
					<dim>64</dim>
					<dim>64</dim>
					<dim>32</dim>
				</port>
			</output>
		</layer>
		<layer id="100" name="40914095_const" type="Const" version="opset1">
			<data element_type="f32" offset="95872" shape="1,64,1,1" size="256"/>
			<output>
				<port id="1" precision="FP32">
					<dim>1</dim>
					<dim>64</dim>
					<dim>1</dim>
					<dim>1</dim>
				</port>
			</output>
		</layer>
		<layer id="101" name="40924096_const" type="Const" version="opset1">
			<data element_type="f32" offset="96128" shape="1,64,1,1" size="256"/>
			<output>
				<port id="1" precision="FP32">
					<dim>1</dim>
					<dim>64</dim>
					<dim>1</dim>
					<dim>1</dim>
				</port>
			</output>
		</layer>
		<layer id="102" name="40934097_const" type="Const" version="opset1">
			<data element_type="f32" offset="95872" shape="1,64,1,1" size="256"/>
			<output>
				<port id="1" precision="FP32">
					<dim>1</dim>
					<dim>64</dim>
					<dim>1</dim>
					<dim>1</dim>
				</port>
			</output>
		</layer>
		<layer id="103" name="40944098_const" type="Const" version="opset1">
			<data element_type="f32" offset="96128" shape="1,64,1,1" size="256"/>
			<output>
				<port id="1" precision="FP32">
					<dim>1</dim>
					<dim>64</dim>
					<dim>1</dim>
					<dim>1</dim>
				</port>
			</output>
		</layer>
		<layer id="104" name="596/fq_input_0" type="FakeQuantize" version="opset1">
			<data levels="256"/>
			<input>
				<port id="0">
					<dim>1</dim>
					<dim>64</dim>
					<dim>64</dim>
					<dim>32</dim>
				</port>
				<port id="1">
					<dim>1</dim>
					<dim>64</dim>
					<dim>1</dim>
					<dim>1</dim>
				</port>
				<port id="2">
					<dim>1</dim>
					<dim>64</dim>
					<dim>1</dim>
					<dim>1</dim>
				</port>
				<port id="3">
					<dim>1</dim>
					<dim>64</dim>
					<dim>1</dim>
					<dim>1</dim>
				</port>
				<port id="4">
					<dim>1</dim>
					<dim>64</dim>
					<dim>1</dim>
					<dim>1</dim>
				</port>
			</input>
			<output>
				<port id="5" precision="FP32">
					<dim>1</dim>
					<dim>64</dim>
					<dim>64</dim>
					<dim>32</dim>
				</port>
			</output>
		</layer>
		<layer id="105" name="22081960_const" type="Const" version="opset1">
			<data element_type="f32" offset="96384" shape="64,1,3,3" size="2304"/>
			<output>
				<port id="1" precision="FP32">
					<dim>64</dim>
					<dim>1</dim>
					<dim>3</dim>
					<dim>3</dim>
				</port>
			</output>
		</layer>
		<layer id="106" name="41014105_const" type="Const" version="opset1">
			<data element_type="f32" offset="98688" shape="64,1,1,1" size="256"/>
			<output>
				<port id="1" precision="FP32">
					<dim>64</dim>
					<dim>1</dim>
					<dim>1</dim>
					<dim>1</dim>
				</port>
			</output>
		</layer>
		<layer id="107" name="41024106_const" type="Const" version="opset1">
			<data element_type="f32" offset="98944" shape="64,1,1,1" size="256"/>
			<output>
				<port id="1" precision="FP32">
					<dim>64</dim>
					<dim>1</dim>
					<dim>1</dim>
					<dim>1</dim>
				</port>
			</output>
		</layer>
		<layer id="108" name="41034107_const" type="Const" version="opset1">
			<data element_type="f32" offset="98688" shape="64,1,1,1" size="256"/>
			<output>
				<port id="1" precision="FP32">
					<dim>64</dim>
					<dim>1</dim>
					<dim>1</dim>
					<dim>1</dim>
				</port>
			</output>
		</layer>
		<layer id="109" name="41044108_const" type="Const" version="opset1">
			<data element_type="f32" offset="98944" shape="64,1,1,1" size="256"/>
			<output>
				<port id="1" precision="FP32">
					<dim>64</dim>
					<dim>1</dim>
					<dim>1</dim>
					<dim>1</dim>
				</port>
			</output>
		</layer>
		<layer id="110" name="596/fq_weights_1" type="FakeQuantize" version="opset1">
			<data levels="255"/>
			<input>
				<port id="0">
					<dim>64</dim>
					<dim>1</dim>
					<dim>3</dim>
					<dim>3</dim>
				</port>
				<port id="1">
					<dim>64</dim>
					<dim>1</dim>
					<dim>1</dim>
					<dim>1</dim>
				</port>
				<port id="2">
					<dim>64</dim>
					<dim>1</dim>
					<dim>1</dim>
					<dim>1</dim>
				</port>
				<port id="3">
					<dim>64</dim>
					<dim>1</dim>
					<dim>1</dim>
					<dim>1</dim>
				</port>
				<port id="4">
					<dim>64</dim>
					<dim>1</dim>
					<dim>1</dim>
					<dim>1</dim>
				</port>
			</input>
			<output>
				<port id="5" precision="FP32">
					<dim>64</dim>
					<dim>1</dim>
					<dim>3</dim>
					<dim>3</dim>
				</port>
			</output>
		</layer>
		<layer id="111" name="13292/value13294_const" type="Const" version="opset1">
			<data element_type="i64" offset="76332" shape="5" size="40"/>
			<output>
				<port id="1" precision="I64">
					<dim>5</dim>
				</port>
			</output>
		</layer>
		<layer id="112" name="13292" type="Reshape" version="opset1">
			<data special_zero="True"/>
			<input>
				<port id="0">
					<dim>64</dim>
					<dim>1</dim>
					<dim>3</dim>
					<dim>3</dim>
				</port>
				<port id="1">
					<dim>5</dim>
				</port>
			</input>
			<output>
				<port id="2" precision="FP32">
					<dim>64</dim>
					<dim>1</dim>
					<dim>1</dim>
					<dim>3</dim>
					<dim>3</dim>
				</port>
			</output>
		</layer>
		<layer id="113" name="596" type="GroupConvolution" version="opset1">
			<data dilations="1,1" output_padding="0,0" pads_begin="1,1" pads_end="1,1" strides="1,1"/>
			<input>
				<port id="0">
					<dim>1</dim>
					<dim>64</dim>
					<dim>64</dim>
					<dim>32</dim>
				</port>
				<port id="1">
					<dim>64</dim>
					<dim>1</dim>
					<dim>1</dim>
					<dim>3</dim>
					<dim>3</dim>
				</port>
			</input>
			<output>
				<port id="2" precision="FP32">
					<dim>1</dim>
					<dim>64</dim>
					<dim>64</dim>
					<dim>32</dim>
				</port>
			</output>
		</layer>
		<layer id="114" name="data_add_1917719182/copy_const1080_const" type="Const" version="opset1">
			<data element_type="f32" offset="99200" shape="1,64,1,1" size="256"/>
			<output>
				<port id="1" precision="FP32">
					<dim>1</dim>
					<dim>64</dim>
					<dim>1</dim>
					<dim>1</dim>
				</port>
			</output>
		</layer>
		<layer id="115" name="Add1_16955/Fused_Add_" type="Add" version="opset1">
			<input>
				<port id="0">
					<dim>1</dim>
					<dim>64</dim>
					<dim>64</dim>
					<dim>32</dim>
				</port>
				<port id="1">
					<dim>1</dim>
					<dim>64</dim>
					<dim>1</dim>
					<dim>1</dim>
				</port>
			</input>
			<output>
				<port id="2" precision="FP32">
					<dim>1</dim>
					<dim>64</dim>
					<dim>64</dim>
					<dim>32</dim>
				</port>
			</output>
		</layer>
		<layer id="116" name="598" type="ReLU" version="opset1">
			<input>
				<port id="0">
					<dim>1</dim>
					<dim>64</dim>
					<dim>64</dim>
					<dim>32</dim>
				</port>
			</input>
			<output>
				<port id="1" precision="FP32">
					<dim>1</dim>
					<dim>64</dim>
					<dim>64</dim>
					<dim>32</dim>
				</port>
			</output>
		</layer>
		<layer id="117" name="46114615_const" type="Const" version="opset1">
			<data element_type="f32" offset="38944" shape="" size="4"/>
			<output>
				<port id="1" precision="FP32"/>
			</output>
		</layer>
		<layer id="118" name="46124616_const" type="Const" version="opset1">
			<data element_type="f32" offset="99456" shape="" size="4"/>
			<output>
				<port id="1" precision="FP32"/>
			</output>
		</layer>
		<layer id="119" name="46134617_const" type="Const" version="opset1">
			<data element_type="f32" offset="38944" shape="" size="4"/>
			<output>
				<port id="1" precision="FP32"/>
			</output>
		</layer>
		<layer id="120" name="46144618_const" type="Const" version="opset1">
			<data element_type="f32" offset="99456" shape="" size="4"/>
			<output>
				<port id="1" precision="FP32"/>
			</output>
		</layer>
		<layer id="121" name="599/fq_input_0" type="FakeQuantize" version="opset1">
			<data levels="256"/>
			<input>
				<port id="0">
					<dim>1</dim>
					<dim>64</dim>
					<dim>64</dim>
					<dim>32</dim>
				</port>
				<port id="1"/>
				<port id="2"/>
				<port id="3"/>
				<port id="4"/>
			</input>
			<output>
				<port id="5" precision="FP32">
					<dim>1</dim>
					<dim>64</dim>
					<dim>64</dim>
					<dim>32</dim>
				</port>
			</output>
		</layer>
		<layer id="122" name="onnx_initializer_node_conv2.0.conv2b.1.conv1.weight/Output_0/Data__const1083_const" type="Const" version="opset1">
			<data element_type="f32" offset="99460" shape="64,64,1,1" size="16384"/>
			<output>
				<port id="1" precision="FP32">
					<dim>64</dim>
					<dim>64</dim>
					<dim>1</dim>
					<dim>1</dim>
				</port>
			</output>
		</layer>
		<layer id="123" name="46214625_const" type="Const" version="opset1">
			<data element_type="f32" offset="115844" shape="64,1,1,1" size="256"/>
			<output>
				<port id="1" precision="FP32">
					<dim>64</dim>
					<dim>1</dim>
					<dim>1</dim>
					<dim>1</dim>
				</port>
			</output>
		</layer>
		<layer id="124" name="46224626_const" type="Const" version="opset1">
			<data element_type="f32" offset="116100" shape="64,1,1,1" size="256"/>
			<output>
				<port id="1" precision="FP32">
					<dim>64</dim>
					<dim>1</dim>
					<dim>1</dim>
					<dim>1</dim>
				</port>
			</output>
		</layer>
		<layer id="125" name="46234627_const" type="Const" version="opset1">
			<data element_type="f32" offset="115844" shape="64,1,1,1" size="256"/>
			<output>
				<port id="1" precision="FP32">
					<dim>64</dim>
					<dim>1</dim>
					<dim>1</dim>
					<dim>1</dim>
				</port>
			</output>
		</layer>
		<layer id="126" name="46244628_const" type="Const" version="opset1">
			<data element_type="f32" offset="116100" shape="64,1,1,1" size="256"/>
			<output>
				<port id="1" precision="FP32">
					<dim>64</dim>
					<dim>1</dim>
					<dim>1</dim>
					<dim>1</dim>
				</port>
			</output>
		</layer>
		<layer id="127" name="599/fq_weights_1" type="FakeQuantize" version="opset1">
			<data levels="255"/>
			<input>
				<port id="0">
					<dim>64</dim>
					<dim>64</dim>
					<dim>1</dim>
					<dim>1</dim>
				</port>
				<port id="1">
					<dim>64</dim>
					<dim>1</dim>
					<dim>1</dim>
					<dim>1</dim>
				</port>
				<port id="2">
					<dim>64</dim>
					<dim>1</dim>
					<dim>1</dim>
					<dim>1</dim>
				</port>
				<port id="3">
					<dim>64</dim>
					<dim>1</dim>
					<dim>1</dim>
					<dim>1</dim>
				</port>
				<port id="4">
					<dim>64</dim>
					<dim>1</dim>
					<dim>1</dim>
					<dim>1</dim>
				</port>
			</input>
			<output>
				<port id="5" precision="FP32">
					<dim>64</dim>
					<dim>64</dim>
					<dim>1</dim>
					<dim>1</dim>
				</port>
			</output>
		</layer>
		<layer id="128" name="599" type="Convolution" version="opset1">
			<data dilations="1,1" output_padding="0,0" pads_begin="0,0" pads_end="0,0" strides="1,1"/>
			<input>
				<port id="0">
					<dim>1</dim>
					<dim>64</dim>
					<dim>64</dim>
					<dim>32</dim>
				</port>
				<port id="1">
					<dim>64</dim>
					<dim>64</dim>
					<dim>1</dim>
					<dim>1</dim>
				</port>
			</input>
			<output>
				<port id="2" precision="FP32">
					<dim>1</dim>
					<dim>64</dim>
					<dim>64</dim>
					<dim>32</dim>
				</port>
			</output>
		</layer>
		<layer id="129" name="35013505_const" type="Const" version="opset1">
			<data element_type="f32" offset="116356" shape="1,64,1,1" size="256"/>
			<output>
				<port id="1" precision="FP32">
					<dim>1</dim>
					<dim>64</dim>
					<dim>1</dim>
					<dim>1</dim>
				</port>
			</output>
		</layer>
		<layer id="130" name="35023506_const" type="Const" version="opset1">
			<data element_type="f32" offset="116612" shape="1,64,1,1" size="256"/>
			<output>
				<port id="1" precision="FP32">
					<dim>1</dim>
					<dim>64</dim>
					<dim>1</dim>
					<dim>1</dim>
				</port>
			</output>
		</layer>
		<layer id="131" name="35033507_const" type="Const" version="opset1">
			<data element_type="f32" offset="116356" shape="1,64,1,1" size="256"/>
			<output>
				<port id="1" precision="FP32">
					<dim>1</dim>
					<dim>64</dim>
					<dim>1</dim>
					<dim>1</dim>
				</port>
			</output>
		</layer>
		<layer id="132" name="35043508_const" type="Const" version="opset1">
			<data element_type="f32" offset="116612" shape="1,64,1,1" size="256"/>
			<output>
				<port id="1" precision="FP32">
					<dim>1</dim>
					<dim>64</dim>
					<dim>1</dim>
					<dim>1</dim>
				</port>
			</output>
		</layer>
		<layer id="133" name="600/fq_input_0" type="FakeQuantize" version="opset1">
			<data levels="256"/>
			<input>
				<port id="0">
					<dim>1</dim>
					<dim>64</dim>
					<dim>64</dim>
					<dim>32</dim>
				</port>
				<port id="1">
					<dim>1</dim>
					<dim>64</dim>
					<dim>1</dim>
					<dim>1</dim>
				</port>
				<port id="2">
					<dim>1</dim>
					<dim>64</dim>
					<dim>1</dim>
					<dim>1</dim>
				</port>
				<port id="3">
					<dim>1</dim>
					<dim>64</dim>
					<dim>1</dim>
					<dim>1</dim>
				</port>
				<port id="4">
					<dim>1</dim>
					<dim>64</dim>
					<dim>1</dim>
					<dim>1</dim>
				</port>
			</input>
			<output>
				<port id="5" precision="FP32">
					<dim>1</dim>
					<dim>64</dim>
					<dim>64</dim>
					<dim>32</dim>
				</port>
			</output>
		</layer>
		<layer id="134" name="22121962_const" type="Const" version="opset1">
			<data element_type="f32" offset="116868" shape="64,1,3,3" size="2304"/>
			<output>
				<port id="1" precision="FP32">
					<dim>64</dim>
					<dim>1</dim>
					<dim>3</dim>
					<dim>3</dim>
				</port>
			</output>
		</layer>
		<layer id="135" name="35113515_const" type="Const" version="opset1">
			<data element_type="f32" offset="119172" shape="64,1,1,1" size="256"/>
			<output>
				<port id="1" precision="FP32">
					<dim>64</dim>
					<dim>1</dim>
					<dim>1</dim>
					<dim>1</dim>
				</port>
			</output>
		</layer>
		<layer id="136" name="35123516_const" type="Const" version="opset1">
			<data element_type="f32" offset="119428" shape="64,1,1,1" size="256"/>
			<output>
				<port id="1" precision="FP32">
					<dim>64</dim>
					<dim>1</dim>
					<dim>1</dim>
					<dim>1</dim>
				</port>
			</output>
		</layer>
		<layer id="137" name="35133517_const" type="Const" version="opset1">
			<data element_type="f32" offset="119172" shape="64,1,1,1" size="256"/>
			<output>
				<port id="1" precision="FP32">
					<dim>64</dim>
					<dim>1</dim>
					<dim>1</dim>
					<dim>1</dim>
				</port>
			</output>
		</layer>
		<layer id="138" name="35143518_const" type="Const" version="opset1">
			<data element_type="f32" offset="119428" shape="64,1,1,1" size="256"/>
			<output>
				<port id="1" precision="FP32">
					<dim>64</dim>
					<dim>1</dim>
					<dim>1</dim>
					<dim>1</dim>
				</port>
			</output>
		</layer>
		<layer id="139" name="600/fq_weights_1" type="FakeQuantize" version="opset1">
			<data levels="255"/>
			<input>
				<port id="0">
					<dim>64</dim>
					<dim>1</dim>
					<dim>3</dim>
					<dim>3</dim>
				</port>
				<port id="1">
					<dim>64</dim>
					<dim>1</dim>
					<dim>1</dim>
					<dim>1</dim>
				</port>
				<port id="2">
					<dim>64</dim>
					<dim>1</dim>
					<dim>1</dim>
					<dim>1</dim>
				</port>
				<port id="3">
					<dim>64</dim>
					<dim>1</dim>
					<dim>1</dim>
					<dim>1</dim>
				</port>
				<port id="4">
					<dim>64</dim>
					<dim>1</dim>
					<dim>1</dim>
					<dim>1</dim>
				</port>
			</input>
			<output>
				<port id="5" precision="FP32">
					<dim>64</dim>
					<dim>1</dim>
					<dim>3</dim>
					<dim>3</dim>
				</port>
			</output>
		</layer>
		<layer id="140" name="13480/value13482_const" type="Const" version="opset1">
			<data element_type="i64" offset="76332" shape="5" size="40"/>
			<output>
				<port id="1" precision="I64">
					<dim>5</dim>
				</port>
			</output>
		</layer>
		<layer id="141" name="13480" type="Reshape" version="opset1">
			<data special_zero="True"/>
			<input>
				<port id="0">
					<dim>64</dim>
					<dim>1</dim>
					<dim>3</dim>
					<dim>3</dim>
				</port>
				<port id="1">
					<dim>5</dim>
				</port>
			</input>
			<output>
				<port id="2" precision="FP32">
					<dim>64</dim>
					<dim>1</dim>
					<dim>1</dim>
					<dim>3</dim>
					<dim>3</dim>
				</port>
			</output>
		</layer>
		<layer id="142" name="600" type="GroupConvolution" version="opset1">
			<data dilations="1,1" output_padding="0,0" pads_begin="1,1" pads_end="1,1" strides="1,1"/>
			<input>
				<port id="0">
					<dim>1</dim>
					<dim>64</dim>
					<dim>64</dim>
					<dim>32</dim>
				</port>
				<port id="1">
					<dim>64</dim>
					<dim>1</dim>
					<dim>1</dim>
					<dim>3</dim>
					<dim>3</dim>
				</port>
			</input>
			<output>
				<port id="2" precision="FP32">
					<dim>1</dim>
					<dim>64</dim>
					<dim>64</dim>
					<dim>32</dim>
				</port>
			</output>
		</layer>
		<layer id="143" name="data_add_1918519190/copy_const1087_const" type="Const" version="opset1">
			<data element_type="f32" offset="119684" shape="1,64,1,1" size="256"/>
			<output>
				<port id="1" precision="FP32">
					<dim>1</dim>
					<dim>64</dim>
					<dim>1</dim>
					<dim>1</dim>
				</port>
			</output>
		</layer>
		<layer id="144" name="Add1_16967/Fused_Add_" type="Add" version="opset1">
			<input>
				<port id="0">
					<dim>1</dim>
					<dim>64</dim>
					<dim>64</dim>
					<dim>32</dim>
				</port>
				<port id="1">
					<dim>1</dim>
					<dim>64</dim>
					<dim>1</dim>
					<dim>1</dim>
				</port>
			</input>
			<output>
				<port id="2" precision="FP32">
					<dim>1</dim>
					<dim>64</dim>
					<dim>64</dim>
					<dim>32</dim>
				</port>
			</output>
		</layer>
		<layer id="145" name="602" type="ReLU" version="opset1">
			<input>
				<port id="0">
					<dim>1</dim>
					<dim>64</dim>
					<dim>64</dim>
					<dim>32</dim>
				</port>
			</input>
			<output>
				<port id="1" precision="FP32">
					<dim>1</dim>
					<dim>64</dim>
					<dim>64</dim>
					<dim>32</dim>
				</port>
			</output>
		</layer>
		<layer id="146" name="65016505_const" type="Const" version="opset1">
			<data element_type="f32" offset="38944" shape="" size="4"/>
			<output>
				<port id="1" precision="FP32"/>
			</output>
		</layer>
		<layer id="147" name="65026506_const" type="Const" version="opset1">
			<data element_type="f32" offset="119940" shape="" size="4"/>
			<output>
				<port id="1" precision="FP32"/>
			</output>
		</layer>
		<layer id="148" name="65036507_const" type="Const" version="opset1">
			<data element_type="f32" offset="38944" shape="" size="4"/>
			<output>
				<port id="1" precision="FP32"/>
			</output>
		</layer>
		<layer id="149" name="65046508_const" type="Const" version="opset1">
			<data element_type="f32" offset="119940" shape="" size="4"/>
			<output>
				<port id="1" precision="FP32"/>
			</output>
		</layer>
		<layer id="150" name="637/reduce/fq_input_0" type="FakeQuantize" version="opset1">
			<data levels="256"/>
			<input>
				<port id="0">
					<dim>1</dim>
					<dim>64</dim>
					<dim>64</dim>
					<dim>32</dim>
				</port>
				<port id="1"/>
				<port id="2"/>
				<port id="3"/>
				<port id="4"/>
			</input>
			<output>
				<port id="5" precision="FP32">
					<dim>1</dim>
					<dim>64</dim>
					<dim>64</dim>
					<dim>32</dim>
				</port>
			</output>
		</layer>
		<layer id="151" name="637/reduce/Cast_134366_const1090_const" type="Const" version="opset1">
			<data element_type="i64" offset="76632" shape="2" size="16"/>
			<output>
				<port id="1" precision="I64">
					<dim>2</dim>
				</port>
			</output>
		</layer>
		<layer id="152" name="637/reduce" type="ReduceMean" version="opset1">
			<data keep_dims="True"/>
			<input>
				<port id="0">
					<dim>1</dim>
					<dim>64</dim>
					<dim>64</dim>
					<dim>32</dim>
				</port>
				<port id="1">
					<dim>2</dim>
				</port>
			</input>
			<output>
				<port id="2" precision="FP32">
					<dim>1</dim>
					<dim>64</dim>
					<dim>1</dim>
					<dim>1</dim>
				</port>
			</output>
		</layer>
		<layer id="153" name="Copy_onnx_initializer_node_conv2.0.gate.fc1.weight/Output_0/Data_3752_const1092_const" type="Const" version="opset1">
			<data element_type="f32" offset="76648" shape="4,64,1,1" size="1024"/>
			<output>
				<port id="1" precision="FP32">
					<dim>4</dim>
					<dim>64</dim>
					<dim>1</dim>
					<dim>1</dim>
				</port>
			</output>
		</layer>
		<layer id="154" name="638/WithoutBiases" type="Convolution" version="opset1">
			<data dilations="1,1" output_padding="0,0" pads_begin="0,0" pads_end="0,0" strides="1,1"/>
			<input>
				<port id="0">
					<dim>1</dim>
					<dim>64</dim>
					<dim>1</dim>
					<dim>1</dim>
				</port>
				<port id="1">
					<dim>4</dim>
					<dim>64</dim>
					<dim>1</dim>
					<dim>1</dim>
				</port>
			</input>
			<output>
				<port id="2" precision="FP32">
					<dim>1</dim>
					<dim>4</dim>
					<dim>1</dim>
					<dim>1</dim>
				</port>
			</output>
		</layer>
		<layer id="155" name="638/Dims12053/copy_const1094_const" type="Const" version="opset1">
			<data element_type="f32" offset="77672" shape="1,4,1,1" size="16"/>
			<output>
				<port id="1" precision="FP32">
					<dim>1</dim>
					<dim>4</dim>
					<dim>1</dim>
					<dim>1</dim>
				</port>
			</output>
		</layer>
		<layer id="156" name="638" type="Add" version="opset1">
			<input>
				<port id="0">
					<dim>1</dim>
					<dim>4</dim>
					<dim>1</dim>
					<dim>1</dim>
				</port>
				<port id="1">
					<dim>1</dim>
					<dim>4</dim>
					<dim>1</dim>
					<dim>1</dim>
				</port>
			</input>
			<output>
				<port id="2" precision="FP32">
					<dim>1</dim>
					<dim>4</dim>
					<dim>1</dim>
					<dim>1</dim>
				</port>
			</output>
		</layer>
		<layer id="157" name="639" type="ReLU" version="opset1">
			<input>
				<port id="0">
					<dim>1</dim>
					<dim>4</dim>
					<dim>1</dim>
					<dim>1</dim>
				</port>
			</input>
			<output>
				<port id="1" precision="FP32">
					<dim>1</dim>
					<dim>4</dim>
					<dim>1</dim>
					<dim>1</dim>
				</port>
			</output>
		</layer>
		<layer id="158" name="Copy_onnx_initializer_node_conv2.0.gate.fc2.weight/Output_0/Data_3760_const1097_const" type="Const" version="opset1">
			<data element_type="f32" offset="77688" shape="64,4,1,1" size="1024"/>
			<output>
				<port id="1" precision="FP32">
					<dim>64</dim>
					<dim>4</dim>
					<dim>1</dim>
					<dim>1</dim>
				</port>
			</output>
		</layer>
		<layer id="159" name="640/WithoutBiases" type="Convolution" version="opset1">
			<data dilations="1,1" output_padding="0,0" pads_begin="0,0" pads_end="0,0" strides="1,1"/>
			<input>
				<port id="0">
					<dim>1</dim>
					<dim>4</dim>
					<dim>1</dim>
					<dim>1</dim>
				</port>
				<port id="1">
					<dim>64</dim>
					<dim>4</dim>
					<dim>1</dim>
					<dim>1</dim>
				</port>
			</input>
			<output>
				<port id="2" precision="FP32">
					<dim>1</dim>
					<dim>64</dim>
					<dim>1</dim>
					<dim>1</dim>
				</port>
			</output>
		</layer>
		<layer id="160" name="640/Dims11771/copy_const1099_const" type="Const" version="opset1">
			<data element_type="f32" offset="78712" shape="1,64,1,1" size="256"/>
			<output>
				<port id="1" precision="FP32">
					<dim>1</dim>
					<dim>64</dim>
					<dim>1</dim>
					<dim>1</dim>
				</port>
			</output>
		</layer>
		<layer id="161" name="640" type="Add" version="opset1">
			<input>
				<port id="0">
					<dim>1</dim>
					<dim>64</dim>
					<dim>1</dim>
					<dim>1</dim>
				</port>
				<port id="1">
					<dim>1</dim>
					<dim>64</dim>
					<dim>1</dim>
					<dim>1</dim>
				</port>
			</input>
			<output>
				<port id="2" precision="FP32">
					<dim>1</dim>
					<dim>64</dim>
					<dim>1</dim>
					<dim>1</dim>
				</port>
			</output>
		</layer>
		<layer id="162" name="641" type="Sigmoid" version="opset1">
			<input>
				<port id="0">
					<dim>1</dim>
					<dim>64</dim>
					<dim>1</dim>
					<dim>1</dim>
				</port>
			</input>
			<output>
				<port id="1" precision="FP32">
					<dim>1</dim>
					<dim>64</dim>
					<dim>1</dim>
					<dim>1</dim>
				</port>
			</output>
		</layer>
		<layer id="163" name="60416045_const" type="Const" version="opset1">
			<data element_type="f32" offset="38944" shape="" size="4"/>
			<output>
				<port id="1" precision="FP32"/>
			</output>
		</layer>
		<layer id="164" name="60426046_const" type="Const" version="opset1">
			<data element_type="f32" offset="119944" shape="" size="4"/>
			<output>
				<port id="1" precision="FP32"/>
			</output>
		</layer>
		<layer id="165" name="60436047_const" type="Const" version="opset1">
			<data element_type="f32" offset="38944" shape="" size="4"/>
			<output>
				<port id="1" precision="FP32"/>
			</output>
		</layer>
		<layer id="166" name="60446048_const" type="Const" version="opset1">
			<data element_type="f32" offset="119944" shape="" size="4"/>
			<output>
				<port id="1" precision="FP32"/>
			</output>
		</layer>
		<layer id="167" name="642/fq_input_1" type="FakeQuantize" version="opset1">
			<data levels="256"/>
			<input>
				<port id="0">
					<dim>1</dim>
					<dim>64</dim>
					<dim>1</dim>
					<dim>1</dim>
				</port>
				<port id="1"/>
				<port id="2"/>
				<port id="3"/>
				<port id="4"/>
			</input>
			<output>
				<port id="5" precision="FP32">
					<dim>1</dim>
					<dim>64</dim>
					<dim>1</dim>
					<dim>1</dim>
				</port>
			</output>
		</layer>
		<layer id="168" name="642" type="Multiply" version="opset1">
			<input>
				<port id="0">
					<dim>1</dim>
					<dim>64</dim>
					<dim>64</dim>
					<dim>32</dim>
				</port>
				<port id="1">
					<dim>1</dim>
					<dim>64</dim>
					<dim>1</dim>
					<dim>1</dim>
				</port>
			</input>
			<output>
				<port id="2" precision="FP32">
					<dim>1</dim>
					<dim>64</dim>
					<dim>64</dim>
					<dim>32</dim>
				</port>
			</output>
		</layer>
		<layer id="169" name="57815785_const" type="Const" version="opset1">
			<data element_type="f32" offset="38944" shape="" size="4"/>
			<output>
				<port id="1" precision="FP32"/>
			</output>
		</layer>
		<layer id="170" name="57825786_const" type="Const" version="opset1">
			<data element_type="f32" offset="119948" shape="" size="4"/>
			<output>
				<port id="1" precision="FP32"/>
			</output>
		</layer>
		<layer id="171" name="57835787_const" type="Const" version="opset1">
			<data element_type="f32" offset="38944" shape="" size="4"/>
			<output>
				<port id="1" precision="FP32"/>
			</output>
		</layer>
		<layer id="172" name="57845788_const" type="Const" version="opset1">
			<data element_type="f32" offset="119948" shape="" size="4"/>
			<output>
				<port id="1" precision="FP32"/>
			</output>
		</layer>
		<layer id="173" name="643/fq_input_1" type="FakeQuantize" version="opset1">
			<data levels="256"/>
			<input>
				<port id="0">
					<dim>1</dim>
					<dim>64</dim>
					<dim>64</dim>
					<dim>32</dim>
				</port>
				<port id="1"/>
				<port id="2"/>
				<port id="3"/>
				<port id="4"/>
			</input>
			<output>
				<port id="5" precision="FP32">
					<dim>1</dim>
					<dim>64</dim>
					<dim>64</dim>
					<dim>32</dim>
				</port>
			</output>
		</layer>
		<layer id="174" name="643" type="Add" version="opset1">
			<input>
				<port id="0">
					<dim>1</dim>
					<dim>64</dim>
					<dim>64</dim>
					<dim>32</dim>
				</port>
				<port id="1">
					<dim>1</dim>
					<dim>64</dim>
					<dim>64</dim>
					<dim>32</dim>
				</port>
			</input>
			<output>
				<port id="2" precision="FP32">
					<dim>1</dim>
					<dim>64</dim>
					<dim>64</dim>
					<dim>32</dim>
				</port>
			</output>
		</layer>
		<layer id="175" name="44514455_const" type="Const" version="opset1">
			<data element_type="f32" offset="38944" shape="" size="4"/>
			<output>
				<port id="1" precision="FP32"/>
			</output>
		</layer>
		<layer id="176" name="44524456_const" type="Const" version="opset1">
			<data element_type="f32" offset="119952" shape="" size="4"/>
			<output>
				<port id="1" precision="FP32"/>
			</output>
		</layer>
		<layer id="177" name="44534457_const" type="Const" version="opset1">
			<data element_type="f32" offset="38944" shape="" size="4"/>
			<output>
				<port id="1" precision="FP32"/>
			</output>
		</layer>
		<layer id="178" name="44544458_const" type="Const" version="opset1">
			<data element_type="f32" offset="119952" shape="" size="4"/>
			<output>
				<port id="1" precision="FP32"/>
			</output>
		</layer>
		<layer id="179" name="650/fq_input_0" type="FakeQuantize" version="opset1">
			<data levels="256"/>
			<input>
				<port id="0">
					<dim>1</dim>
					<dim>64</dim>
					<dim>64</dim>
					<dim>32</dim>
				</port>
				<port id="1"/>
				<port id="2"/>
				<port id="3"/>
				<port id="4"/>
			</input>
			<output>
				<port id="5" precision="FP32">
					<dim>1</dim>
					<dim>64</dim>
					<dim>64</dim>
					<dim>32</dim>
				</port>
			</output>
		</layer>
		<layer id="180" name="onnx_initializer_node_conv2.0.conv2c.0.conv1.weight/Output_0/Data__const1104_const" type="Const" version="opset1">
			<data element_type="f32" offset="119956" shape="64,64,1,1" size="16384"/>
			<output>
				<port id="1" precision="FP32">
					<dim>64</dim>
					<dim>64</dim>
					<dim>1</dim>
					<dim>1</dim>
				</port>
			</output>
		</layer>
		<layer id="181" name="59015905_const" type="Const" version="opset1">
			<data element_type="f32" offset="136340" shape="64,1,1,1" size="256"/>
			<output>
				<port id="1" precision="FP32">
					<dim>64</dim>
					<dim>1</dim>
					<dim>1</dim>
					<dim>1</dim>
				</port>
			</output>
		</layer>
		<layer id="182" name="59025906_const" type="Const" version="opset1">
			<data element_type="f32" offset="136596" shape="64,1,1,1" size="256"/>
			<output>
				<port id="1" precision="FP32">
					<dim>64</dim>
					<dim>1</dim>
					<dim>1</dim>
					<dim>1</dim>
				</port>
			</output>
		</layer>
		<layer id="183" name="59035907_const" type="Const" version="opset1">
			<data element_type="f32" offset="136340" shape="64,1,1,1" size="256"/>
			<output>
				<port id="1" precision="FP32">
					<dim>64</dim>
					<dim>1</dim>
					<dim>1</dim>
					<dim>1</dim>
				</port>
			</output>
		</layer>
		<layer id="184" name="59045908_const" type="Const" version="opset1">
			<data element_type="f32" offset="136596" shape="64,1,1,1" size="256"/>
			<output>
				<port id="1" precision="FP32">
					<dim>64</dim>
					<dim>1</dim>
					<dim>1</dim>
					<dim>1</dim>
				</port>
			</output>
		</layer>
		<layer id="185" name="603/fq_weights_1" type="FakeQuantize" version="opset1">
			<data levels="255"/>
			<input>
				<port id="0">
					<dim>64</dim>
					<dim>64</dim>
					<dim>1</dim>
					<dim>1</dim>
				</port>
				<port id="1">
					<dim>64</dim>
					<dim>1</dim>
					<dim>1</dim>
					<dim>1</dim>
				</port>
				<port id="2">
					<dim>64</dim>
					<dim>1</dim>
					<dim>1</dim>
					<dim>1</dim>
				</port>
				<port id="3">
					<dim>64</dim>
					<dim>1</dim>
					<dim>1</dim>
					<dim>1</dim>
				</port>
				<port id="4">
					<dim>64</dim>
					<dim>1</dim>
					<dim>1</dim>
					<dim>1</dim>
				</port>
			</input>
			<output>
				<port id="5" precision="FP32">
					<dim>64</dim>
					<dim>64</dim>
					<dim>1</dim>
					<dim>1</dim>
				</port>
			</output>
		</layer>
		<layer id="186" name="603" type="Convolution" version="opset1">
			<data dilations="1,1" output_padding="0,0" pads_begin="0,0" pads_end="0,0" strides="1,1"/>
			<input>
				<port id="0">
					<dim>1</dim>
					<dim>64</dim>
					<dim>64</dim>
					<dim>32</dim>
				</port>
				<port id="1">
					<dim>64</dim>
					<dim>64</dim>
					<dim>1</dim>
					<dim>1</dim>
				</port>
			</input>
			<output>
				<port id="2" precision="FP32">
					<dim>1</dim>
					<dim>64</dim>
					<dim>64</dim>
					<dim>32</dim>
				</port>
			</output>
		</layer>
		<layer id="187" name="65316535_const" type="Const" version="opset1">
			<data element_type="f32" offset="136852" shape="1,64,1,1" size="256"/>
			<output>
				<port id="1" precision="FP32">
					<dim>1</dim>
					<dim>64</dim>
					<dim>1</dim>
					<dim>1</dim>
				</port>
			</output>
		</layer>
		<layer id="188" name="65326536_const" type="Const" version="opset1">
			<data element_type="f32" offset="137108" shape="1,64,1,1" size="256"/>
			<output>
				<port id="1" precision="FP32">
					<dim>1</dim>
					<dim>64</dim>
					<dim>1</dim>
					<dim>1</dim>
				</port>
			</output>
		</layer>
		<layer id="189" name="65336537_const" type="Const" version="opset1">
			<data element_type="f32" offset="136852" shape="1,64,1,1" size="256"/>
			<output>
				<port id="1" precision="FP32">
					<dim>1</dim>
					<dim>64</dim>
					<dim>1</dim>
					<dim>1</dim>
				</port>
			</output>
		</layer>
		<layer id="190" name="65346538_const" type="Const" version="opset1">
			<data element_type="f32" offset="137108" shape="1,64,1,1" size="256"/>
			<output>
				<port id="1" precision="FP32">
					<dim>1</dim>
					<dim>64</dim>
					<dim>1</dim>
					<dim>1</dim>
				</port>
			</output>
		</layer>
		<layer id="191" name="604/fq_input_0" type="FakeQuantize" version="opset1">
			<data levels="256"/>
			<input>
				<port id="0">
					<dim>1</dim>
					<dim>64</dim>
					<dim>64</dim>
					<dim>32</dim>
				</port>
				<port id="1">
					<dim>1</dim>
					<dim>64</dim>
					<dim>1</dim>
					<dim>1</dim>
				</port>
				<port id="2">
					<dim>1</dim>
					<dim>64</dim>
					<dim>1</dim>
					<dim>1</dim>
				</port>
				<port id="3">
					<dim>1</dim>
					<dim>64</dim>
					<dim>1</dim>
					<dim>1</dim>
				</port>
				<port id="4">
					<dim>1</dim>
					<dim>64</dim>
					<dim>1</dim>
					<dim>1</dim>
				</port>
			</input>
			<output>
				<port id="5" precision="FP32">
					<dim>1</dim>
					<dim>64</dim>
					<dim>64</dim>
					<dim>32</dim>
				</port>
			</output>
		</layer>
		<layer id="192" name="22161964_const" type="Const" version="opset1">
			<data element_type="f32" offset="137364" shape="64,1,3,3" size="2304"/>
			<output>
				<port id="1" precision="FP32">
					<dim>64</dim>
					<dim>1</dim>
					<dim>3</dim>
					<dim>3</dim>
				</port>
			</output>
		</layer>
		<layer id="193" name="65416545_const" type="Const" version="opset1">
			<data element_type="f32" offset="139668" shape="64,1,1,1" size="256"/>
			<output>
				<port id="1" precision="FP32">
					<dim>64</dim>
					<dim>1</dim>
					<dim>1</dim>
					<dim>1</dim>
				</port>
			</output>
		</layer>
		<layer id="194" name="65426546_const" type="Const" version="opset1">
			<data element_type="f32" offset="139924" shape="64,1,1,1" size="256"/>
			<output>
				<port id="1" precision="FP32">
					<dim>64</dim>
					<dim>1</dim>
					<dim>1</dim>
					<dim>1</dim>
				</port>
			</output>
		</layer>
		<layer id="195" name="65436547_const" type="Const" version="opset1">
			<data element_type="f32" offset="139668" shape="64,1,1,1" size="256"/>
			<output>
				<port id="1" precision="FP32">
					<dim>64</dim>
					<dim>1</dim>
					<dim>1</dim>
					<dim>1</dim>
				</port>
			</output>
		</layer>
		<layer id="196" name="65446548_const" type="Const" version="opset1">
			<data element_type="f32" offset="139924" shape="64,1,1,1" size="256"/>
			<output>
				<port id="1" precision="FP32">
					<dim>64</dim>
					<dim>1</dim>
					<dim>1</dim>
					<dim>1</dim>
				</port>
			</output>
		</layer>
		<layer id="197" name="604/fq_weights_1" type="FakeQuantize" version="opset1">
			<data levels="255"/>
			<input>
				<port id="0">
					<dim>64</dim>
					<dim>1</dim>
					<dim>3</dim>
					<dim>3</dim>
				</port>
				<port id="1">
					<dim>64</dim>
					<dim>1</dim>
					<dim>1</dim>
					<dim>1</dim>
				</port>
				<port id="2">
					<dim>64</dim>
					<dim>1</dim>
					<dim>1</dim>
					<dim>1</dim>
				</port>
				<port id="3">
					<dim>64</dim>
					<dim>1</dim>
					<dim>1</dim>
					<dim>1</dim>
				</port>
				<port id="4">
					<dim>64</dim>
					<dim>1</dim>
					<dim>1</dim>
					<dim>1</dim>
				</port>
			</input>
			<output>
				<port id="5" precision="FP32">
					<dim>64</dim>
					<dim>1</dim>
					<dim>3</dim>
					<dim>3</dim>
				</port>
			</output>
		</layer>
		<layer id="198" name="13444/value13446_const" type="Const" version="opset1">
			<data element_type="i64" offset="76332" shape="5" size="40"/>
			<output>
				<port id="1" precision="I64">
					<dim>5</dim>
				</port>
			</output>
		</layer>
		<layer id="199" name="13444" type="Reshape" version="opset1">
			<data special_zero="True"/>
			<input>
				<port id="0">
					<dim>64</dim>
					<dim>1</dim>
					<dim>3</dim>
					<dim>3</dim>
				</port>
				<port id="1">
					<dim>5</dim>
				</port>
			</input>
			<output>
				<port id="2" precision="FP32">
					<dim>64</dim>
					<dim>1</dim>
					<dim>1</dim>
					<dim>3</dim>
					<dim>3</dim>
				</port>
			</output>
		</layer>
		<layer id="200" name="604" type="GroupConvolution" version="opset1">
			<data dilations="1,1" output_padding="0,0" pads_begin="1,1" pads_end="1,1" strides="1,1"/>
			<input>
				<port id="0">
					<dim>1</dim>
					<dim>64</dim>
					<dim>64</dim>
					<dim>32</dim>
				</port>
				<port id="1">
					<dim>64</dim>
					<dim>1</dim>
					<dim>1</dim>
					<dim>3</dim>
					<dim>3</dim>
				</port>
			</input>
			<output>
				<port id="2" precision="FP32">
					<dim>1</dim>
					<dim>64</dim>
					<dim>64</dim>
					<dim>32</dim>
				</port>
			</output>
		</layer>
		<layer id="201" name="data_add_1915319158/copy_const1108_const" type="Const" version="opset1">
			<data element_type="f32" offset="140180" shape="1,64,1,1" size="256"/>
			<output>
				<port id="1" precision="FP32">
					<dim>1</dim>
					<dim>64</dim>
					<dim>1</dim>
					<dim>1</dim>
				</port>
			</output>
		</layer>
		<layer id="202" name="Add1_16979/Fused_Add_" type="Add" version="opset1">
			<input>
				<port id="0">
					<dim>1</dim>
					<dim>64</dim>
					<dim>64</dim>
					<dim>32</dim>
				</port>
				<port id="1">
					<dim>1</dim>
					<dim>64</dim>
					<dim>1</dim>
					<dim>1</dim>
				</port>
			</input>
			<output>
				<port id="2" precision="FP32">
					<dim>1</dim>
					<dim>64</dim>
					<dim>64</dim>
					<dim>32</dim>
				</port>
			</output>
		</layer>
		<layer id="203" name="606" type="ReLU" version="opset1">
			<input>
				<port id="0">
					<dim>1</dim>
					<dim>64</dim>
					<dim>64</dim>
					<dim>32</dim>
				</port>
			</input>
			<output>
				<port id="1" precision="FP32">
					<dim>1</dim>
					<dim>64</dim>
					<dim>64</dim>
					<dim>32</dim>
				</port>
			</output>
		</layer>
		<layer id="204" name="58715875_const" type="Const" version="opset1">
			<data element_type="f32" offset="38944" shape="" size="4"/>
			<output>
				<port id="1" precision="FP32"/>
			</output>
		</layer>
		<layer id="205" name="58725876_const" type="Const" version="opset1">
			<data element_type="f32" offset="140436" shape="" size="4"/>
			<output>
				<port id="1" precision="FP32"/>
			</output>
		</layer>
		<layer id="206" name="58735877_const" type="Const" version="opset1">
			<data element_type="f32" offset="38944" shape="" size="4"/>
			<output>
				<port id="1" precision="FP32"/>
			</output>
		</layer>
		<layer id="207" name="58745878_const" type="Const" version="opset1">
			<data element_type="f32" offset="140436" shape="" size="4"/>
			<output>
				<port id="1" precision="FP32"/>
			</output>
		</layer>
		<layer id="208" name="607/fq_input_0" type="FakeQuantize" version="opset1">
			<data levels="256"/>
			<input>
				<port id="0">
					<dim>1</dim>
					<dim>64</dim>
					<dim>64</dim>
					<dim>32</dim>
				</port>
				<port id="1"/>
				<port id="2"/>
				<port id="3"/>
				<port id="4"/>
			</input>
			<output>
				<port id="5" precision="FP32">
					<dim>1</dim>
					<dim>64</dim>
					<dim>64</dim>
					<dim>32</dim>
				</port>
			</output>
		</layer>
		<layer id="209" name="onnx_initializer_node_conv2.0.conv2c.1.conv1.weight/Output_0/Data__const1111_const" type="Const" version="opset1">
			<data element_type="f32" offset="140440" shape="64,64,1,1" size="16384"/>
			<output>
				<port id="1" precision="FP32">
					<dim>64</dim>
					<dim>64</dim>
					<dim>1</dim>
					<dim>1</dim>
				</port>
			</output>
		</layer>
		<layer id="210" name="58815885_const" type="Const" version="opset1">
			<data element_type="f32" offset="156824" shape="64,1,1,1" size="256"/>
			<output>
				<port id="1" precision="FP32">
					<dim>64</dim>
					<dim>1</dim>
					<dim>1</dim>
					<dim>1</dim>
				</port>
			</output>
		</layer>
		<layer id="211" name="58825886_const" type="Const" version="opset1">
			<data element_type="f32" offset="157080" shape="64,1,1,1" size="256"/>
			<output>
				<port id="1" precision="FP32">
					<dim>64</dim>
					<dim>1</dim>
					<dim>1</dim>
					<dim>1</dim>
				</port>
			</output>
		</layer>
		<layer id="212" name="58835887_const" type="Const" version="opset1">
			<data element_type="f32" offset="156824" shape="64,1,1,1" size="256"/>
			<output>
				<port id="1" precision="FP32">
					<dim>64</dim>
					<dim>1</dim>
					<dim>1</dim>
					<dim>1</dim>
				</port>
			</output>
		</layer>
		<layer id="213" name="58845888_const" type="Const" version="opset1">
			<data element_type="f32" offset="157080" shape="64,1,1,1" size="256"/>
			<output>
				<port id="1" precision="FP32">
					<dim>64</dim>
					<dim>1</dim>
					<dim>1</dim>
					<dim>1</dim>
				</port>
			</output>
		</layer>
		<layer id="214" name="607/fq_weights_1" type="FakeQuantize" version="opset1">
			<data levels="255"/>
			<input>
				<port id="0">
					<dim>64</dim>
					<dim>64</dim>
					<dim>1</dim>
					<dim>1</dim>
				</port>
				<port id="1">
					<dim>64</dim>
					<dim>1</dim>
					<dim>1</dim>
					<dim>1</dim>
				</port>
				<port id="2">
					<dim>64</dim>
					<dim>1</dim>
					<dim>1</dim>
					<dim>1</dim>
				</port>
				<port id="3">
					<dim>64</dim>
					<dim>1</dim>
					<dim>1</dim>
					<dim>1</dim>
				</port>
				<port id="4">
					<dim>64</dim>
					<dim>1</dim>
					<dim>1</dim>
					<dim>1</dim>
				</port>
			</input>
			<output>
				<port id="5" precision="FP32">
					<dim>64</dim>
					<dim>64</dim>
					<dim>1</dim>
					<dim>1</dim>
				</port>
			</output>
		</layer>
		<layer id="215" name="607" type="Convolution" version="opset1">
			<data dilations="1,1" output_padding="0,0" pads_begin="0,0" pads_end="0,0" strides="1,1"/>
			<input>
				<port id="0">
					<dim>1</dim>
					<dim>64</dim>
					<dim>64</dim>
					<dim>32</dim>
				</port>
				<port id="1">
					<dim>64</dim>
					<dim>64</dim>
					<dim>1</dim>
					<dim>1</dim>
				</port>
			</input>
			<output>
				<port id="2" precision="FP32">
					<dim>1</dim>
					<dim>64</dim>
					<dim>64</dim>
					<dim>32</dim>
				</port>
			</output>
		</layer>
		<layer id="216" name="34413445_const" type="Const" version="opset1">
			<data element_type="f32" offset="157336" shape="1,64,1,1" size="256"/>
			<output>
				<port id="1" precision="FP32">
					<dim>1</dim>
					<dim>64</dim>
					<dim>1</dim>
					<dim>1</dim>
				</port>
			</output>
		</layer>
		<layer id="217" name="34423446_const" type="Const" version="opset1">
			<data element_type="f32" offset="157592" shape="1,64,1,1" size="256"/>
			<output>
				<port id="1" precision="FP32">
					<dim>1</dim>
					<dim>64</dim>
					<dim>1</dim>
					<dim>1</dim>
				</port>
			</output>
		</layer>
		<layer id="218" name="34433447_const" type="Const" version="opset1">
			<data element_type="f32" offset="157336" shape="1,64,1,1" size="256"/>
			<output>
				<port id="1" precision="FP32">
					<dim>1</dim>
					<dim>64</dim>
					<dim>1</dim>
					<dim>1</dim>
				</port>
			</output>
		</layer>
		<layer id="219" name="34443448_const" type="Const" version="opset1">
			<data element_type="f32" offset="157592" shape="1,64,1,1" size="256"/>
			<output>
				<port id="1" precision="FP32">
					<dim>1</dim>
					<dim>64</dim>
					<dim>1</dim>
					<dim>1</dim>
				</port>
			</output>
		</layer>
		<layer id="220" name="608/fq_input_0" type="FakeQuantize" version="opset1">
			<data levels="256"/>
			<input>
				<port id="0">
					<dim>1</dim>
					<dim>64</dim>
					<dim>64</dim>
					<dim>32</dim>
				</port>
				<port id="1">
					<dim>1</dim>
					<dim>64</dim>
					<dim>1</dim>
					<dim>1</dim>
				</port>
				<port id="2">
					<dim>1</dim>
					<dim>64</dim>
					<dim>1</dim>
					<dim>1</dim>
				</port>
				<port id="3">
					<dim>1</dim>
					<dim>64</dim>
					<dim>1</dim>
					<dim>1</dim>
				</port>
				<port id="4">
					<dim>1</dim>
					<dim>64</dim>
					<dim>1</dim>
					<dim>1</dim>
				</port>
			</input>
			<output>
				<port id="5" precision="FP32">
					<dim>1</dim>
					<dim>64</dim>
					<dim>64</dim>
					<dim>32</dim>
				</port>
			</output>
		</layer>
		<layer id="221" name="22201966_const" type="Const" version="opset1">
			<data element_type="f32" offset="157848" shape="64,1,3,3" size="2304"/>
			<output>
				<port id="1" precision="FP32">
					<dim>64</dim>
					<dim>1</dim>
					<dim>3</dim>
					<dim>3</dim>
				</port>
			</output>
		</layer>
		<layer id="222" name="34513455_const" type="Const" version="opset1">
			<data element_type="f32" offset="160152" shape="64,1,1,1" size="256"/>
			<output>
				<port id="1" precision="FP32">
					<dim>64</dim>
					<dim>1</dim>
					<dim>1</dim>
					<dim>1</dim>
				</port>
			</output>
		</layer>
		<layer id="223" name="34523456_const" type="Const" version="opset1">
			<data element_type="f32" offset="160408" shape="64,1,1,1" size="256"/>
			<output>
				<port id="1" precision="FP32">
					<dim>64</dim>
					<dim>1</dim>
					<dim>1</dim>
					<dim>1</dim>
				</port>
			</output>
		</layer>
		<layer id="224" name="34533457_const" type="Const" version="opset1">
			<data element_type="f32" offset="160152" shape="64,1,1,1" size="256"/>
			<output>
				<port id="1" precision="FP32">
					<dim>64</dim>
					<dim>1</dim>
					<dim>1</dim>
					<dim>1</dim>
				</port>
			</output>
		</layer>
		<layer id="225" name="34543458_const" type="Const" version="opset1">
			<data element_type="f32" offset="160408" shape="64,1,1,1" size="256"/>
			<output>
				<port id="1" precision="FP32">
					<dim>64</dim>
					<dim>1</dim>
					<dim>1</dim>
					<dim>1</dim>
				</port>
			</output>
		</layer>
		<layer id="226" name="608/fq_weights_1" type="FakeQuantize" version="opset1">
			<data levels="255"/>
			<input>
				<port id="0">
					<dim>64</dim>
					<dim>1</dim>
					<dim>3</dim>
					<dim>3</dim>
				</port>
				<port id="1">
					<dim>64</dim>
					<dim>1</dim>
					<dim>1</dim>
					<dim>1</dim>
				</port>
				<port id="2">
					<dim>64</dim>
					<dim>1</dim>
					<dim>1</dim>
					<dim>1</dim>
				</port>
				<port id="3">
					<dim>64</dim>
					<dim>1</dim>
					<dim>1</dim>
					<dim>1</dim>
				</port>
				<port id="4">
					<dim>64</dim>
					<dim>1</dim>
					<dim>1</dim>
					<dim>1</dim>
				</port>
			</input>
			<output>
				<port id="5" precision="FP32">
					<dim>64</dim>
					<dim>1</dim>
					<dim>3</dim>
					<dim>3</dim>
				</port>
			</output>
		</layer>
		<layer id="227" name="13392/value13394_const" type="Const" version="opset1">
			<data element_type="i64" offset="76332" shape="5" size="40"/>
			<output>
				<port id="1" precision="I64">
					<dim>5</dim>
				</port>
			</output>
		</layer>
		<layer id="228" name="13392" type="Reshape" version="opset1">
			<data special_zero="True"/>
			<input>
				<port id="0">
					<dim>64</dim>
					<dim>1</dim>
					<dim>3</dim>
					<dim>3</dim>
				</port>
				<port id="1">
					<dim>5</dim>
				</port>
			</input>
			<output>
				<port id="2" precision="FP32">
					<dim>64</dim>
					<dim>1</dim>
					<dim>1</dim>
					<dim>3</dim>
					<dim>3</dim>
				</port>
			</output>
		</layer>
		<layer id="229" name="608" type="GroupConvolution" version="opset1">
			<data dilations="1,1" output_padding="0,0" pads_begin="1,1" pads_end="1,1" strides="1,1"/>
			<input>
				<port id="0">
					<dim>1</dim>
					<dim>64</dim>
					<dim>64</dim>
					<dim>32</dim>
				</port>
				<port id="1">
					<dim>64</dim>
					<dim>1</dim>
					<dim>1</dim>
					<dim>3</dim>
					<dim>3</dim>
				</port>
			</input>
			<output>
				<port id="2" precision="FP32">
					<dim>1</dim>
					<dim>64</dim>
					<dim>64</dim>
					<dim>32</dim>
				</port>
			</output>
		</layer>
		<layer id="230" name="data_add_1916119166/copy_const1115_const" type="Const" version="opset1">
			<data element_type="f32" offset="160664" shape="1,64,1,1" size="256"/>
			<output>
				<port id="1" precision="FP32">
					<dim>1</dim>
					<dim>64</dim>
					<dim>1</dim>
					<dim>1</dim>
				</port>
			</output>
		</layer>
		<layer id="231" name="Add1_16991/Fused_Add_" type="Add" version="opset1">
			<input>
				<port id="0">
					<dim>1</dim>
					<dim>64</dim>
					<dim>64</dim>
					<dim>32</dim>
				</port>
				<port id="1">
					<dim>1</dim>
					<dim>64</dim>
					<dim>1</dim>
					<dim>1</dim>
				</port>
			</input>
			<output>
				<port id="2" precision="FP32">
					<dim>1</dim>
					<dim>64</dim>
					<dim>64</dim>
					<dim>32</dim>
				</port>
			</output>
		</layer>
		<layer id="232" name="610" type="ReLU" version="opset1">
			<input>
				<port id="0">
					<dim>1</dim>
					<dim>64</dim>
					<dim>64</dim>
					<dim>32</dim>
				</port>
			</input>
			<output>
				<port id="1" precision="FP32">
					<dim>1</dim>
					<dim>64</dim>
					<dim>64</dim>
					<dim>32</dim>
				</port>
			</output>
		</layer>
		<layer id="233" name="64216425_const" type="Const" version="opset1">
			<data element_type="f32" offset="38944" shape="" size="4"/>
			<output>
				<port id="1" precision="FP32"/>
			</output>
		</layer>
		<layer id="234" name="64226426_const" type="Const" version="opset1">
			<data element_type="f32" offset="160920" shape="" size="4"/>
			<output>
				<port id="1" precision="FP32"/>
			</output>
		</layer>
		<layer id="235" name="64236427_const" type="Const" version="opset1">
			<data element_type="f32" offset="38944" shape="" size="4"/>
			<output>
				<port id="1" precision="FP32"/>
			</output>
		</layer>
		<layer id="236" name="64246428_const" type="Const" version="opset1">
			<data element_type="f32" offset="160920" shape="" size="4"/>
			<output>
				<port id="1" precision="FP32"/>
			</output>
		</layer>
		<layer id="237" name="611/fq_input_0" type="FakeQuantize" version="opset1">
			<data levels="256"/>
			<input>
				<port id="0">
					<dim>1</dim>
					<dim>64</dim>
					<dim>64</dim>
					<dim>32</dim>
				</port>
				<port id="1"/>
				<port id="2"/>
				<port id="3"/>
				<port id="4"/>
			</input>
			<output>
				<port id="5" precision="FP32">
					<dim>1</dim>
					<dim>64</dim>
					<dim>64</dim>
					<dim>32</dim>
				</port>
			</output>
		</layer>
		<layer id="238" name="onnx_initializer_node_conv2.0.conv2c.2.conv1.weight/Output_0/Data__const1118_const" type="Const" version="opset1">
			<data element_type="f32" offset="160924" shape="64,64,1,1" size="16384"/>
			<output>
				<port id="1" precision="FP32">
					<dim>64</dim>
					<dim>64</dim>
					<dim>1</dim>
					<dim>1</dim>
				</port>
			</output>
		</layer>
		<layer id="239" name="64316435_const" type="Const" version="opset1">
			<data element_type="f32" offset="177308" shape="64,1,1,1" size="256"/>
			<output>
				<port id="1" precision="FP32">
					<dim>64</dim>
					<dim>1</dim>
					<dim>1</dim>
					<dim>1</dim>
				</port>
			</output>
		</layer>
		<layer id="240" name="64326436_const" type="Const" version="opset1">
			<data element_type="f32" offset="177564" shape="64,1,1,1" size="256"/>
			<output>
				<port id="1" precision="FP32">
					<dim>64</dim>
					<dim>1</dim>
					<dim>1</dim>
					<dim>1</dim>
				</port>
			</output>
		</layer>
		<layer id="241" name="64336437_const" type="Const" version="opset1">
			<data element_type="f32" offset="177308" shape="64,1,1,1" size="256"/>
			<output>
				<port id="1" precision="FP32">
					<dim>64</dim>
					<dim>1</dim>
					<dim>1</dim>
					<dim>1</dim>
				</port>
			</output>
		</layer>
		<layer id="242" name="64346438_const" type="Const" version="opset1">
			<data element_type="f32" offset="177564" shape="64,1,1,1" size="256"/>
			<output>
				<port id="1" precision="FP32">
					<dim>64</dim>
					<dim>1</dim>
					<dim>1</dim>
					<dim>1</dim>
				</port>
			</output>
		</layer>
		<layer id="243" name="611/fq_weights_1" type="FakeQuantize" version="opset1">
			<data levels="255"/>
			<input>
				<port id="0">
					<dim>64</dim>
					<dim>64</dim>
					<dim>1</dim>
					<dim>1</dim>
				</port>
				<port id="1">
					<dim>64</dim>
					<dim>1</dim>
					<dim>1</dim>
					<dim>1</dim>
				</port>
				<port id="2">
					<dim>64</dim>
					<dim>1</dim>
					<dim>1</dim>
					<dim>1</dim>
				</port>
				<port id="3">
					<dim>64</dim>
					<dim>1</dim>
					<dim>1</dim>
					<dim>1</dim>
				</port>
				<port id="4">
					<dim>64</dim>
					<dim>1</dim>
					<dim>1</dim>
					<dim>1</dim>
				</port>
			</input>
			<output>
				<port id="5" precision="FP32">
					<dim>64</dim>
					<dim>64</dim>
					<dim>1</dim>
					<dim>1</dim>
				</port>
			</output>
		</layer>
		<layer id="244" name="611" type="Convolution" version="opset1">
			<data dilations="1,1" output_padding="0,0" pads_begin="0,0" pads_end="0,0" strides="1,1"/>
			<input>
				<port id="0">
					<dim>1</dim>
					<dim>64</dim>
					<dim>64</dim>
					<dim>32</dim>
				</port>
				<port id="1">
					<dim>64</dim>
					<dim>64</dim>
					<dim>1</dim>
					<dim>1</dim>
				</port>
			</input>
			<output>
				<port id="2" precision="FP32">
					<dim>1</dim>
					<dim>64</dim>
					<dim>64</dim>
					<dim>32</dim>
				</port>
			</output>
		</layer>
		<layer id="245" name="33513355_const" type="Const" version="opset1">
			<data element_type="f32" offset="177820" shape="1,64,1,1" size="256"/>
			<output>
				<port id="1" precision="FP32">
					<dim>1</dim>
					<dim>64</dim>
					<dim>1</dim>
					<dim>1</dim>
				</port>
			</output>
		</layer>
		<layer id="246" name="33523356_const" type="Const" version="opset1">
			<data element_type="f32" offset="178076" shape="1,64,1,1" size="256"/>
			<output>
				<port id="1" precision="FP32">
					<dim>1</dim>
					<dim>64</dim>
					<dim>1</dim>
					<dim>1</dim>
				</port>
			</output>
		</layer>
		<layer id="247" name="33533357_const" type="Const" version="opset1">
			<data element_type="f32" offset="177820" shape="1,64,1,1" size="256"/>
			<output>
				<port id="1" precision="FP32">
					<dim>1</dim>
					<dim>64</dim>
					<dim>1</dim>
					<dim>1</dim>
				</port>
			</output>
		</layer>
		<layer id="248" name="33543358_const" type="Const" version="opset1">
			<data element_type="f32" offset="178076" shape="1,64,1,1" size="256"/>
			<output>
				<port id="1" precision="FP32">
					<dim>1</dim>
					<dim>64</dim>
					<dim>1</dim>
					<dim>1</dim>
				</port>
			</output>
		</layer>
		<layer id="249" name="612/fq_input_0" type="FakeQuantize" version="opset1">
			<data levels="256"/>
			<input>
				<port id="0">
					<dim>1</dim>
					<dim>64</dim>
					<dim>64</dim>
					<dim>32</dim>
				</port>
				<port id="1">
					<dim>1</dim>
					<dim>64</dim>
					<dim>1</dim>
					<dim>1</dim>
				</port>
				<port id="2">
					<dim>1</dim>
					<dim>64</dim>
					<dim>1</dim>
					<dim>1</dim>
				</port>
				<port id="3">
					<dim>1</dim>
					<dim>64</dim>
					<dim>1</dim>
					<dim>1</dim>
				</port>
				<port id="4">
					<dim>1</dim>
					<dim>64</dim>
					<dim>1</dim>
					<dim>1</dim>
				</port>
			</input>
			<output>
				<port id="5" precision="FP32">
					<dim>1</dim>
					<dim>64</dim>
					<dim>64</dim>
					<dim>32</dim>
				</port>
			</output>
		</layer>
		<layer id="250" name="22241968_const" type="Const" version="opset1">
			<data element_type="f32" offset="178332" shape="64,1,3,3" size="2304"/>
			<output>
				<port id="1" precision="FP32">
					<dim>64</dim>
					<dim>1</dim>
					<dim>3</dim>
					<dim>3</dim>
				</port>
			</output>
		</layer>
		<layer id="251" name="33613365_const" type="Const" version="opset1">
			<data element_type="f32" offset="180636" shape="64,1,1,1" size="256"/>
			<output>
				<port id="1" precision="FP32">
					<dim>64</dim>
					<dim>1</dim>
					<dim>1</dim>
					<dim>1</dim>
				</port>
			</output>
		</layer>
		<layer id="252" name="33623366_const" type="Const" version="opset1">
			<data element_type="f32" offset="180892" shape="64,1,1,1" size="256"/>
			<output>
				<port id="1" precision="FP32">
					<dim>64</dim>
					<dim>1</dim>
					<dim>1</dim>
					<dim>1</dim>
				</port>
			</output>
		</layer>
		<layer id="253" name="33633367_const" type="Const" version="opset1">
			<data element_type="f32" offset="180636" shape="64,1,1,1" size="256"/>
			<output>
				<port id="1" precision="FP32">
					<dim>64</dim>
					<dim>1</dim>
					<dim>1</dim>
					<dim>1</dim>
				</port>
			</output>
		</layer>
		<layer id="254" name="33643368_const" type="Const" version="opset1">
			<data element_type="f32" offset="180892" shape="64,1,1,1" size="256"/>
			<output>
				<port id="1" precision="FP32">
					<dim>64</dim>
					<dim>1</dim>
					<dim>1</dim>
					<dim>1</dim>
				</port>
			</output>
		</layer>
		<layer id="255" name="612/fq_weights_1" type="FakeQuantize" version="opset1">
			<data levels="255"/>
			<input>
				<port id="0">
					<dim>64</dim>
					<dim>1</dim>
					<dim>3</dim>
					<dim>3</dim>
				</port>
				<port id="1">
					<dim>64</dim>
					<dim>1</dim>
					<dim>1</dim>
					<dim>1</dim>
				</port>
				<port id="2">
					<dim>64</dim>
					<dim>1</dim>
					<dim>1</dim>
					<dim>1</dim>
				</port>
				<port id="3">
					<dim>64</dim>
					<dim>1</dim>
					<dim>1</dim>
					<dim>1</dim>
				</port>
				<port id="4">
					<dim>64</dim>
					<dim>1</dim>
					<dim>1</dim>
					<dim>1</dim>
				</port>
			</input>
			<output>
				<port id="5" precision="FP32">
					<dim>64</dim>
					<dim>1</dim>
					<dim>3</dim>
					<dim>3</dim>
				</port>
			</output>
		</layer>
		<layer id="256" name="13468/value13470_const" type="Const" version="opset1">
			<data element_type="i64" offset="76332" shape="5" size="40"/>
			<output>
				<port id="1" precision="I64">
					<dim>5</dim>
				</port>
			</output>
		</layer>
		<layer id="257" name="13468" type="Reshape" version="opset1">
			<data special_zero="True"/>
			<input>
				<port id="0">
					<dim>64</dim>
					<dim>1</dim>
					<dim>3</dim>
					<dim>3</dim>
				</port>
				<port id="1">
					<dim>5</dim>
				</port>
			</input>
			<output>
				<port id="2" precision="FP32">
					<dim>64</dim>
					<dim>1</dim>
					<dim>1</dim>
					<dim>3</dim>
					<dim>3</dim>
				</port>
			</output>
		</layer>
		<layer id="258" name="612" type="GroupConvolution" version="opset1">
			<data dilations="1,1" output_padding="0,0" pads_begin="1,1" pads_end="1,1" strides="1,1"/>
			<input>
				<port id="0">
					<dim>1</dim>
					<dim>64</dim>
					<dim>64</dim>
					<dim>32</dim>
				</port>
				<port id="1">
					<dim>64</dim>
					<dim>1</dim>
					<dim>1</dim>
					<dim>3</dim>
					<dim>3</dim>
				</port>
			</input>
			<output>
				<port id="2" precision="FP32">
					<dim>1</dim>
					<dim>64</dim>
					<dim>64</dim>
					<dim>32</dim>
				</port>
			</output>
		</layer>
		<layer id="259" name="data_add_1916919174/copy_const1122_const" type="Const" version="opset1">
			<data element_type="f32" offset="181148" shape="1,64,1,1" size="256"/>
			<output>
				<port id="1" precision="FP32">
					<dim>1</dim>
					<dim>64</dim>
					<dim>1</dim>
					<dim>1</dim>
				</port>
			</output>
		</layer>
		<layer id="260" name="Add1_17003/Fused_Add_" type="Add" version="opset1">
			<input>
				<port id="0">
					<dim>1</dim>
					<dim>64</dim>
					<dim>64</dim>
					<dim>32</dim>
				</port>
				<port id="1">
					<dim>1</dim>
					<dim>64</dim>
					<dim>1</dim>
					<dim>1</dim>
				</port>
			</input>
			<output>
				<port id="2" precision="FP32">
					<dim>1</dim>
					<dim>64</dim>
					<dim>64</dim>
					<dim>32</dim>
				</port>
			</output>
		</layer>
		<layer id="261" name="614" type="ReLU" version="opset1">
			<input>
				<port id="0">
					<dim>1</dim>
					<dim>64</dim>
					<dim>64</dim>
					<dim>32</dim>
				</port>
			</input>
			<output>
				<port id="1" precision="FP32">
					<dim>1</dim>
					<dim>64</dim>
					<dim>64</dim>
					<dim>32</dim>
				</port>
			</output>
		</layer>
		<layer id="262" name="63716375_const" type="Const" version="opset1">
			<data element_type="f32" offset="38944" shape="" size="4"/>
			<output>
				<port id="1" precision="FP32"/>
			</output>
		</layer>
		<layer id="263" name="63726376_const" type="Const" version="opset1">
			<data element_type="f32" offset="181404" shape="" size="4"/>
			<output>
				<port id="1" precision="FP32"/>
			</output>
		</layer>
		<layer id="264" name="63736377_const" type="Const" version="opset1">
			<data element_type="f32" offset="38944" shape="" size="4"/>
			<output>
				<port id="1" precision="FP32"/>
			</output>
		</layer>
		<layer id="265" name="63746378_const" type="Const" version="opset1">
			<data element_type="f32" offset="181404" shape="" size="4"/>
			<output>
				<port id="1" precision="FP32"/>
			</output>
		</layer>
		<layer id="266" name="644/reduce/fq_input_0" type="FakeQuantize" version="opset1">
			<data levels="256"/>
			<input>
				<port id="0">
					<dim>1</dim>
					<dim>64</dim>
					<dim>64</dim>
					<dim>32</dim>
				</port>
				<port id="1"/>
				<port id="2"/>
				<port id="3"/>
				<port id="4"/>
			</input>
			<output>
				<port id="5" precision="FP32">
					<dim>1</dim>
					<dim>64</dim>
					<dim>64</dim>
					<dim>32</dim>
				</port>
			</output>
		</layer>
		<layer id="267" name="644/reduce/Cast_134364_const1125_const" type="Const" version="opset1">
			<data element_type="i64" offset="76632" shape="2" size="16"/>
			<output>
				<port id="1" precision="I64">
					<dim>2</dim>
				</port>
			</output>
		</layer>
		<layer id="268" name="644/reduce" type="ReduceMean" version="opset1">
			<data keep_dims="True"/>
			<input>
				<port id="0">
					<dim>1</dim>
					<dim>64</dim>
					<dim>64</dim>
					<dim>32</dim>
				</port>
				<port id="1">
					<dim>2</dim>
				</port>
			</input>
			<output>
				<port id="2" precision="FP32">
					<dim>1</dim>
					<dim>64</dim>
					<dim>1</dim>
					<dim>1</dim>
				</port>
			</output>
		</layer>
		<layer id="269" name="Copy_onnx_initializer_node_conv2.0.gate.fc1.weight/Output_0/Data_3753_const1127_const" type="Const" version="opset1">
			<data element_type="f32" offset="76648" shape="4,64,1,1" size="1024"/>
			<output>
				<port id="1" precision="FP32">
					<dim>4</dim>
					<dim>64</dim>
					<dim>1</dim>
					<dim>1</dim>
				</port>
			</output>
		</layer>
		<layer id="270" name="645/WithoutBiases" type="Convolution" version="opset1">
			<data dilations="1,1" output_padding="0,0" pads_begin="0,0" pads_end="0,0" strides="1,1"/>
			<input>
				<port id="0">
					<dim>1</dim>
					<dim>64</dim>
					<dim>1</dim>
					<dim>1</dim>
				</port>
				<port id="1">
					<dim>4</dim>
					<dim>64</dim>
					<dim>1</dim>
					<dim>1</dim>
				</port>
			</input>
			<output>
				<port id="2" precision="FP32">
					<dim>1</dim>
					<dim>4</dim>
					<dim>1</dim>
					<dim>1</dim>
				</port>
			</output>
		</layer>
		<layer id="271" name="645/Dims11867/copy_const1129_const" type="Const" version="opset1">
			<data element_type="f32" offset="77672" shape="1,4,1,1" size="16"/>
			<output>
				<port id="1" precision="FP32">
					<dim>1</dim>
					<dim>4</dim>
					<dim>1</dim>
					<dim>1</dim>
				</port>
			</output>
		</layer>
		<layer id="272" name="645" type="Add" version="opset1">
			<input>
				<port id="0">
					<dim>1</dim>
					<dim>4</dim>
					<dim>1</dim>
					<dim>1</dim>
				</port>
				<port id="1">
					<dim>1</dim>
					<dim>4</dim>
					<dim>1</dim>
					<dim>1</dim>
				</port>
			</input>
			<output>
				<port id="2" precision="FP32">
					<dim>1</dim>
					<dim>4</dim>
					<dim>1</dim>
					<dim>1</dim>
				</port>
			</output>
		</layer>
		<layer id="273" name="646" type="ReLU" version="opset1">
			<input>
				<port id="0">
					<dim>1</dim>
					<dim>4</dim>
					<dim>1</dim>
					<dim>1</dim>
				</port>
			</input>
			<output>
				<port id="1" precision="FP32">
					<dim>1</dim>
					<dim>4</dim>
					<dim>1</dim>
					<dim>1</dim>
				</port>
			</output>
		</layer>
		<layer id="274" name="Copy_onnx_initializer_node_conv2.0.gate.fc2.weight/Output_0/Data_3761_const1132_const" type="Const" version="opset1">
			<data element_type="f32" offset="77688" shape="64,4,1,1" size="1024"/>
			<output>
				<port id="1" precision="FP32">
					<dim>64</dim>
					<dim>4</dim>
					<dim>1</dim>
					<dim>1</dim>
				</port>
			</output>
		</layer>
		<layer id="275" name="647/WithoutBiases" type="Convolution" version="opset1">
			<data dilations="1,1" output_padding="0,0" pads_begin="0,0" pads_end="0,0" strides="1,1"/>
			<input>
				<port id="0">
					<dim>1</dim>
					<dim>4</dim>
					<dim>1</dim>
					<dim>1</dim>
				</port>
				<port id="1">
					<dim>64</dim>
					<dim>4</dim>
					<dim>1</dim>
					<dim>1</dim>
				</port>
			</input>
			<output>
				<port id="2" precision="FP32">
					<dim>1</dim>
					<dim>64</dim>
					<dim>1</dim>
					<dim>1</dim>
				</port>
			</output>
		</layer>
		<layer id="276" name="647/Dims11849/copy_const1134_const" type="Const" version="opset1">
			<data element_type="f32" offset="78712" shape="1,64,1,1" size="256"/>
			<output>
				<port id="1" precision="FP32">
					<dim>1</dim>
					<dim>64</dim>
					<dim>1</dim>
					<dim>1</dim>
				</port>
			</output>
		</layer>
		<layer id="277" name="647" type="Add" version="opset1">
			<input>
				<port id="0">
					<dim>1</dim>
					<dim>64</dim>
					<dim>1</dim>
					<dim>1</dim>
				</port>
				<port id="1">
					<dim>1</dim>
					<dim>64</dim>
					<dim>1</dim>
					<dim>1</dim>
				</port>
			</input>
			<output>
				<port id="2" precision="FP32">
					<dim>1</dim>
					<dim>64</dim>
					<dim>1</dim>
					<dim>1</dim>
				</port>
			</output>
		</layer>
		<layer id="278" name="648" type="Sigmoid" version="opset1">
			<input>
				<port id="0">
					<dim>1</dim>
					<dim>64</dim>
					<dim>1</dim>
					<dim>1</dim>
				</port>
			</input>
			<output>
				<port id="1" precision="FP32">
					<dim>1</dim>
					<dim>64</dim>
					<dim>1</dim>
					<dim>1</dim>
				</port>
			</output>
		</layer>
		<layer id="279" name="49614965_const" type="Const" version="opset1">
			<data element_type="f32" offset="38944" shape="" size="4"/>
			<output>
				<port id="1" precision="FP32"/>
			</output>
		</layer>
		<layer id="280" name="49624966_const" type="Const" version="opset1">
			<data element_type="f32" offset="181408" shape="" size="4"/>
			<output>
				<port id="1" precision="FP32"/>
			</output>
		</layer>
		<layer id="281" name="49634967_const" type="Const" version="opset1">
			<data element_type="f32" offset="38944" shape="" size="4"/>
			<output>
				<port id="1" precision="FP32"/>
			</output>
		</layer>
		<layer id="282" name="49644968_const" type="Const" version="opset1">
			<data element_type="f32" offset="181408" shape="" size="4"/>
			<output>
				<port id="1" precision="FP32"/>
			</output>
		</layer>
		<layer id="283" name="649/fq_input_1" type="FakeQuantize" version="opset1">
			<data levels="256"/>
			<input>
				<port id="0">
					<dim>1</dim>
					<dim>64</dim>
					<dim>1</dim>
					<dim>1</dim>
				</port>
				<port id="1"/>
				<port id="2"/>
				<port id="3"/>
				<port id="4"/>
			</input>
			<output>
				<port id="5" precision="FP32">
					<dim>1</dim>
					<dim>64</dim>
					<dim>1</dim>
					<dim>1</dim>
				</port>
			</output>
		</layer>
		<layer id="284" name="649" type="Multiply" version="opset1">
			<input>
				<port id="0">
					<dim>1</dim>
					<dim>64</dim>
					<dim>64</dim>
					<dim>32</dim>
				</port>
				<port id="1">
					<dim>1</dim>
					<dim>64</dim>
					<dim>1</dim>
					<dim>1</dim>
				</port>
			</input>
			<output>
				<port id="2" precision="FP32">
					<dim>1</dim>
					<dim>64</dim>
					<dim>64</dim>
					<dim>32</dim>
				</port>
			</output>
		</layer>
		<layer id="285" name="44614465_const" type="Const" version="opset1">
			<data element_type="f32" offset="38944" shape="" size="4"/>
			<output>
				<port id="1" precision="FP32"/>
			</output>
		</layer>
		<layer id="286" name="44624466_const" type="Const" version="opset1">
			<data element_type="f32" offset="181412" shape="" size="4"/>
			<output>
				<port id="1" precision="FP32"/>
			</output>
		</layer>
		<layer id="287" name="44634467_const" type="Const" version="opset1">
			<data element_type="f32" offset="38944" shape="" size="4"/>
			<output>
				<port id="1" precision="FP32"/>
			</output>
		</layer>
		<layer id="288" name="44644468_const" type="Const" version="opset1">
			<data element_type="f32" offset="181412" shape="" size="4"/>
			<output>
				<port id="1" precision="FP32"/>
			</output>
		</layer>
		<layer id="289" name="650/fq_input_1" type="FakeQuantize" version="opset1">
			<data levels="256"/>
			<input>
				<port id="0">
					<dim>1</dim>
					<dim>64</dim>
					<dim>64</dim>
					<dim>32</dim>
				</port>
				<port id="1"/>
				<port id="2"/>
				<port id="3"/>
				<port id="4"/>
			</input>
			<output>
				<port id="5" precision="FP32">
					<dim>1</dim>
					<dim>64</dim>
					<dim>64</dim>
					<dim>32</dim>
				</port>
			</output>
		</layer>
		<layer id="290" name="650" type="Add" version="opset1">
			<input>
				<port id="0">
					<dim>1</dim>
					<dim>64</dim>
					<dim>64</dim>
					<dim>32</dim>
				</port>
				<port id="1">
					<dim>1</dim>
					<dim>64</dim>
					<dim>64</dim>
					<dim>32</dim>
				</port>
			</input>
			<output>
				<port id="2" precision="FP32">
					<dim>1</dim>
					<dim>64</dim>
					<dim>64</dim>
					<dim>32</dim>
				</port>
			</output>
		</layer>
		<layer id="291" name="62316235_const" type="Const" version="opset1">
			<data element_type="f32" offset="38944" shape="" size="4"/>
			<output>
				<port id="1" precision="FP32"/>
			</output>
		</layer>
		<layer id="292" name="62326236_const" type="Const" version="opset1">
			<data element_type="f32" offset="181416" shape="" size="4"/>
			<output>
				<port id="1" precision="FP32"/>
			</output>
		</layer>
		<layer id="293" name="62336237_const" type="Const" version="opset1">
			<data element_type="f32" offset="38944" shape="" size="4"/>
			<output>
				<port id="1" precision="FP32"/>
			</output>
		</layer>
		<layer id="294" name="62346238_const" type="Const" version="opset1">
			<data element_type="f32" offset="181416" shape="" size="4"/>
			<output>
				<port id="1" precision="FP32"/>
			</output>
		</layer>
		<layer id="295" name="657/fq_input_0" type="FakeQuantize" version="opset1">
			<data levels="256"/>
			<input>
				<port id="0">
					<dim>1</dim>
					<dim>64</dim>
					<dim>64</dim>
					<dim>32</dim>
				</port>
				<port id="1"/>
				<port id="2"/>
				<port id="3"/>
				<port id="4"/>
			</input>
			<output>
				<port id="5" precision="FP32">
					<dim>1</dim>
					<dim>64</dim>
					<dim>64</dim>
					<dim>32</dim>
				</port>
			</output>
		</layer>
		<layer id="296" name="onnx_initializer_node_conv2.0.conv2d.0.conv1.weight/Output_0/Data__const1139_const" type="Const" version="opset1">
			<data element_type="f32" offset="181420" shape="64,64,1,1" size="16384"/>
			<output>
				<port id="1" precision="FP32">
					<dim>64</dim>
					<dim>64</dim>
					<dim>1</dim>
					<dim>1</dim>
				</port>
			</output>
		</layer>
		<layer id="297" name="29012905_const" type="Const" version="opset1">
			<data element_type="f32" offset="197804" shape="64,1,1,1" size="256"/>
			<output>
				<port id="1" precision="FP32">
					<dim>64</dim>
					<dim>1</dim>
					<dim>1</dim>
					<dim>1</dim>
				</port>
			</output>
		</layer>
		<layer id="298" name="29022906_const" type="Const" version="opset1">
			<data element_type="f32" offset="198060" shape="64,1,1,1" size="256"/>
			<output>
				<port id="1" precision="FP32">
					<dim>64</dim>
					<dim>1</dim>
					<dim>1</dim>
					<dim>1</dim>
				</port>
			</output>
		</layer>
		<layer id="299" name="29032907_const" type="Const" version="opset1">
			<data element_type="f32" offset="197804" shape="64,1,1,1" size="256"/>
			<output>
				<port id="1" precision="FP32">
					<dim>64</dim>
					<dim>1</dim>
					<dim>1</dim>
					<dim>1</dim>
				</port>
			</output>
		</layer>
		<layer id="300" name="29042908_const" type="Const" version="opset1">
			<data element_type="f32" offset="198060" shape="64,1,1,1" size="256"/>
			<output>
				<port id="1" precision="FP32">
					<dim>64</dim>
					<dim>1</dim>
					<dim>1</dim>
					<dim>1</dim>
				</port>
			</output>
		</layer>
		<layer id="301" name="615/fq_weights_1" type="FakeQuantize" version="opset1">
			<data levels="255"/>
			<input>
				<port id="0">
					<dim>64</dim>
					<dim>64</dim>
					<dim>1</dim>
					<dim>1</dim>
				</port>
				<port id="1">
					<dim>64</dim>
					<dim>1</dim>
					<dim>1</dim>
					<dim>1</dim>
				</port>
				<port id="2">
					<dim>64</dim>
					<dim>1</dim>
					<dim>1</dim>
					<dim>1</dim>
				</port>
				<port id="3">
					<dim>64</dim>
					<dim>1</dim>
					<dim>1</dim>
					<dim>1</dim>
				</port>
				<port id="4">
					<dim>64</dim>
					<dim>1</dim>
					<dim>1</dim>
					<dim>1</dim>
				</port>
			</input>
			<output>
				<port id="5" precision="FP32">
					<dim>64</dim>
					<dim>64</dim>
					<dim>1</dim>
					<dim>1</dim>
				</port>
			</output>
		</layer>
		<layer id="302" name="615" type="Convolution" version="opset1">
			<data dilations="1,1" output_padding="0,0" pads_begin="0,0" pads_end="0,0" strides="1,1"/>
			<input>
				<port id="0">
					<dim>1</dim>
					<dim>64</dim>
					<dim>64</dim>
					<dim>32</dim>
				</port>
				<port id="1">
					<dim>64</dim>
					<dim>64</dim>
					<dim>1</dim>
					<dim>1</dim>
				</port>
			</input>
			<output>
				<port id="2" precision="FP32">
					<dim>1</dim>
					<dim>64</dim>
					<dim>64</dim>
					<dim>32</dim>
				</port>
			</output>
		</layer>
		<layer id="303" name="28612865_const" type="Const" version="opset1">
			<data element_type="f32" offset="198316" shape="1,64,1,1" size="256"/>
			<output>
				<port id="1" precision="FP32">
					<dim>1</dim>
					<dim>64</dim>
					<dim>1</dim>
					<dim>1</dim>
				</port>
			</output>
		</layer>
		<layer id="304" name="28622866_const" type="Const" version="opset1">
			<data element_type="f32" offset="198572" shape="1,64,1,1" size="256"/>
			<output>
				<port id="1" precision="FP32">
					<dim>1</dim>
					<dim>64</dim>
					<dim>1</dim>
					<dim>1</dim>
				</port>
			</output>
		</layer>
		<layer id="305" name="28632867_const" type="Const" version="opset1">
			<data element_type="f32" offset="198316" shape="1,64,1,1" size="256"/>
			<output>
				<port id="1" precision="FP32">
					<dim>1</dim>
					<dim>64</dim>
					<dim>1</dim>
					<dim>1</dim>
				</port>
			</output>
		</layer>
		<layer id="306" name="28642868_const" type="Const" version="opset1">
			<data element_type="f32" offset="198572" shape="1,64,1,1" size="256"/>
			<output>
				<port id="1" precision="FP32">
					<dim>1</dim>
					<dim>64</dim>
					<dim>1</dim>
					<dim>1</dim>
				</port>
			</output>
		</layer>
		<layer id="307" name="616/fq_input_0" type="FakeQuantize" version="opset1">
			<data levels="256"/>
			<input>
				<port id="0">
					<dim>1</dim>
					<dim>64</dim>
					<dim>64</dim>
					<dim>32</dim>
				</port>
				<port id="1">
					<dim>1</dim>
					<dim>64</dim>
					<dim>1</dim>
					<dim>1</dim>
				</port>
				<port id="2">
					<dim>1</dim>
					<dim>64</dim>
					<dim>1</dim>
					<dim>1</dim>
				</port>
				<port id="3">
					<dim>1</dim>
					<dim>64</dim>
					<dim>1</dim>
					<dim>1</dim>
				</port>
				<port id="4">
					<dim>1</dim>
					<dim>64</dim>
					<dim>1</dim>
					<dim>1</dim>
				</port>
			</input>
			<output>
				<port id="5" precision="FP32">
					<dim>1</dim>
					<dim>64</dim>
					<dim>64</dim>
					<dim>32</dim>
				</port>
			</output>
		</layer>
		<layer id="308" name="22281970_const" type="Const" version="opset1">
			<data element_type="f32" offset="198828" shape="64,1,3,3" size="2304"/>
			<output>
				<port id="1" precision="FP32">
					<dim>64</dim>
					<dim>1</dim>
					<dim>3</dim>
					<dim>3</dim>
				</port>
			</output>
		</layer>
		<layer id="309" name="28712875_const" type="Const" version="opset1">
			<data element_type="f32" offset="201132" shape="64,1,1,1" size="256"/>
			<output>
				<port id="1" precision="FP32">
					<dim>64</dim>
					<dim>1</dim>
					<dim>1</dim>
					<dim>1</dim>
				</port>
			</output>
		</layer>
		<layer id="310" name="28722876_const" type="Const" version="opset1">
			<data element_type="f32" offset="201388" shape="64,1,1,1" size="256"/>
			<output>
				<port id="1" precision="FP32">
					<dim>64</dim>
					<dim>1</dim>
					<dim>1</dim>
					<dim>1</dim>
				</port>
			</output>
		</layer>
		<layer id="311" name="28732877_const" type="Const" version="opset1">
			<data element_type="f32" offset="201132" shape="64,1,1,1" size="256"/>
			<output>
				<port id="1" precision="FP32">
					<dim>64</dim>
					<dim>1</dim>
					<dim>1</dim>
					<dim>1</dim>
				</port>
			</output>
		</layer>
		<layer id="312" name="28742878_const" type="Const" version="opset1">
			<data element_type="f32" offset="201388" shape="64,1,1,1" size="256"/>
			<output>
				<port id="1" precision="FP32">
					<dim>64</dim>
					<dim>1</dim>
					<dim>1</dim>
					<dim>1</dim>
				</port>
			</output>
		</layer>
		<layer id="313" name="616/fq_weights_1" type="FakeQuantize" version="opset1">
			<data levels="255"/>
			<input>
				<port id="0">
					<dim>64</dim>
					<dim>1</dim>
					<dim>3</dim>
					<dim>3</dim>
				</port>
				<port id="1">
					<dim>64</dim>
					<dim>1</dim>
					<dim>1</dim>
					<dim>1</dim>
				</port>
				<port id="2">
					<dim>64</dim>
					<dim>1</dim>
					<dim>1</dim>
					<dim>1</dim>
				</port>
				<port id="3">
					<dim>64</dim>
					<dim>1</dim>
					<dim>1</dim>
					<dim>1</dim>
				</port>
				<port id="4">
					<dim>64</dim>
					<dim>1</dim>
					<dim>1</dim>
					<dim>1</dim>
				</port>
			</input>
			<output>
				<port id="5" precision="FP32">
					<dim>64</dim>
					<dim>1</dim>
					<dim>3</dim>
					<dim>3</dim>
				</port>
			</output>
		</layer>
		<layer id="314" name="13456/value13458_const" type="Const" version="opset1">
			<data element_type="i64" offset="76332" shape="5" size="40"/>
			<output>
				<port id="1" precision="I64">
					<dim>5</dim>
				</port>
			</output>
		</layer>
		<layer id="315" name="13456" type="Reshape" version="opset1">
			<data special_zero="True"/>
			<input>
				<port id="0">
					<dim>64</dim>
					<dim>1</dim>
					<dim>3</dim>
					<dim>3</dim>
				</port>
				<port id="1">
					<dim>5</dim>
				</port>
			</input>
			<output>
				<port id="2" precision="FP32">
					<dim>64</dim>
					<dim>1</dim>
					<dim>1</dim>
					<dim>3</dim>
					<dim>3</dim>
				</port>
			</output>
		</layer>
		<layer id="316" name="616" type="GroupConvolution" version="opset1">
			<data dilations="1,1" output_padding="0,0" pads_begin="1,1" pads_end="1,1" strides="1,1"/>
			<input>
				<port id="0">
					<dim>1</dim>
					<dim>64</dim>
					<dim>64</dim>
					<dim>32</dim>
				</port>
				<port id="1">
					<dim>64</dim>
					<dim>1</dim>
					<dim>1</dim>
					<dim>3</dim>
					<dim>3</dim>
				</port>
			</input>
			<output>
				<port id="2" precision="FP32">
					<dim>1</dim>
					<dim>64</dim>
					<dim>64</dim>
					<dim>32</dim>
				</port>
			</output>
		</layer>
		<layer id="317" name="data_add_1912119126/copy_const1143_const" type="Const" version="opset1">
			<data element_type="f32" offset="201644" shape="1,64,1,1" size="256"/>
			<output>
				<port id="1" precision="FP32">
					<dim>1</dim>
					<dim>64</dim>
					<dim>1</dim>
					<dim>1</dim>
				</port>
			</output>
		</layer>
		<layer id="318" name="Add1_17015/Fused_Add_" type="Add" version="opset1">
			<input>
				<port id="0">
					<dim>1</dim>
					<dim>64</dim>
					<dim>64</dim>
					<dim>32</dim>
				</port>
				<port id="1">
					<dim>1</dim>
					<dim>64</dim>
					<dim>1</dim>
					<dim>1</dim>
				</port>
			</input>
			<output>
				<port id="2" precision="FP32">
					<dim>1</dim>
					<dim>64</dim>
					<dim>64</dim>
					<dim>32</dim>
				</port>
			</output>
		</layer>
		<layer id="319" name="618" type="ReLU" version="opset1">
			<input>
				<port id="0">
					<dim>1</dim>
					<dim>64</dim>
					<dim>64</dim>
					<dim>32</dim>
				</port>
			</input>
			<output>
				<port id="1" precision="FP32">
					<dim>1</dim>
					<dim>64</dim>
					<dim>64</dim>
					<dim>32</dim>
				</port>
			</output>
		</layer>
		<layer id="320" name="34813485_const" type="Const" version="opset1">
			<data element_type="f32" offset="38944" shape="" size="4"/>
			<output>
				<port id="1" precision="FP32"/>
			</output>
		</layer>
		<layer id="321" name="34823486_const" type="Const" version="opset1">
			<data element_type="f32" offset="201900" shape="" size="4"/>
			<output>
				<port id="1" precision="FP32"/>
			</output>
		</layer>
		<layer id="322" name="34833487_const" type="Const" version="opset1">
			<data element_type="f32" offset="38944" shape="" size="4"/>
			<output>
				<port id="1" precision="FP32"/>
			</output>
		</layer>
		<layer id="323" name="34843488_const" type="Const" version="opset1">
			<data element_type="f32" offset="201900" shape="" size="4"/>
			<output>
				<port id="1" precision="FP32"/>
			</output>
		</layer>
		<layer id="324" name="619/fq_input_0" type="FakeQuantize" version="opset1">
			<data levels="256"/>
			<input>
				<port id="0">
					<dim>1</dim>
					<dim>64</dim>
					<dim>64</dim>
					<dim>32</dim>
				</port>
				<port id="1"/>
				<port id="2"/>
				<port id="3"/>
				<port id="4"/>
			</input>
			<output>
				<port id="5" precision="FP32">
					<dim>1</dim>
					<dim>64</dim>
					<dim>64</dim>
					<dim>32</dim>
				</port>
			</output>
		</layer>
		<layer id="325" name="onnx_initializer_node_conv2.0.conv2d.1.conv1.weight/Output_0/Data__const1146_const" type="Const" version="opset1">
			<data element_type="f32" offset="201904" shape="64,64,1,1" size="16384"/>
			<output>
				<port id="1" precision="FP32">
					<dim>64</dim>
					<dim>64</dim>
					<dim>1</dim>
					<dim>1</dim>
				</port>
			</output>
		</layer>
		<layer id="326" name="34913495_const" type="Const" version="opset1">
			<data element_type="f32" offset="218288" shape="64,1,1,1" size="256"/>
			<output>
				<port id="1" precision="FP32">
					<dim>64</dim>
					<dim>1</dim>
					<dim>1</dim>
					<dim>1</dim>
				</port>
			</output>
		</layer>
		<layer id="327" name="34923496_const" type="Const" version="opset1">
			<data element_type="f32" offset="218544" shape="64,1,1,1" size="256"/>
			<output>
				<port id="1" precision="FP32">
					<dim>64</dim>
					<dim>1</dim>
					<dim>1</dim>
					<dim>1</dim>
				</port>
			</output>
		</layer>
		<layer id="328" name="34933497_const" type="Const" version="opset1">
			<data element_type="f32" offset="218288" shape="64,1,1,1" size="256"/>
			<output>
				<port id="1" precision="FP32">
					<dim>64</dim>
					<dim>1</dim>
					<dim>1</dim>
					<dim>1</dim>
				</port>
			</output>
		</layer>
		<layer id="329" name="34943498_const" type="Const" version="opset1">
			<data element_type="f32" offset="218544" shape="64,1,1,1" size="256"/>
			<output>
				<port id="1" precision="FP32">
					<dim>64</dim>
					<dim>1</dim>
					<dim>1</dim>
					<dim>1</dim>
				</port>
			</output>
		</layer>
		<layer id="330" name="619/fq_weights_1" type="FakeQuantize" version="opset1">
			<data levels="255"/>
			<input>
				<port id="0">
					<dim>64</dim>
					<dim>64</dim>
					<dim>1</dim>
					<dim>1</dim>
				</port>
				<port id="1">
					<dim>64</dim>
					<dim>1</dim>
					<dim>1</dim>
					<dim>1</dim>
				</port>
				<port id="2">
					<dim>64</dim>
					<dim>1</dim>
					<dim>1</dim>
					<dim>1</dim>
				</port>
				<port id="3">
					<dim>64</dim>
					<dim>1</dim>
					<dim>1</dim>
					<dim>1</dim>
				</port>
				<port id="4">
					<dim>64</dim>
					<dim>1</dim>
					<dim>1</dim>
					<dim>1</dim>
				</port>
			</input>
			<output>
				<port id="5" precision="FP32">
					<dim>64</dim>
					<dim>64</dim>
					<dim>1</dim>
					<dim>1</dim>
				</port>
			</output>
		</layer>
		<layer id="331" name="619" type="Convolution" version="opset1">
			<data dilations="1,1" output_padding="0,0" pads_begin="0,0" pads_end="0,0" strides="1,1"/>
			<input>
				<port id="0">
					<dim>1</dim>
					<dim>64</dim>
					<dim>64</dim>
					<dim>32</dim>
				</port>
				<port id="1">
					<dim>64</dim>
					<dim>64</dim>
					<dim>1</dim>
					<dim>1</dim>
				</port>
			</input>
			<output>
				<port id="2" precision="FP32">
					<dim>1</dim>
					<dim>64</dim>
					<dim>64</dim>
					<dim>32</dim>
				</port>
			</output>
		</layer>
		<layer id="332" name="67116715_const" type="Const" version="opset1">
			<data element_type="f32" offset="218800" shape="1,64,1,1" size="256"/>
			<output>
				<port id="1" precision="FP32">
					<dim>1</dim>
					<dim>64</dim>
					<dim>1</dim>
					<dim>1</dim>
				</port>
			</output>
		</layer>
		<layer id="333" name="67126716_const" type="Const" version="opset1">
			<data element_type="f32" offset="219056" shape="1,64,1,1" size="256"/>
			<output>
				<port id="1" precision="FP32">
					<dim>1</dim>
					<dim>64</dim>
					<dim>1</dim>
					<dim>1</dim>
				</port>
			</output>
		</layer>
		<layer id="334" name="67136717_const" type="Const" version="opset1">
			<data element_type="f32" offset="218800" shape="1,64,1,1" size="256"/>
			<output>
				<port id="1" precision="FP32">
					<dim>1</dim>
					<dim>64</dim>
					<dim>1</dim>
					<dim>1</dim>
				</port>
			</output>
		</layer>
		<layer id="335" name="67146718_const" type="Const" version="opset1">
			<data element_type="f32" offset="219056" shape="1,64,1,1" size="256"/>
			<output>
				<port id="1" precision="FP32">
					<dim>1</dim>
					<dim>64</dim>
					<dim>1</dim>
					<dim>1</dim>
				</port>
			</output>
		</layer>
		<layer id="336" name="620/fq_input_0" type="FakeQuantize" version="opset1">
			<data levels="256"/>
			<input>
				<port id="0">
					<dim>1</dim>
					<dim>64</dim>
					<dim>64</dim>
					<dim>32</dim>
				</port>
				<port id="1">
					<dim>1</dim>
					<dim>64</dim>
					<dim>1</dim>
					<dim>1</dim>
				</port>
				<port id="2">
					<dim>1</dim>
					<dim>64</dim>
					<dim>1</dim>
					<dim>1</dim>
				</port>
				<port id="3">
					<dim>1</dim>
					<dim>64</dim>
					<dim>1</dim>
					<dim>1</dim>
				</port>
				<port id="4">
					<dim>1</dim>
					<dim>64</dim>
					<dim>1</dim>
					<dim>1</dim>
				</port>
			</input>
			<output>
				<port id="5" precision="FP32">
					<dim>1</dim>
					<dim>64</dim>
					<dim>64</dim>
					<dim>32</dim>
				</port>
			</output>
		</layer>
		<layer id="337" name="22321972_const" type="Const" version="opset1">
			<data element_type="f32" offset="219312" shape="64,1,3,3" size="2304"/>
			<output>
				<port id="1" precision="FP32">
					<dim>64</dim>
					<dim>1</dim>
					<dim>3</dim>
					<dim>3</dim>
				</port>
			</output>
		</layer>
		<layer id="338" name="67216725_const" type="Const" version="opset1">
			<data element_type="f32" offset="221616" shape="64,1,1,1" size="256"/>
			<output>
				<port id="1" precision="FP32">
					<dim>64</dim>
					<dim>1</dim>
					<dim>1</dim>
					<dim>1</dim>
				</port>
			</output>
		</layer>
		<layer id="339" name="67226726_const" type="Const" version="opset1">
			<data element_type="f32" offset="221872" shape="64,1,1,1" size="256"/>
			<output>
				<port id="1" precision="FP32">
					<dim>64</dim>
					<dim>1</dim>
					<dim>1</dim>
					<dim>1</dim>
				</port>
			</output>
		</layer>
		<layer id="340" name="67236727_const" type="Const" version="opset1">
			<data element_type="f32" offset="221616" shape="64,1,1,1" size="256"/>
			<output>
				<port id="1" precision="FP32">
					<dim>64</dim>
					<dim>1</dim>
					<dim>1</dim>
					<dim>1</dim>
				</port>
			</output>
		</layer>
		<layer id="341" name="67246728_const" type="Const" version="opset1">
			<data element_type="f32" offset="221872" shape="64,1,1,1" size="256"/>
			<output>
				<port id="1" precision="FP32">
					<dim>64</dim>
					<dim>1</dim>
					<dim>1</dim>
					<dim>1</dim>
				</port>
			</output>
		</layer>
		<layer id="342" name="620/fq_weights_1" type="FakeQuantize" version="opset1">
			<data levels="255"/>
			<input>
				<port id="0">
					<dim>64</dim>
					<dim>1</dim>
					<dim>3</dim>
					<dim>3</dim>
				</port>
				<port id="1">
					<dim>64</dim>
					<dim>1</dim>
					<dim>1</dim>
					<dim>1</dim>
				</port>
				<port id="2">
					<dim>64</dim>
					<dim>1</dim>
					<dim>1</dim>
					<dim>1</dim>
				</port>
				<port id="3">
					<dim>64</dim>
					<dim>1</dim>
					<dim>1</dim>
					<dim>1</dim>
				</port>
				<port id="4">
					<dim>64</dim>
					<dim>1</dim>
					<dim>1</dim>
					<dim>1</dim>
				</port>
			</input>
			<output>
				<port id="5" precision="FP32">
					<dim>64</dim>
					<dim>1</dim>
					<dim>3</dim>
					<dim>3</dim>
				</port>
			</output>
		</layer>
		<layer id="343" name="13516/value13518_const" type="Const" version="opset1">
			<data element_type="i64" offset="76332" shape="5" size="40"/>
			<output>
				<port id="1" precision="I64">
					<dim>5</dim>
				</port>
			</output>
		</layer>
		<layer id="344" name="13516" type="Reshape" version="opset1">
			<data special_zero="True"/>
			<input>
				<port id="0">
					<dim>64</dim>
					<dim>1</dim>
					<dim>3</dim>
					<dim>3</dim>
				</port>
				<port id="1">
					<dim>5</dim>
				</port>
			</input>
			<output>
				<port id="2" precision="FP32">
					<dim>64</dim>
					<dim>1</dim>
					<dim>1</dim>
					<dim>3</dim>
					<dim>3</dim>
				</port>
			</output>
		</layer>
		<layer id="345" name="620" type="GroupConvolution" version="opset1">
			<data dilations="1,1" output_padding="0,0" pads_begin="1,1" pads_end="1,1" strides="1,1"/>
			<input>
				<port id="0">
					<dim>1</dim>
					<dim>64</dim>
					<dim>64</dim>
					<dim>32</dim>
				</port>
				<port id="1">
					<dim>64</dim>
					<dim>1</dim>
					<dim>1</dim>
					<dim>3</dim>
					<dim>3</dim>
				</port>
			</input>
			<output>
				<port id="2" precision="FP32">
					<dim>1</dim>
					<dim>64</dim>
					<dim>64</dim>
					<dim>32</dim>
				</port>
			</output>
		</layer>
		<layer id="346" name="data_add_1912919134/copy_const1150_const" type="Const" version="opset1">
			<data element_type="f32" offset="222128" shape="1,64,1,1" size="256"/>
			<output>
				<port id="1" precision="FP32">
					<dim>1</dim>
					<dim>64</dim>
					<dim>1</dim>
					<dim>1</dim>
				</port>
			</output>
		</layer>
		<layer id="347" name="Add1_17027/Fused_Add_" type="Add" version="opset1">
			<input>
				<port id="0">
					<dim>1</dim>
					<dim>64</dim>
					<dim>64</dim>
					<dim>32</dim>
				</port>
				<port id="1">
					<dim>1</dim>
					<dim>64</dim>
					<dim>1</dim>
					<dim>1</dim>
				</port>
			</input>
			<output>
				<port id="2" precision="FP32">
					<dim>1</dim>
					<dim>64</dim>
					<dim>64</dim>
					<dim>32</dim>
				</port>
			</output>
		</layer>
		<layer id="348" name="622" type="ReLU" version="opset1">
			<input>
				<port id="0">
					<dim>1</dim>
					<dim>64</dim>
					<dim>64</dim>
					<dim>32</dim>
				</port>
			</input>
			<output>
				<port id="1" precision="FP32">
					<dim>1</dim>
					<dim>64</dim>
					<dim>64</dim>
					<dim>32</dim>
				</port>
			</output>
		</layer>
		<layer id="349" name="56215625_const" type="Const" version="opset1">
			<data element_type="f32" offset="38944" shape="" size="4"/>
			<output>
				<port id="1" precision="FP32"/>
			</output>
		</layer>
		<layer id="350" name="56225626_const" type="Const" version="opset1">
			<data element_type="f32" offset="222384" shape="" size="4"/>
			<output>
				<port id="1" precision="FP32"/>
			</output>
		</layer>
		<layer id="351" name="56235627_const" type="Const" version="opset1">
			<data element_type="f32" offset="38944" shape="" size="4"/>
			<output>
				<port id="1" precision="FP32"/>
			</output>
		</layer>
		<layer id="352" name="56245628_const" type="Const" version="opset1">
			<data element_type="f32" offset="222384" shape="" size="4"/>
			<output>
				<port id="1" precision="FP32"/>
			</output>
		</layer>
		<layer id="353" name="623/fq_input_0" type="FakeQuantize" version="opset1">
			<data levels="256"/>
			<input>
				<port id="0">
					<dim>1</dim>
					<dim>64</dim>
					<dim>64</dim>
					<dim>32</dim>
				</port>
				<port id="1"/>
				<port id="2"/>
				<port id="3"/>
				<port id="4"/>
			</input>
			<output>
				<port id="5" precision="FP32">
					<dim>1</dim>
					<dim>64</dim>
					<dim>64</dim>
					<dim>32</dim>
				</port>
			</output>
		</layer>
		<layer id="354" name="onnx_initializer_node_conv2.0.conv2d.2.conv1.weight/Output_0/Data__const1153_const" type="Const" version="opset1">
			<data element_type="f32" offset="222388" shape="64,64,1,1" size="16384"/>
			<output>
				<port id="1" precision="FP32">
					<dim>64</dim>
					<dim>64</dim>
					<dim>1</dim>
					<dim>1</dim>
				</port>
			</output>
		</layer>
		<layer id="355" name="56315635_const" type="Const" version="opset1">
			<data element_type="f32" offset="238772" shape="64,1,1,1" size="256"/>
			<output>
				<port id="1" precision="FP32">
					<dim>64</dim>
					<dim>1</dim>
					<dim>1</dim>
					<dim>1</dim>
				</port>
			</output>
		</layer>
		<layer id="356" name="56325636_const" type="Const" version="opset1">
			<data element_type="f32" offset="239028" shape="64,1,1,1" size="256"/>
			<output>
				<port id="1" precision="FP32">
					<dim>64</dim>
					<dim>1</dim>
					<dim>1</dim>
					<dim>1</dim>
				</port>
			</output>
		</layer>
		<layer id="357" name="56335637_const" type="Const" version="opset1">
			<data element_type="f32" offset="238772" shape="64,1,1,1" size="256"/>
			<output>
				<port id="1" precision="FP32">
					<dim>64</dim>
					<dim>1</dim>
					<dim>1</dim>
					<dim>1</dim>
				</port>
			</output>
		</layer>
		<layer id="358" name="56345638_const" type="Const" version="opset1">
			<data element_type="f32" offset="239028" shape="64,1,1,1" size="256"/>
			<output>
				<port id="1" precision="FP32">
					<dim>64</dim>
					<dim>1</dim>
					<dim>1</dim>
					<dim>1</dim>
				</port>
			</output>
		</layer>
		<layer id="359" name="623/fq_weights_1" type="FakeQuantize" version="opset1">
			<data levels="255"/>
			<input>
				<port id="0">
					<dim>64</dim>
					<dim>64</dim>
					<dim>1</dim>
					<dim>1</dim>
				</port>
				<port id="1">
					<dim>64</dim>
					<dim>1</dim>
					<dim>1</dim>
					<dim>1</dim>
				</port>
				<port id="2">
					<dim>64</dim>
					<dim>1</dim>
					<dim>1</dim>
					<dim>1</dim>
				</port>
				<port id="3">
					<dim>64</dim>
					<dim>1</dim>
					<dim>1</dim>
					<dim>1</dim>
				</port>
				<port id="4">
					<dim>64</dim>
					<dim>1</dim>
					<dim>1</dim>
					<dim>1</dim>
				</port>
			</input>
			<output>
				<port id="5" precision="FP32">
					<dim>64</dim>
					<dim>64</dim>
					<dim>1</dim>
					<dim>1</dim>
				</port>
			</output>
		</layer>
		<layer id="360" name="623" type="Convolution" version="opset1">
			<data dilations="1,1" output_padding="0,0" pads_begin="0,0" pads_end="0,0" strides="1,1"/>
			<input>
				<port id="0">
					<dim>1</dim>
					<dim>64</dim>
					<dim>64</dim>
					<dim>32</dim>
				</port>
				<port id="1">
					<dim>64</dim>
					<dim>64</dim>
					<dim>1</dim>
					<dim>1</dim>
				</port>
			</input>
			<output>
				<port id="2" precision="FP32">
					<dim>1</dim>
					<dim>64</dim>
					<dim>64</dim>
					<dim>32</dim>
				</port>
			</output>
		</layer>
		<layer id="361" name="48114815_const" type="Const" version="opset1">
			<data element_type="f32" offset="239284" shape="1,64,1,1" size="256"/>
			<output>
				<port id="1" precision="FP32">
					<dim>1</dim>
					<dim>64</dim>
					<dim>1</dim>
					<dim>1</dim>
				</port>
			</output>
		</layer>
		<layer id="362" name="48124816_const" type="Const" version="opset1">
			<data element_type="f32" offset="239540" shape="1,64,1,1" size="256"/>
			<output>
				<port id="1" precision="FP32">
					<dim>1</dim>
					<dim>64</dim>
					<dim>1</dim>
					<dim>1</dim>
				</port>
			</output>
		</layer>
		<layer id="363" name="48134817_const" type="Const" version="opset1">
			<data element_type="f32" offset="239284" shape="1,64,1,1" size="256"/>
			<output>
				<port id="1" precision="FP32">
					<dim>1</dim>
					<dim>64</dim>
					<dim>1</dim>
					<dim>1</dim>
				</port>
			</output>
		</layer>
		<layer id="364" name="48144818_const" type="Const" version="opset1">
			<data element_type="f32" offset="239540" shape="1,64,1,1" size="256"/>
			<output>
				<port id="1" precision="FP32">
					<dim>1</dim>
					<dim>64</dim>
					<dim>1</dim>
					<dim>1</dim>
				</port>
			</output>
		</layer>
		<layer id="365" name="624/fq_input_0" type="FakeQuantize" version="opset1">
			<data levels="256"/>
			<input>
				<port id="0">
					<dim>1</dim>
					<dim>64</dim>
					<dim>64</dim>
					<dim>32</dim>
				</port>
				<port id="1">
					<dim>1</dim>
					<dim>64</dim>
					<dim>1</dim>
					<dim>1</dim>
				</port>
				<port id="2">
					<dim>1</dim>
					<dim>64</dim>
					<dim>1</dim>
					<dim>1</dim>
				</port>
				<port id="3">
					<dim>1</dim>
					<dim>64</dim>
					<dim>1</dim>
					<dim>1</dim>
				</port>
				<port id="4">
					<dim>1</dim>
					<dim>64</dim>
					<dim>1</dim>
					<dim>1</dim>
				</port>
			</input>
			<output>
				<port id="5" precision="FP32">
					<dim>1</dim>
					<dim>64</dim>
					<dim>64</dim>
					<dim>32</dim>
				</port>
			</output>
		</layer>
		<layer id="366" name="22361974_const" type="Const" version="opset1">
			<data element_type="f32" offset="239796" shape="64,1,3,3" size="2304"/>
			<output>
				<port id="1" precision="FP32">
					<dim>64</dim>
					<dim>1</dim>
					<dim>3</dim>
					<dim>3</dim>
				</port>
			</output>
		</layer>
		<layer id="367" name="48214825_const" type="Const" version="opset1">
			<data element_type="f32" offset="242100" shape="64,1,1,1" size="256"/>
			<output>
				<port id="1" precision="FP32">
					<dim>64</dim>
					<dim>1</dim>
					<dim>1</dim>
					<dim>1</dim>
				</port>
			</output>
		</layer>
		<layer id="368" name="48224826_const" type="Const" version="opset1">
			<data element_type="f32" offset="242356" shape="64,1,1,1" size="256"/>
			<output>
				<port id="1" precision="FP32">
					<dim>64</dim>
					<dim>1</dim>
					<dim>1</dim>
					<dim>1</dim>
				</port>
			</output>
		</layer>
		<layer id="369" name="48234827_const" type="Const" version="opset1">
			<data element_type="f32" offset="242100" shape="64,1,1,1" size="256"/>
			<output>
				<port id="1" precision="FP32">
					<dim>64</dim>
					<dim>1</dim>
					<dim>1</dim>
					<dim>1</dim>
				</port>
			</output>
		</layer>
		<layer id="370" name="48244828_const" type="Const" version="opset1">
			<data element_type="f32" offset="242356" shape="64,1,1,1" size="256"/>
			<output>
				<port id="1" precision="FP32">
					<dim>64</dim>
					<dim>1</dim>
					<dim>1</dim>
					<dim>1</dim>
				</port>
			</output>
		</layer>
		<layer id="371" name="624/fq_weights_1" type="FakeQuantize" version="opset1">
			<data levels="255"/>
			<input>
				<port id="0">
					<dim>64</dim>
					<dim>1</dim>
					<dim>3</dim>
					<dim>3</dim>
				</port>
				<port id="1">
					<dim>64</dim>
					<dim>1</dim>
					<dim>1</dim>
					<dim>1</dim>
				</port>
				<port id="2">
					<dim>64</dim>
					<dim>1</dim>
					<dim>1</dim>
					<dim>1</dim>
				</port>
				<port id="3">
					<dim>64</dim>
					<dim>1</dim>
					<dim>1</dim>
					<dim>1</dim>
				</port>
				<port id="4">
					<dim>64</dim>
					<dim>1</dim>
					<dim>1</dim>
					<dim>1</dim>
				</port>
			</input>
			<output>
				<port id="5" precision="FP32">
					<dim>64</dim>
					<dim>1</dim>
					<dim>3</dim>
					<dim>3</dim>
				</port>
			</output>
		</layer>
		<layer id="372" name="13316/value13318_const" type="Const" version="opset1">
			<data element_type="i64" offset="76332" shape="5" size="40"/>
			<output>
				<port id="1" precision="I64">
					<dim>5</dim>
				</port>
			</output>
		</layer>
		<layer id="373" name="13316" type="Reshape" version="opset1">
			<data special_zero="True"/>
			<input>
				<port id="0">
					<dim>64</dim>
					<dim>1</dim>
					<dim>3</dim>
					<dim>3</dim>
				</port>
				<port id="1">
					<dim>5</dim>
				</port>
			</input>
			<output>
				<port id="2" precision="FP32">
					<dim>64</dim>
					<dim>1</dim>
					<dim>1</dim>
					<dim>3</dim>
					<dim>3</dim>
				</port>
			</output>
		</layer>
		<layer id="374" name="624" type="GroupConvolution" version="opset1">
			<data dilations="1,1" output_padding="0,0" pads_begin="1,1" pads_end="1,1" strides="1,1"/>
			<input>
				<port id="0">
					<dim>1</dim>
					<dim>64</dim>
					<dim>64</dim>
					<dim>32</dim>
				</port>
				<port id="1">
					<dim>64</dim>
					<dim>1</dim>
					<dim>1</dim>
					<dim>3</dim>
					<dim>3</dim>
				</port>
			</input>
			<output>
				<port id="2" precision="FP32">
					<dim>1</dim>
					<dim>64</dim>
					<dim>64</dim>
					<dim>32</dim>
				</port>
			</output>
		</layer>
		<layer id="375" name="data_add_1913719142/copy_const1157_const" type="Const" version="opset1">
			<data element_type="f32" offset="242612" shape="1,64,1,1" size="256"/>
			<output>
				<port id="1" precision="FP32">
					<dim>1</dim>
					<dim>64</dim>
					<dim>1</dim>
					<dim>1</dim>
				</port>
			</output>
		</layer>
		<layer id="376" name="Add1_17039/Fused_Add_" type="Add" version="opset1">
			<input>
				<port id="0">
					<dim>1</dim>
					<dim>64</dim>
					<dim>64</dim>
					<dim>32</dim>
				</port>
				<port id="1">
					<dim>1</dim>
					<dim>64</dim>
					<dim>1</dim>
					<dim>1</dim>
				</port>
			</input>
			<output>
				<port id="2" precision="FP32">
					<dim>1</dim>
					<dim>64</dim>
					<dim>64</dim>
					<dim>32</dim>
				</port>
			</output>
		</layer>
		<layer id="377" name="626" type="ReLU" version="opset1">
			<input>
				<port id="0">
					<dim>1</dim>
					<dim>64</dim>
					<dim>64</dim>
					<dim>32</dim>
				</port>
			</input>
			<output>
				<port id="1" precision="FP32">
					<dim>1</dim>
					<dim>64</dim>
					<dim>64</dim>
					<dim>32</dim>
				</port>
			</output>
		</layer>
		<layer id="378" name="39013905_const" type="Const" version="opset1">
			<data element_type="f32" offset="38944" shape="" size="4"/>
			<output>
				<port id="1" precision="FP32"/>
			</output>
		</layer>
		<layer id="379" name="39023906_const" type="Const" version="opset1">
			<data element_type="f32" offset="242868" shape="" size="4"/>
			<output>
				<port id="1" precision="FP32"/>
			</output>
		</layer>
		<layer id="380" name="39033907_const" type="Const" version="opset1">
			<data element_type="f32" offset="38944" shape="" size="4"/>
			<output>
				<port id="1" precision="FP32"/>
			</output>
		</layer>
		<layer id="381" name="39043908_const" type="Const" version="opset1">
			<data element_type="f32" offset="242868" shape="" size="4"/>
			<output>
				<port id="1" precision="FP32"/>
			</output>
		</layer>
		<layer id="382" name="627/fq_input_0" type="FakeQuantize" version="opset1">
			<data levels="256"/>
			<input>
				<port id="0">
					<dim>1</dim>
					<dim>64</dim>
					<dim>64</dim>
					<dim>32</dim>
				</port>
				<port id="1"/>
				<port id="2"/>
				<port id="3"/>
				<port id="4"/>
			</input>
			<output>
				<port id="5" precision="FP32">
					<dim>1</dim>
					<dim>64</dim>
					<dim>64</dim>
					<dim>32</dim>
				</port>
			</output>
		</layer>
		<layer id="383" name="onnx_initializer_node_conv2.0.conv2d.3.conv1.weight/Output_0/Data__const1160_const" type="Const" version="opset1">
			<data element_type="f32" offset="242872" shape="64,64,1,1" size="16384"/>
			<output>
				<port id="1" precision="FP32">
					<dim>64</dim>
					<dim>64</dim>
					<dim>1</dim>
					<dim>1</dim>
				</port>
			</output>
		</layer>
		<layer id="384" name="39113915_const" type="Const" version="opset1">
			<data element_type="f32" offset="259256" shape="64,1,1,1" size="256"/>
			<output>
				<port id="1" precision="FP32">
					<dim>64</dim>
					<dim>1</dim>
					<dim>1</dim>
					<dim>1</dim>
				</port>
			</output>
		</layer>
		<layer id="385" name="39123916_const" type="Const" version="opset1">
			<data element_type="f32" offset="259512" shape="64,1,1,1" size="256"/>
			<output>
				<port id="1" precision="FP32">
					<dim>64</dim>
					<dim>1</dim>
					<dim>1</dim>
					<dim>1</dim>
				</port>
			</output>
		</layer>
		<layer id="386" name="39133917_const" type="Const" version="opset1">
			<data element_type="f32" offset="259256" shape="64,1,1,1" size="256"/>
			<output>
				<port id="1" precision="FP32">
					<dim>64</dim>
					<dim>1</dim>
					<dim>1</dim>
					<dim>1</dim>
				</port>
			</output>
		</layer>
		<layer id="387" name="39143918_const" type="Const" version="opset1">
			<data element_type="f32" offset="259512" shape="64,1,1,1" size="256"/>
			<output>
				<port id="1" precision="FP32">
					<dim>64</dim>
					<dim>1</dim>
					<dim>1</dim>
					<dim>1</dim>
				</port>
			</output>
		</layer>
		<layer id="388" name="627/fq_weights_1" type="FakeQuantize" version="opset1">
			<data levels="255"/>
			<input>
				<port id="0">
					<dim>64</dim>
					<dim>64</dim>
					<dim>1</dim>
					<dim>1</dim>
				</port>
				<port id="1">
					<dim>64</dim>
					<dim>1</dim>
					<dim>1</dim>
					<dim>1</dim>
				</port>
				<port id="2">
					<dim>64</dim>
					<dim>1</dim>
					<dim>1</dim>
					<dim>1</dim>
				</port>
				<port id="3">
					<dim>64</dim>
					<dim>1</dim>
					<dim>1</dim>
					<dim>1</dim>
				</port>
				<port id="4">
					<dim>64</dim>
					<dim>1</dim>
					<dim>1</dim>
					<dim>1</dim>
				</port>
			</input>
			<output>
				<port id="5" precision="FP32">
					<dim>64</dim>
					<dim>64</dim>
					<dim>1</dim>
					<dim>1</dim>
				</port>
			</output>
		</layer>
		<layer id="389" name="627" type="Convolution" version="opset1">
			<data dilations="1,1" output_padding="0,0" pads_begin="0,0" pads_end="0,0" strides="1,1"/>
			<input>
				<port id="0">
					<dim>1</dim>
					<dim>64</dim>
					<dim>64</dim>
					<dim>32</dim>
				</port>
				<port id="1">
					<dim>64</dim>
					<dim>64</dim>
					<dim>1</dim>
					<dim>1</dim>
				</port>
			</input>
			<output>
				<port id="2" precision="FP32">
					<dim>1</dim>
					<dim>64</dim>
					<dim>64</dim>
					<dim>32</dim>
				</port>
			</output>
		</layer>
		<layer id="390" name="70717075_const" type="Const" version="opset1">
			<data element_type="f32" offset="259768" shape="1,64,1,1" size="256"/>
			<output>
				<port id="1" precision="FP32">
					<dim>1</dim>
					<dim>64</dim>
					<dim>1</dim>
					<dim>1</dim>
				</port>
			</output>
		</layer>
		<layer id="391" name="70727076_const" type="Const" version="opset1">
			<data element_type="f32" offset="260024" shape="1,64,1,1" size="256"/>
			<output>
				<port id="1" precision="FP32">
					<dim>1</dim>
					<dim>64</dim>
					<dim>1</dim>
					<dim>1</dim>
				</port>
			</output>
		</layer>
		<layer id="392" name="70737077_const" type="Const" version="opset1">
			<data element_type="f32" offset="259768" shape="1,64,1,1" size="256"/>
			<output>
				<port id="1" precision="FP32">
					<dim>1</dim>
					<dim>64</dim>
					<dim>1</dim>
					<dim>1</dim>
				</port>
			</output>
		</layer>
		<layer id="393" name="70747078_const" type="Const" version="opset1">
			<data element_type="f32" offset="260024" shape="1,64,1,1" size="256"/>
			<output>
				<port id="1" precision="FP32">
					<dim>1</dim>
					<dim>64</dim>
					<dim>1</dim>
					<dim>1</dim>
				</port>
			</output>
		</layer>
		<layer id="394" name="628/fq_input_0" type="FakeQuantize" version="opset1">
			<data levels="256"/>
			<input>
				<port id="0">
					<dim>1</dim>
					<dim>64</dim>
					<dim>64</dim>
					<dim>32</dim>
				</port>
				<port id="1">
					<dim>1</dim>
					<dim>64</dim>
					<dim>1</dim>
					<dim>1</dim>
				</port>
				<port id="2">
					<dim>1</dim>
					<dim>64</dim>
					<dim>1</dim>
					<dim>1</dim>
				</port>
				<port id="3">
					<dim>1</dim>
					<dim>64</dim>
					<dim>1</dim>
					<dim>1</dim>
				</port>
				<port id="4">
					<dim>1</dim>
					<dim>64</dim>
					<dim>1</dim>
					<dim>1</dim>
				</port>
			</input>
			<output>
				<port id="5" precision="FP32">
					<dim>1</dim>
					<dim>64</dim>
					<dim>64</dim>
					<dim>32</dim>
				</port>
			</output>
		</layer>
		<layer id="395" name="22401976_const" type="Const" version="opset1">
			<data element_type="f32" offset="260280" shape="64,1,3,3" size="2304"/>
			<output>
				<port id="1" precision="FP32">
					<dim>64</dim>
					<dim>1</dim>
					<dim>3</dim>
					<dim>3</dim>
				</port>
			</output>
		</layer>
		<layer id="396" name="70817085_const" type="Const" version="opset1">
			<data element_type="f32" offset="262584" shape="64,1,1,1" size="256"/>
			<output>
				<port id="1" precision="FP32">
					<dim>64</dim>
					<dim>1</dim>
					<dim>1</dim>
					<dim>1</dim>
				</port>
			</output>
		</layer>
		<layer id="397" name="70827086_const" type="Const" version="opset1">
			<data element_type="f32" offset="262840" shape="64,1,1,1" size="256"/>
			<output>
				<port id="1" precision="FP32">
					<dim>64</dim>
					<dim>1</dim>
					<dim>1</dim>
					<dim>1</dim>
				</port>
			</output>
		</layer>
		<layer id="398" name="70837087_const" type="Const" version="opset1">
			<data element_type="f32" offset="262584" shape="64,1,1,1" size="256"/>
			<output>
				<port id="1" precision="FP32">
					<dim>64</dim>
					<dim>1</dim>
					<dim>1</dim>
					<dim>1</dim>
				</port>
			</output>
		</layer>
		<layer id="399" name="70847088_const" type="Const" version="opset1">
			<data element_type="f32" offset="262840" shape="64,1,1,1" size="256"/>
			<output>
				<port id="1" precision="FP32">
					<dim>64</dim>
					<dim>1</dim>
					<dim>1</dim>
					<dim>1</dim>
				</port>
			</output>
		</layer>
		<layer id="400" name="628/fq_weights_1" type="FakeQuantize" version="opset1">
			<data levels="255"/>
			<input>
				<port id="0">
					<dim>64</dim>
					<dim>1</dim>
					<dim>3</dim>
					<dim>3</dim>
				</port>
				<port id="1">
					<dim>64</dim>
					<dim>1</dim>
					<dim>1</dim>
					<dim>1</dim>
				</port>
				<port id="2">
					<dim>64</dim>
					<dim>1</dim>
					<dim>1</dim>
					<dim>1</dim>
				</port>
				<port id="3">
					<dim>64</dim>
					<dim>1</dim>
					<dim>1</dim>
					<dim>1</dim>
				</port>
				<port id="4">
					<dim>64</dim>
					<dim>1</dim>
					<dim>1</dim>
					<dim>1</dim>
				</port>
			</input>
			<output>
				<port id="5" precision="FP32">
					<dim>64</dim>
					<dim>1</dim>
					<dim>3</dim>
					<dim>3</dim>
				</port>
			</output>
		</layer>
		<layer id="401" name="13384/value13386_const" type="Const" version="opset1">
			<data element_type="i64" offset="76332" shape="5" size="40"/>
			<output>
				<port id="1" precision="I64">
					<dim>5</dim>
				</port>
			</output>
		</layer>
		<layer id="402" name="13384" type="Reshape" version="opset1">
			<data special_zero="True"/>
			<input>
				<port id="0">
					<dim>64</dim>
					<dim>1</dim>
					<dim>3</dim>
					<dim>3</dim>
				</port>
				<port id="1">
					<dim>5</dim>
				</port>
			</input>
			<output>
				<port id="2" precision="FP32">
					<dim>64</dim>
					<dim>1</dim>
					<dim>1</dim>
					<dim>3</dim>
					<dim>3</dim>
				</port>
			</output>
		</layer>
		<layer id="403" name="628" type="GroupConvolution" version="opset1">
			<data dilations="1,1" output_padding="0,0" pads_begin="1,1" pads_end="1,1" strides="1,1"/>
			<input>
				<port id="0">
					<dim>1</dim>
					<dim>64</dim>
					<dim>64</dim>
					<dim>32</dim>
				</port>
				<port id="1">
					<dim>64</dim>
					<dim>1</dim>
					<dim>1</dim>
					<dim>3</dim>
					<dim>3</dim>
				</port>
			</input>
			<output>
				<port id="2" precision="FP32">
					<dim>1</dim>
					<dim>64</dim>
					<dim>64</dim>
					<dim>32</dim>
				</port>
			</output>
		</layer>
		<layer id="404" name="data_add_1914519150/copy_const1164_const" type="Const" version="opset1">
			<data element_type="f32" offset="263096" shape="1,64,1,1" size="256"/>
			<output>
				<port id="1" precision="FP32">
					<dim>1</dim>
					<dim>64</dim>
					<dim>1</dim>
					<dim>1</dim>
				</port>
			</output>
		</layer>
		<layer id="405" name="Add1_17051/Fused_Add_" type="Add" version="opset1">
			<input>
				<port id="0">
					<dim>1</dim>
					<dim>64</dim>
					<dim>64</dim>
					<dim>32</dim>
				</port>
				<port id="1">
					<dim>1</dim>
					<dim>64</dim>
					<dim>1</dim>
					<dim>1</dim>
				</port>
			</input>
			<output>
				<port id="2" precision="FP32">
					<dim>1</dim>
					<dim>64</dim>
					<dim>64</dim>
					<dim>32</dim>
				</port>
			</output>
		</layer>
		<layer id="406" name="630" type="ReLU" version="opset1">
			<input>
				<port id="0">
					<dim>1</dim>
					<dim>64</dim>
					<dim>64</dim>
					<dim>32</dim>
				</port>
			</input>
			<output>
				<port id="1" precision="FP32">
					<dim>1</dim>
					<dim>64</dim>
					<dim>64</dim>
					<dim>32</dim>
				</port>
			</output>
		</layer>
		<layer id="407" name="59715975_const" type="Const" version="opset1">
			<data element_type="f32" offset="38944" shape="" size="4"/>
			<output>
				<port id="1" precision="FP32"/>
			</output>
		</layer>
		<layer id="408" name="59725976_const" type="Const" version="opset1">
			<data element_type="f32" offset="263352" shape="" size="4"/>
			<output>
				<port id="1" precision="FP32"/>
			</output>
		</layer>
		<layer id="409" name="59735977_const" type="Const" version="opset1">
			<data element_type="f32" offset="38944" shape="" size="4"/>
			<output>
				<port id="1" precision="FP32"/>
			</output>
		</layer>
		<layer id="410" name="59745978_const" type="Const" version="opset1">
			<data element_type="f32" offset="263352" shape="" size="4"/>
			<output>
				<port id="1" precision="FP32"/>
			</output>
		</layer>
		<layer id="411" name="651/reduce/fq_input_0" type="FakeQuantize" version="opset1">
			<data levels="256"/>
			<input>
				<port id="0">
					<dim>1</dim>
					<dim>64</dim>
					<dim>64</dim>
					<dim>32</dim>
				</port>
				<port id="1"/>
…
		<edge from-layer="2263" from-port="2" to-layer="2268" to-port="0"/>
		<edge from-layer="2264" from-port="1" to-layer="2268" to-port="1"/>
		<edge from-layer="2265" from-port="1" to-layer="2268" to-port="2"/>
		<edge from-layer="2266" from-port="1" to-layer="2268" to-port="3"/>
		<edge from-layer="2267" from-port="1" to-layer="2268" to-port="4"/>
		<edge from-layer="2269" from-port="1" to-layer="2274" to-port="0"/>
		<edge from-layer="2270" from-port="1" to-layer="2274" to-port="1"/>
		<edge from-layer="2271" from-port="1" to-layer="2274" to-port="2"/>
		<edge from-layer="2272" from-port="1" to-layer="2274" to-port="3"/>
		<edge from-layer="2273" from-port="1" to-layer="2274" to-port="4"/>
		<edge from-layer="2268" from-port="5" to-layer="2275" to-port="0"/>
		<edge from-layer="2274" from-port="5" to-layer="2275" to-port="1"/>
		<edge from-layer="2275" from-port="2" to-layer="2277" to-port="0"/>
		<edge from-layer="2276" from-port="1" to-layer="2277" to-port="1"/>
		<edge from-layer="2277" from-port="2" to-layer="2282" to-port="0"/>
		<edge from-layer="2278" from-port="1" to-layer="2282" to-port="1"/>
		<edge from-layer="2279" from-port="1" to-layer="2282" to-port="2"/>
		<edge from-layer="2280" from-port="1" to-layer="2282" to-port="3"/>
		<edge from-layer="2281" from-port="1" to-layer="2282" to-port="4"/>
		<edge from-layer="2283" from-port="1" to-layer="2288" to-port="0"/>
		<edge from-layer="2284" from-port="1" to-layer="2288" to-port="1"/>
		<edge from-layer="2285" from-port="1" to-layer="2288" to-port="2"/>
		<edge from-layer="2286" from-port="1" to-layer="2288" to-port="3"/>
		<edge from-layer="2287" from-port="1" to-layer="2288" to-port="4"/>
		<edge from-layer="1839" from-port="5" to-layer="2289" to-port="0"/>
		<edge from-layer="2288" from-port="5" to-layer="2289" to-port="1"/>
		<edge from-layer="2289" from-port="2" to-layer="2291" to-port="0"/>
		<edge from-layer="2290" from-port="1" to-layer="2291" to-port="1"/>
		<edge from-layer="2291" from-port="2" to-layer="2296" to-port="0"/>
		<edge from-layer="2292" from-port="1" to-layer="2296" to-port="1"/>
		<edge from-layer="2293" from-port="1" to-layer="2296" to-port="2"/>
		<edge from-layer="2294" from-port="1" to-layer="2296" to-port="3"/>
		<edge from-layer="2295" from-port="1" to-layer="2296" to-port="4"/>
		<edge from-layer="2282" from-port="5" to-layer="2297" to-port="0"/>
		<edge from-layer="2296" from-port="5" to-layer="2297" to-port="1"/>
		<edge from-layer="2297" from-port="2" to-layer="2298" to-port="0"/>
		<edge from-layer="2298" from-port="1" to-layer="2303" to-port="0"/>
		<edge from-layer="2299" from-port="1" to-layer="2303" to-port="1"/>
		<edge from-layer="2300" from-port="1" to-layer="2303" to-port="2"/>
		<edge from-layer="2301" from-port="1" to-layer="2303" to-port="3"/>
		<edge from-layer="2302" from-port="1" to-layer="2303" to-port="4"/>
		<edge from-layer="2304" from-port="1" to-layer="2309" to-port="0"/>
		<edge from-layer="2305" from-port="1" to-layer="2309" to-port="1"/>
		<edge from-layer="2306" from-port="1" to-layer="2309" to-port="2"/>
		<edge from-layer="2307" from-port="1" to-layer="2309" to-port="3"/>
		<edge from-layer="2308" from-port="1" to-layer="2309" to-port="4"/>
		<edge from-layer="2303" from-port="5" to-layer="2310" to-port="0"/>
		<edge from-layer="2309" from-port="5" to-layer="2310" to-port="1"/>
		<edge from-layer="2310" from-port="2" to-layer="2312" to-port="0"/>
		<edge from-layer="2311" from-port="1" to-layer="2312" to-port="1"/>
		<edge from-layer="2312" from-port="2" to-layer="2313" to-port="0"/>
		<edge from-layer="2313" from-port="1" to-layer="2318" to-port="0"/>
		<edge from-layer="2314" from-port="1" to-layer="2318" to-port="1"/>
		<edge from-layer="2315" from-port="1" to-layer="2318" to-port="2"/>
		<edge from-layer="2316" from-port="1" to-layer="2318" to-port="3"/>
		<edge from-layer="2317" from-port="1" to-layer="2318" to-port="4"/>
		<edge from-layer="2319" from-port="1" to-layer="2324" to-port="0"/>
		<edge from-layer="2320" from-port="1" to-layer="2324" to-port="1"/>
		<edge from-layer="2321" from-port="1" to-layer="2324" to-port="2"/>
		<edge from-layer="2322" from-port="1" to-layer="2324" to-port="3"/>
		<edge from-layer="2323" from-port="1" to-layer="2324" to-port="4"/>
		<edge from-layer="2318" from-port="5" to-layer="2325" to-port="0"/>
		<edge from-layer="2324" from-port="5" to-layer="2325" to-port="1"/>
		<edge from-layer="2325" from-port="2" to-layer="2330" to-port="0"/>
		<edge from-layer="2326" from-port="1" to-layer="2330" to-port="1"/>
		<edge from-layer="2327" from-port="1" to-layer="2330" to-port="2"/>
		<edge from-layer="2328" from-port="1" to-layer="2330" to-port="3"/>
		<edge from-layer="2329" from-port="1" to-layer="2330" to-port="4"/>
		<edge from-layer="2331" from-port="1" to-layer="2336" to-port="0"/>
		<edge from-layer="2332" from-port="1" to-layer="2336" to-port="1"/>
		<edge from-layer="2333" from-port="1" to-layer="2336" to-port="2"/>
		<edge from-layer="2334" from-port="1" to-layer="2336" to-port="3"/>
		<edge from-layer="2335" from-port="1" to-layer="2336" to-port="4"/>
		<edge from-layer="2336" from-port="5" to-layer="2338" to-port="0"/>
		<edge from-layer="2337" from-port="1" to-layer="2338" to-port="1"/>
		<edge from-layer="2330" from-port="5" to-layer="2339" to-port="0"/>
		<edge from-layer="2338" from-port="2" to-layer="2339" to-port="1"/>
		<edge from-layer="2339" from-port="2" to-layer="2341" to-port="0"/>
		<edge from-layer="2340" from-port="1" to-layer="2341" to-port="1"/>
		<edge from-layer="2341" from-port="2" to-layer="2342" to-port="0"/>
		<edge from-layer="2342" from-port="1" to-layer="2347" to-port="0"/>
		<edge from-layer="2343" from-port="1" to-layer="2347" to-port="1"/>
		<edge from-layer="2344" from-port="1" to-layer="2347" to-port="2"/>
		<edge from-layer="2345" from-port="1" to-layer="2347" to-port="3"/>
		<edge from-layer="2346" from-port="1" to-layer="2347" to-port="4"/>
		<edge from-layer="2347" from-port="5" to-layer="2349" to-port="0"/>
		<edge from-layer="2348" from-port="1" to-layer="2349" to-port="1"/>
		<edge from-layer="2349" from-port="2" to-layer="2351" to-port="0"/>
		<edge from-layer="2350" from-port="1" to-layer="2351" to-port="1"/>
		<edge from-layer="2351" from-port="2" to-layer="2353" to-port="0"/>
		<edge from-layer="2352" from-port="1" to-layer="2353" to-port="1"/>
		<edge from-layer="2353" from-port="2" to-layer="2354" to-port="0"/>
		<edge from-layer="2354" from-port="1" to-layer="2356" to-port="0"/>
		<edge from-layer="2355" from-port="1" to-layer="2356" to-port="1"/>
		<edge from-layer="2356" from-port="2" to-layer="2358" to-port="0"/>
		<edge from-layer="2357" from-port="1" to-layer="2358" to-port="1"/>
		<edge from-layer="2358" from-port="2" to-layer="2359" to-port="0"/>
		<edge from-layer="2359" from-port="1" to-layer="2364" to-port="0"/>
		<edge from-layer="2360" from-port="1" to-layer="2364" to-port="1"/>
		<edge from-layer="2361" from-port="1" to-layer="2364" to-port="2"/>
		<edge from-layer="2362" from-port="1" to-layer="2364" to-port="3"/>
		<edge from-layer="2363" from-port="1" to-layer="2364" to-port="4"/>
		<edge from-layer="2347" from-port="5" to-layer="2365" to-port="0"/>
		<edge from-layer="2364" from-port="5" to-layer="2365" to-port="1"/>
		<edge from-layer="2365" from-port="2" to-layer="2370" to-port="0"/>
		<edge from-layer="2366" from-port="1" to-layer="2370" to-port="1"/>
		<edge from-layer="2367" from-port="1" to-layer="2370" to-port="2"/>
		<edge from-layer="2368" from-port="1" to-layer="2370" to-port="3"/>
		<edge from-layer="2369" from-port="1" to-layer="2370" to-port="4"/>
		<edge from-layer="2371" from-port="1" to-layer="2376" to-port="0"/>
		<edge from-layer="2372" from-port="1" to-layer="2376" to-port="1"/>
		<edge from-layer="2373" from-port="1" to-layer="2376" to-port="2"/>
		<edge from-layer="2374" from-port="1" to-layer="2376" to-port="3"/>
		<edge from-layer="2375" from-port="1" to-layer="2376" to-port="4"/>
		<edge from-layer="2318" from-port="5" to-layer="2377" to-port="0"/>
		<edge from-layer="2376" from-port="5" to-layer="2377" to-port="1"/>
		<edge from-layer="2377" from-port="2" to-layer="2382" to-port="0"/>
		<edge from-layer="2378" from-port="1" to-layer="2382" to-port="1"/>
		<edge from-layer="2379" from-port="1" to-layer="2382" to-port="2"/>
		<edge from-layer="2380" from-port="1" to-layer="2382" to-port="3"/>
		<edge from-layer="2381" from-port="1" to-layer="2382" to-port="4"/>
		<edge from-layer="2383" from-port="1" to-layer="2388" to-port="0"/>
		<edge from-layer="2384" from-port="1" to-layer="2388" to-port="1"/>
		<edge from-layer="2385" from-port="1" to-layer="2388" to-port="2"/>
		<edge from-layer="2386" from-port="1" to-layer="2388" to-port="3"/>
		<edge from-layer="2387" from-port="1" to-layer="2388" to-port="4"/>
		<edge from-layer="2388" from-port="5" to-layer="2390" to-port="0"/>
		<edge from-layer="2389" from-port="1" to-layer="2390" to-port="1"/>
		<edge from-layer="2382" from-port="5" to-layer="2391" to-port="0"/>
		<edge from-layer="2390" from-port="2" to-layer="2391" to-port="1"/>
		<edge from-layer="2391" from-port="2" to-layer="2393" to-port="0"/>
		<edge from-layer="2392" from-port="1" to-layer="2393" to-port="1"/>
		<edge from-layer="2393" from-port="2" to-layer="2394" to-port="0"/>
		<edge from-layer="2394" from-port="1" to-layer="2399" to-port="0"/>
		<edge from-layer="2395" from-port="1" to-layer="2399" to-port="1"/>
		<edge from-layer="2396" from-port="1" to-layer="2399" to-port="2"/>
		<edge from-layer="2397" from-port="1" to-layer="2399" to-port="3"/>
		<edge from-layer="2398" from-port="1" to-layer="2399" to-port="4"/>
		<edge from-layer="2400" from-port="1" to-layer="2405" to-port="0"/>
		<edge from-layer="2401" from-port="1" to-layer="2405" to-port="1"/>
		<edge from-layer="2402" from-port="1" to-layer="2405" to-port="2"/>
		<edge from-layer="2403" from-port="1" to-layer="2405" to-port="3"/>
		<edge from-layer="2404" from-port="1" to-layer="2405" to-port="4"/>
		<edge from-layer="2399" from-port="5" to-layer="2406" to-port="0"/>
		<edge from-layer="2405" from-port="5" to-layer="2406" to-port="1"/>
		<edge from-layer="2406" from-port="2" to-layer="2411" to-port="0"/>
		<edge from-layer="2407" from-port="1" to-layer="2411" to-port="1"/>
		<edge from-layer="2408" from-port="1" to-layer="2411" to-port="2"/>
		<edge from-layer="2409" from-port="1" to-layer="2411" to-port="3"/>
		<edge from-layer="2410" from-port="1" to-layer="2411" to-port="4"/>
		<edge from-layer="2412" from-port="1" to-layer="2417" to-port="0"/>
		<edge from-layer="2413" from-port="1" to-layer="2417" to-port="1"/>
		<edge from-layer="2414" from-port="1" to-layer="2417" to-port="2"/>
		<edge from-layer="2415" from-port="1" to-layer="2417" to-port="3"/>
		<edge from-layer="2416" from-port="1" to-layer="2417" to-port="4"/>
		<edge from-layer="2417" from-port="5" to-layer="2419" to-port="0"/>
		<edge from-layer="2418" from-port="1" to-layer="2419" to-port="1"/>
		<edge from-layer="2411" from-port="5" to-layer="2420" to-port="0"/>
		<edge from-layer="2419" from-port="2" to-layer="2420" to-port="1"/>
		<edge from-layer="2420" from-port="2" to-layer="2422" to-port="0"/>
		<edge from-layer="2421" from-port="1" to-layer="2422" to-port="1"/>
		<edge from-layer="2422" from-port="2" to-layer="2423" to-port="0"/>
		<edge from-layer="2423" from-port="1" to-layer="2428" to-port="0"/>
		<edge from-layer="2424" from-port="1" to-layer="2428" to-port="1"/>
		<edge from-layer="2425" from-port="1" to-layer="2428" to-port="2"/>
		<edge from-layer="2426" from-port="1" to-layer="2428" to-port="3"/>
		<edge from-layer="2427" from-port="1" to-layer="2428" to-port="4"/>
		<edge from-layer="2428" from-port="5" to-layer="2430" to-port="0"/>
		<edge from-layer="2429" from-port="1" to-layer="2430" to-port="1"/>
		<edge from-layer="2430" from-port="2" to-layer="2432" to-port="0"/>
		<edge from-layer="2431" from-port="1" to-layer="2432" to-port="1"/>
		<edge from-layer="2432" from-port="2" to-layer="2434" to-port="0"/>
		<edge from-layer="2433" from-port="1" to-layer="2434" to-port="1"/>
		<edge from-layer="2434" from-port="2" to-layer="2435" to-port="0"/>
		<edge from-layer="2435" from-port="1" to-layer="2437" to-port="0"/>
		<edge from-layer="2436" from-port="1" to-layer="2437" to-port="1"/>
		<edge from-layer="2437" from-port="2" to-layer="2439" to-port="0"/>
		<edge from-layer="2438" from-port="1" to-layer="2439" to-port="1"/>
		<edge from-layer="2439" from-port="2" to-layer="2440" to-port="0"/>
		<edge from-layer="2440" from-port="1" to-layer="2445" to-port="0"/>
		<edge from-layer="2441" from-port="1" to-layer="2445" to-port="1"/>
		<edge from-layer="2442" from-port="1" to-layer="2445" to-port="2"/>
		<edge from-layer="2443" from-port="1" to-layer="2445" to-port="3"/>
		<edge from-layer="2444" from-port="1" to-layer="2445" to-port="4"/>
		<edge from-layer="2428" from-port="5" to-layer="2446" to-port="0"/>
		<edge from-layer="2445" from-port="5" to-layer="2446" to-port="1"/>
		<edge from-layer="2446" from-port="2" to-layer="2451" to-port="0"/>
		<edge from-layer="2447" from-port="1" to-layer="2451" to-port="1"/>
		<edge from-layer="2448" from-port="1" to-layer="2451" to-port="2"/>
		<edge from-layer="2449" from-port="1" to-layer="2451" to-port="3"/>
		<edge from-layer="2450" from-port="1" to-layer="2451" to-port="4"/>
		<edge from-layer="2370" from-port="5" to-layer="2452" to-port="0"/>
		<edge from-layer="2451" from-port="5" to-layer="2452" to-port="1"/>
		<edge from-layer="2452" from-port="2" to-layer="2457" to-port="0"/>
		<edge from-layer="2453" from-port="1" to-layer="2457" to-port="1"/>
		<edge from-layer="2454" from-port="1" to-layer="2457" to-port="2"/>
		<edge from-layer="2455" from-port="1" to-layer="2457" to-port="3"/>
		<edge from-layer="2456" from-port="1" to-layer="2457" to-port="4"/>
		<edge from-layer="2458" from-port="1" to-layer="2463" to-port="0"/>
		<edge from-layer="2459" from-port="1" to-layer="2463" to-port="1"/>
		<edge from-layer="2460" from-port="1" to-layer="2463" to-port="2"/>
		<edge from-layer="2461" from-port="1" to-layer="2463" to-port="3"/>
		<edge from-layer="2462" from-port="1" to-layer="2463" to-port="4"/>
		<edge from-layer="2318" from-port="5" to-layer="2464" to-port="0"/>
		<edge from-layer="2463" from-port="5" to-layer="2464" to-port="1"/>
		<edge from-layer="2464" from-port="2" to-layer="2469" to-port="0"/>
		<edge from-layer="2465" from-port="1" to-layer="2469" to-port="1"/>
		<edge from-layer="2466" from-port="1" to-layer="2469" to-port="2"/>
		<edge from-layer="2467" from-port="1" to-layer="2469" to-port="3"/>
		<edge from-layer="2468" from-port="1" to-layer="2469" to-port="4"/>
		<edge from-layer="2470" from-port="1" to-layer="2475" to-port="0"/>
		<edge from-layer="2471" from-port="1" to-layer="2475" to-port="1"/>
		<edge from-layer="2472" from-port="1" to-layer="2475" to-port="2"/>
		<edge from-layer="2473" from-port="1" to-layer="2475" to-port="3"/>
		<edge from-layer="2474" from-port="1" to-layer="2475" to-port="4"/>
		<edge from-layer="2475" from-port="5" to-layer="2477" to-port="0"/>
		<edge from-layer="2476" from-port="1" to-layer="2477" to-port="1"/>
		<edge from-layer="2469" from-port="5" to-layer="2478" to-port="0"/>
		<edge from-layer="2477" from-port="2" to-layer="2478" to-port="1"/>
		<edge from-layer="2478" from-port="2" to-layer="2480" to-port="0"/>
		<edge from-layer="2479" from-port="1" to-layer="2480" to-port="1"/>
		<edge from-layer="2480" from-port="2" to-layer="2481" to-port="0"/>
		<edge from-layer="2481" from-port="1" to-layer="2486" to-port="0"/>
		<edge from-layer="2482" from-port="1" to-layer="2486" to-port="1"/>
		<edge from-layer="2483" from-port="1" to-layer="2486" to-port="2"/>
		<edge from-layer="2484" from-port="1" to-layer="2486" to-port="3"/>
		<edge from-layer="2485" from-port="1" to-layer="2486" to-port="4"/>
		<edge from-layer="2487" from-port="1" to-layer="2492" to-port="0"/>
		<edge from-layer="2488" from-port="1" to-layer="2492" to-port="1"/>
		<edge from-layer="2489" from-port="1" to-layer="2492" to-port="2"/>
		<edge from-layer="2490" from-port="1" to-layer="2492" to-port="3"/>
		<edge from-layer="2491" from-port="1" to-layer="2492" to-port="4"/>
		<edge from-layer="2486" from-port="5" to-layer="2493" to-port="0"/>
		<edge from-layer="2492" from-port="5" to-layer="2493" to-port="1"/>
		<edge from-layer="2493" from-port="2" to-layer="2498" to-port="0"/>
		<edge from-layer="2494" from-port="1" to-layer="2498" to-port="1"/>
		<edge from-layer="2495" from-port="1" to-layer="2498" to-port="2"/>
		<edge from-layer="2496" from-port="1" to-layer="2498" to-port="3"/>
		<edge from-layer="2497" from-port="1" to-layer="2498" to-port="4"/>
		<edge from-layer="2499" from-port="1" to-layer="2504" to-port="0"/>
		<edge from-layer="2500" from-port="1" to-layer="2504" to-port="1"/>
		<edge from-layer="2501" from-port="1" to-layer="2504" to-port="2"/>
		<edge from-layer="2502" from-port="1" to-layer="2504" to-port="3"/>
		<edge from-layer="2503" from-port="1" to-layer="2504" to-port="4"/>
		<edge from-layer="2504" from-port="5" to-layer="2506" to-port="0"/>
		<edge from-layer="2505" from-port="1" to-layer="2506" to-port="1"/>
		<edge from-layer="2498" from-port="5" to-layer="2507" to-port="0"/>
		<edge from-layer="2506" from-port="2" to-layer="2507" to-port="1"/>
		<edge from-layer="2507" from-port="2" to-layer="2509" to-port="0"/>
		<edge from-layer="2508" from-port="1" to-layer="2509" to-port="1"/>
		<edge from-layer="2509" from-port="2" to-layer="2510" to-port="0"/>
		<edge from-layer="2510" from-port="1" to-layer="2515" to-port="0"/>
		<edge from-layer="2511" from-port="1" to-layer="2515" to-port="1"/>
		<edge from-layer="2512" from-port="1" to-layer="2515" to-port="2"/>
		<edge from-layer="2513" from-port="1" to-layer="2515" to-port="3"/>
		<edge from-layer="2514" from-port="1" to-layer="2515" to-port="4"/>
		<edge from-layer="2516" from-port="1" to-layer="2521" to-port="0"/>
		<edge from-layer="2517" from-port="1" to-layer="2521" to-port="1"/>
		<edge from-layer="2518" from-port="1" to-layer="2521" to-port="2"/>
		<edge from-layer="2519" from-port="1" to-layer="2521" to-port="3"/>
		<edge from-layer="2520" from-port="1" to-layer="2521" to-port="4"/>
		<edge from-layer="2515" from-port="5" to-layer="2522" to-port="0"/>
		<edge from-layer="2521" from-port="5" to-layer="2522" to-port="1"/>
		<edge from-layer="2522" from-port="2" to-layer="2527" to-port="0"/>
		<edge from-layer="2523" from-port="1" to-layer="2527" to-port="1"/>
		<edge from-layer="2524" from-port="1" to-layer="2527" to-port="2"/>
		<edge from-layer="2525" from-port="1" to-layer="2527" to-port="3"/>
		<edge from-layer="2526" from-port="1" to-layer="2527" to-port="4"/>
		<edge from-layer="2528" from-port="1" to-layer="2533" to-port="0"/>
		<edge from-layer="2529" from-port="1" to-layer="2533" to-port="1"/>
		<edge from-layer="2530" from-port="1" to-layer="2533" to-port="2"/>
		<edge from-layer="2531" from-port="1" to-layer="2533" to-port="3"/>
		<edge from-layer="2532" from-port="1" to-layer="2533" to-port="4"/>
		<edge from-layer="2533" from-port="5" to-layer="2535" to-port="0"/>
		<edge from-layer="2534" from-port="1" to-layer="2535" to-port="1"/>
		<edge from-layer="2527" from-port="5" to-layer="2536" to-port="0"/>
		<edge from-layer="2535" from-port="2" to-layer="2536" to-port="1"/>
		<edge from-layer="2536" from-port="2" to-layer="2538" to-port="0"/>
		<edge from-layer="2537" from-port="1" to-layer="2538" to-port="1"/>
		<edge from-layer="2538" from-port="2" to-layer="2539" to-port="0"/>
		<edge from-layer="2539" from-port="1" to-layer="2544" to-port="0"/>
		<edge from-layer="2540" from-port="1" to-layer="2544" to-port="1"/>
		<edge from-layer="2541" from-port="1" to-layer="2544" to-port="2"/>
		<edge from-layer="2542" from-port="1" to-layer="2544" to-port="3"/>
		<edge from-layer="2543" from-port="1" to-layer="2544" to-port="4"/>
		<edge from-layer="2544" from-port="5" to-layer="2546" to-port="0"/>
		<edge from-layer="2545" from-port="1" to-layer="2546" to-port="1"/>
		<edge from-layer="2546" from-port="2" to-layer="2548" to-port="0"/>
		<edge from-layer="2547" from-port="1" to-layer="2548" to-port="1"/>
		<edge from-layer="2548" from-port="2" to-layer="2550" to-port="0"/>
		<edge from-layer="2549" from-port="1" to-layer="2550" to-port="1"/>
		<edge from-layer="2550" from-port="2" to-layer="2551" to-port="0"/>
		<edge from-layer="2551" from-port="1" to-layer="2553" to-port="0"/>
		<edge from-layer="2552" from-port="1" to-layer="2553" to-port="1"/>
		<edge from-layer="2553" from-port="2" to-layer="2555" to-port="0"/>
		<edge from-layer="2554" from-port="1" to-layer="2555" to-port="1"/>
		<edge from-layer="2555" from-port="2" to-layer="2556" to-port="0"/>
		<edge from-layer="2556" from-port="1" to-layer="2561" to-port="0"/>
		<edge from-layer="2557" from-port="1" to-layer="2561" to-port="1"/>
		<edge from-layer="2558" from-port="1" to-layer="2561" to-port="2"/>
		<edge from-layer="2559" from-port="1" to-layer="2561" to-port="3"/>
		<edge from-layer="2560" from-port="1" to-layer="2561" to-port="4"/>
		<edge from-layer="2544" from-port="5" to-layer="2562" to-port="0"/>
		<edge from-layer="2561" from-port="5" to-layer="2562" to-port="1"/>
		<edge from-layer="2562" from-port="2" to-layer="2567" to-port="0"/>
		<edge from-layer="2563" from-port="1" to-layer="2567" to-port="1"/>
		<edge from-layer="2564" from-port="1" to-layer="2567" to-port="2"/>
		<edge from-layer="2565" from-port="1" to-layer="2567" to-port="3"/>
		<edge from-layer="2566" from-port="1" to-layer="2567" to-port="4"/>
		<edge from-layer="2457" from-port="5" to-layer="2568" to-port="0"/>
		<edge from-layer="2567" from-port="5" to-layer="2568" to-port="1"/>
		<edge from-layer="2568" from-port="2" to-layer="2573" to-port="0"/>
		<edge from-layer="2569" from-port="1" to-layer="2573" to-port="1"/>
		<edge from-layer="2570" from-port="1" to-layer="2573" to-port="2"/>
		<edge from-layer="2571" from-port="1" to-layer="2573" to-port="3"/>
		<edge from-layer="2572" from-port="1" to-layer="2573" to-port="4"/>
		<edge from-layer="2574" from-port="1" to-layer="2579" to-port="0"/>
		<edge from-layer="2575" from-port="1" to-layer="2579" to-port="1"/>
		<edge from-layer="2576" from-port="1" to-layer="2579" to-port="2"/>
		<edge from-layer="2577" from-port="1" to-layer="2579" to-port="3"/>
		<edge from-layer="2578" from-port="1" to-layer="2579" to-port="4"/>
		<edge from-layer="2318" from-port="5" to-layer="2580" to-port="0"/>
		<edge from-layer="2579" from-port="5" to-layer="2580" to-port="1"/>
		<edge from-layer="2580" from-port="2" to-layer="2585" to-port="0"/>
		<edge from-layer="2581" from-port="1" to-layer="2585" to-port="1"/>
		<edge from-layer="2582" from-port="1" to-layer="2585" to-port="2"/>
		<edge from-layer="2583" from-port="1" to-layer="2585" to-port="3"/>
		<edge from-layer="2584" from-port="1" to-layer="2585" to-port="4"/>
		<edge from-layer="2586" from-port="1" to-layer="2591" to-port="0"/>
		<edge from-layer="2587" from-port="1" to-layer="2591" to-port="1"/>
		<edge from-layer="2588" from-port="1" to-layer="2591" to-port="2"/>
		<edge from-layer="2589" from-port="1" to-layer="2591" to-port="3"/>
		<edge from-layer="2590" from-port="1" to-layer="2591" to-port="4"/>
		<edge from-layer="2591" from-port="5" to-layer="2593" to-port="0"/>
		<edge from-layer="2592" from-port="1" to-layer="2593" to-port="1"/>
		<edge from-layer="2585" from-port="5" to-layer="2594" to-port="0"/>
		<edge from-layer="2593" from-port="2" to-layer="2594" to-port="1"/>
		<edge from-layer="2594" from-port="2" to-layer="2596" to-port="0"/>
		<edge from-layer="2595" from-port="1" to-layer="2596" to-port="1"/>
		<edge from-layer="2596" from-port="2" to-layer="2597" to-port="0"/>
		<edge from-layer="2597" from-port="1" to-layer="2602" to-port="0"/>
		<edge from-layer="2598" from-port="1" to-layer="2602" to-port="1"/>
		<edge from-layer="2599" from-port="1" to-layer="2602" to-port="2"/>
		<edge from-layer="2600" from-port="1" to-layer="2602" to-port="3"/>
		<edge from-layer="2601" from-port="1" to-layer="2602" to-port="4"/>
		<edge from-layer="2603" from-port="1" to-layer="2608" to-port="0"/>
		<edge from-layer="2604" from-port="1" to-layer="2608" to-port="1"/>
		<edge from-layer="2605" from-port="1" to-layer="2608" to-port="2"/>
		<edge from-layer="2606" from-port="1" to-layer="2608" to-port="3"/>
		<edge from-layer="2607" from-port="1" to-layer="2608" to-port="4"/>
		<edge from-layer="2602" from-port="5" to-layer="2609" to-port="0"/>
		<edge from-layer="2608" from-port="5" to-layer="2609" to-port="1"/>
		<edge from-layer="2609" from-port="2" to-layer="2614" to-port="0"/>
		<edge from-layer="2610" from-port="1" to-layer="2614" to-port="1"/>
		<edge from-layer="2611" from-port="1" to-layer="2614" to-port="2"/>
		<edge from-layer="2612" from-port="1" to-layer="2614" to-port="3"/>
		<edge from-layer="2613" from-port="1" to-layer="2614" to-port="4"/>
		<edge from-layer="2615" from-port="1" to-layer="2620" to-port="0"/>
		<edge from-layer="2616" from-port="1" to-layer="2620" to-port="1"/>
		<edge from-layer="2617" from-port="1" to-layer="2620" to-port="2"/>
		<edge from-layer="2618" from-port="1" to-layer="2620" to-port="3"/>
		<edge from-layer="2619" from-port="1" to-layer="2620" to-port="4"/>
		<edge from-layer="2620" from-port="5" to-layer="2622" to-port="0"/>
		<edge from-layer="2621" from-port="1" to-layer="2622" to-port="1"/>
		<edge from-layer="2614" from-port="5" to-layer="2623" to-port="0"/>
		<edge from-layer="2622" from-port="2" to-layer="2623" to-port="1"/>
		<edge from-layer="2623" from-port="2" to-layer="2625" to-port="0"/>
		<edge from-layer="2624" from-port="1" to-layer="2625" to-port="1"/>
		<edge from-layer="2625" from-port="2" to-layer="2626" to-port="0"/>
		<edge from-layer="2626" from-port="1" to-layer="2631" to-port="0"/>
		<edge from-layer="2627" from-port="1" to-layer="2631" to-port="1"/>
		<edge from-layer="2628" from-port="1" to-layer="2631" to-port="2"/>
		<edge from-layer="2629" from-port="1" to-layer="2631" to-port="3"/>
		<edge from-layer="2630" from-port="1" to-layer="2631" to-port="4"/>
		<edge from-layer="2632" from-port="1" to-layer="2637" to-port="0"/>
		<edge from-layer="2633" from-port="1" to-layer="2637" to-port="1"/>
		<edge from-layer="2634" from-port="1" to-layer="2637" to-port="2"/>
		<edge from-layer="2635" from-port="1" to-layer="2637" to-port="3"/>
		<edge from-layer="2636" from-port="1" to-layer="2637" to-port="4"/>
		<edge from-layer="2631" from-port="5" to-layer="2638" to-port="0"/>
		<edge from-layer="2637" from-port="5" to-layer="2638" to-port="1"/>
		<edge from-layer="2638" from-port="2" to-layer="2643" to-port="0"/>
		<edge from-layer="2639" from-port="1" to-layer="2643" to-port="1"/>
		<edge from-layer="2640" from-port="1" to-layer="2643" to-port="2"/>
		<edge from-layer="2641" from-port="1" to-layer="2643" to-port="3"/>
		<edge from-layer="2642" from-port="1" to-layer="2643" to-port="4"/>
		<edge from-layer="2644" from-port="1" to-layer="2649" to-port="0"/>
		<edge from-layer="2645" from-port="1" to-layer="2649" to-port="1"/>
		<edge from-layer="2646" from-port="1" to-layer="2649" to-port="2"/>
		<edge from-layer="2647" from-port="1" to-layer="2649" to-port="3"/>
		<edge from-layer="2648" from-port="1" to-layer="2649" to-port="4"/>
		<edge from-layer="2649" from-port="5" to-layer="2651" to-port="0"/>
		<edge from-layer="2650" from-port="1" to-layer="2651" to-port="1"/>
		<edge from-layer="2643" from-port="5" to-layer="2652" to-port="0"/>
		<edge from-layer="2651" from-port="2" to-layer="2652" to-port="1"/>
		<edge from-layer="2652" from-port="2" to-layer="2654" to-port="0"/>
		<edge from-layer="2653" from-port="1" to-layer="2654" to-port="1"/>
		<edge from-layer="2654" from-port="2" to-layer="2655" to-port="0"/>
		<edge from-layer="2655" from-port="1" to-layer="2660" to-port="0"/>
		<edge from-layer="2656" from-port="1" to-layer="2660" to-port="1"/>
		<edge from-layer="2657" from-port="1" to-layer="2660" to-port="2"/>
		<edge from-layer="2658" from-port="1" to-layer="2660" to-port="3"/>
		<edge from-layer="2659" from-port="1" to-layer="2660" to-port="4"/>
		<edge from-layer="2661" from-port="1" to-layer="2666" to-port="0"/>
		<edge from-layer="2662" from-port="1" to-layer="2666" to-port="1"/>
		<edge from-layer="2663" from-port="1" to-layer="2666" to-port="2"/>
		<edge from-layer="2664" from-port="1" to-layer="2666" to-port="3"/>
		<edge from-layer="2665" from-port="1" to-layer="2666" to-port="4"/>
		<edge from-layer="2660" from-port="5" to-layer="2667" to-port="0"/>
		<edge from-layer="2666" from-port="5" to-layer="2667" to-port="1"/>
		<edge from-layer="2667" from-port="2" to-layer="2672" to-port="0"/>
		<edge from-layer="2668" from-port="1" to-layer="2672" to-port="1"/>
		<edge from-layer="2669" from-port="1" to-layer="2672" to-port="2"/>
		<edge from-layer="2670" from-port="1" to-layer="2672" to-port="3"/>
		<edge from-layer="2671" from-port="1" to-layer="2672" to-port="4"/>
		<edge from-layer="2673" from-port="1" to-layer="2678" to-port="0"/>
		<edge from-layer="2674" from-port="1" to-layer="2678" to-port="1"/>
		<edge from-layer="2675" from-port="1" to-layer="2678" to-port="2"/>
		<edge from-layer="2676" from-port="1" to-layer="2678" to-port="3"/>
		<edge from-layer="2677" from-port="1" to-layer="2678" to-port="4"/>
		<edge from-layer="2678" from-port="5" to-layer="2680" to-port="0"/>
		<edge from-layer="2679" from-port="1" to-layer="2680" to-port="1"/>
		<edge from-layer="2672" from-port="5" to-layer="2681" to-port="0"/>
		<edge from-layer="2680" from-port="2" to-layer="2681" to-port="1"/>
		<edge from-layer="2681" from-port="2" to-layer="2683" to-port="0"/>
		<edge from-layer="2682" from-port="1" to-layer="2683" to-port="1"/>
		<edge from-layer="2683" from-port="2" to-layer="2684" to-port="0"/>
		<edge from-layer="2684" from-port="1" to-layer="2689" to-port="0"/>
		<edge from-layer="2685" from-port="1" to-layer="2689" to-port="1"/>
		<edge from-layer="2686" from-port="1" to-layer="2689" to-port="2"/>
		<edge from-layer="2687" from-port="1" to-layer="2689" to-port="3"/>
		<edge from-layer="2688" from-port="1" to-layer="2689" to-port="4"/>
		<edge from-layer="2689" from-port="5" to-layer="2691" to-port="0"/>
		<edge from-layer="2690" from-port="1" to-layer="2691" to-port="1"/>
		<edge from-layer="2691" from-port="2" to-layer="2693" to-port="0"/>
		<edge from-layer="2692" from-port="1" to-layer="2693" to-port="1"/>
		<edge from-layer="2693" from-port="2" to-layer="2695" to-port="0"/>
		<edge from-layer="2694" from-port="1" to-layer="2695" to-port="1"/>
		<edge from-layer="2695" from-port="2" to-layer="2696" to-port="0"/>
		<edge from-layer="2696" from-port="1" to-layer="2698" to-port="0"/>
		<edge from-layer="2697" from-port="1" to-layer="2698" to-port="1"/>
		<edge from-layer="2698" from-port="2" to-layer="2700" to-port="0"/>
		<edge from-layer="2699" from-port="1" to-layer="2700" to-port="1"/>
		<edge from-layer="2700" from-port="2" to-layer="2701" to-port="0"/>
		<edge from-layer="2701" from-port="1" to-layer="2706" to-port="0"/>
		<edge from-layer="2702" from-port="1" to-layer="2706" to-port="1"/>
		<edge from-layer="2703" from-port="1" to-layer="2706" to-port="2"/>
		<edge from-layer="2704" from-port="1" to-layer="2706" to-port="3"/>
		<edge from-layer="2705" from-port="1" to-layer="2706" to-port="4"/>
		<edge from-layer="2689" from-port="5" to-layer="2707" to-port="0"/>
		<edge from-layer="2706" from-port="5" to-layer="2707" to-port="1"/>
		<edge from-layer="2707" from-port="2" to-layer="2712" to-port="0"/>
		<edge from-layer="2708" from-port="1" to-layer="2712" to-port="1"/>
		<edge from-layer="2709" from-port="1" to-layer="2712" to-port="2"/>
		<edge from-layer="2710" from-port="1" to-layer="2712" to-port="3"/>
		<edge from-layer="2711" from-port="1" to-layer="2712" to-port="4"/>
		<edge from-layer="2573" from-port="5" to-layer="2713" to-port="0"/>
		<edge from-layer="2712" from-port="5" to-layer="2713" to-port="1"/>
		<edge from-layer="2713" from-port="2" to-layer="2718" to-port="0"/>
		<edge from-layer="2714" from-port="1" to-layer="2718" to-port="1"/>
		<edge from-layer="2715" from-port="1" to-layer="2718" to-port="2"/>
		<edge from-layer="2716" from-port="1" to-layer="2718" to-port="3"/>
		<edge from-layer="2717" from-port="1" to-layer="2718" to-port="4"/>
		<edge from-layer="2719" from-port="1" to-layer="2724" to-port="0"/>
		<edge from-layer="2720" from-port="1" to-layer="2724" to-port="1"/>
		<edge from-layer="2721" from-port="1" to-layer="2724" to-port="2"/>
		<edge from-layer="2722" from-port="1" to-layer="2724" to-port="3"/>
		<edge from-layer="2723" from-port="1" to-layer="2724" to-port="4"/>
		<edge from-layer="2718" from-port="5" to-layer="2725" to-port="0"/>
		<edge from-layer="2724" from-port="5" to-layer="2725" to-port="1"/>
		<edge from-layer="2725" from-port="2" to-layer="2727" to-port="0"/>
		<edge from-layer="2726" from-port="1" to-layer="2727" to-port="1"/>
		<edge from-layer="2727" from-port="2" to-layer="2732" to-port="0"/>
		<edge from-layer="2728" from-port="1" to-layer="2732" to-port="1"/>
		<edge from-layer="2729" from-port="1" to-layer="2732" to-port="2"/>
		<edge from-layer="2730" from-port="1" to-layer="2732" to-port="3"/>
		<edge from-layer="2731" from-port="1" to-layer="2732" to-port="4"/>
		<edge from-layer="2732" from-port="5" to-layer="2733" to-port="0"/>
		<edge from-layer="2303" from-port="5" to-layer="2733" to-port="1"/>
		<edge from-layer="2733" from-port="2" to-layer="2734" to-port="0"/>
		<edge from-layer="2734" from-port="1" to-layer="2739" to-port="0"/>
		<edge from-layer="2735" from-port="1" to-layer="2739" to-port="1"/>
		<edge from-layer="2736" from-port="1" to-layer="2739" to-port="2"/>
		<edge from-layer="2737" from-port="1" to-layer="2739" to-port="3"/>
		<edge from-layer="2738" from-port="1" to-layer="2739" to-port="4"/>
		<edge from-layer="2740" from-port="1" to-layer="2745" to-port="0"/>
		<edge from-layer="2741" from-port="1" to-layer="2745" to-port="1"/>
		<edge from-layer="2742" from-port="1" to-layer="2745" to-port="2"/>
		<edge from-layer="2743" from-port="1" to-layer="2745" to-port="3"/>
		<edge from-layer="2744" from-port="1" to-layer="2745" to-port="4"/>
		<edge from-layer="2739" from-port="5" to-layer="2746" to-port="0"/>
		<edge from-layer="2745" from-port="5" to-layer="2746" to-port="1"/>
		<edge from-layer="2746" from-port="2" to-layer="2748" to-port="0"/>
		<edge from-layer="2747" from-port="1" to-layer="2748" to-port="1"/>
		<edge from-layer="2748" from-port="2" to-layer="2749" to-port="0"/>
		<edge from-layer="2749" from-port="1" to-layer="2754" to-port="0"/>
		<edge from-layer="2750" from-port="1" to-layer="2754" to-port="1"/>
		<edge from-layer="2751" from-port="1" to-layer="2754" to-port="2"/>
		<edge from-layer="2752" from-port="1" to-layer="2754" to-port="3"/>
		<edge from-layer="2753" from-port="1" to-layer="2754" to-port="4"/>
		<edge from-layer="2755" from-port="1" to-layer="2760" to-port="0"/>
		<edge from-layer="2756" from-port="1" to-layer="2760" to-port="1"/>
		<edge from-layer="2757" from-port="1" to-layer="2760" to-port="2"/>
		<edge from-layer="2758" from-port="1" to-layer="2760" to-port="3"/>
		<edge from-layer="2759" from-port="1" to-layer="2760" to-port="4"/>
		<edge from-layer="2754" from-port="5" to-layer="2761" to-port="0"/>
		<edge from-layer="2760" from-port="5" to-layer="2761" to-port="1"/>
		<edge from-layer="2761" from-port="2" to-layer="2763" to-port="0"/>
		<edge from-layer="2762" from-port="1" to-layer="2763" to-port="1"/>
		<edge from-layer="2763" from-port="2" to-layer="2768" to-port="0"/>
		<edge from-layer="2764" from-port="1" to-layer="2768" to-port="1"/>
		<edge from-layer="2765" from-port="1" to-layer="2768" to-port="2"/>
		<edge from-layer="2766" from-port="1" to-layer="2768" to-port="3"/>
		<edge from-layer="2767" from-port="1" to-layer="2768" to-port="4"/>
		<edge from-layer="1853" from-port="5" to-layer="2769" to-port="0"/>
		<edge from-layer="2768" from-port="5" to-layer="2769" to-port="1"/>
		<edge from-layer="2769" from-port="2" to-layer="2774" to-port="0"/>
		<edge from-layer="2770" from-port="1" to-layer="2774" to-port="1"/>
		<edge from-layer="2771" from-port="1" to-layer="2774" to-port="2"/>
		<edge from-layer="2772" from-port="1" to-layer="2774" to-port="3"/>
		<edge from-layer="2773" from-port="1" to-layer="2774" to-port="4"/>
		<edge from-layer="2775" from-port="1" to-layer="2780" to-port="0"/>
		<edge from-layer="2776" from-port="1" to-layer="2780" to-port="1"/>
		<edge from-layer="2777" from-port="1" to-layer="2780" to-port="2"/>
		<edge from-layer="2778" from-port="1" to-layer="2780" to-port="3"/>
		<edge from-layer="2779" from-port="1" to-layer="2780" to-port="4"/>
		<edge from-layer="2774" from-port="5" to-layer="2781" to-port="0"/>
		<edge from-layer="2780" from-port="5" to-layer="2781" to-port="1"/>
		<edge from-layer="2781" from-port="2" to-layer="2783" to-port="0"/>
		<edge from-layer="2782" from-port="1" to-layer="2783" to-port="1"/>
		<edge from-layer="2783" from-port="2" to-layer="2788" to-port="0"/>
		<edge from-layer="2784" from-port="1" to-layer="2788" to-port="1"/>
		<edge from-layer="2785" from-port="1" to-layer="2788" to-port="2"/>
		<edge from-layer="2786" from-port="1" to-layer="2788" to-port="3"/>
		<edge from-layer="2787" from-port="1" to-layer="2788" to-port="4"/>
		<edge from-layer="2788" from-port="5" to-layer="2789" to-port="0"/>
		<edge from-layer="2790" from-port="1" to-layer="2795" to-port="0"/>
		<edge from-layer="2791" from-port="1" to-layer="2795" to-port="1"/>
		<edge from-layer="2792" from-port="1" to-layer="2795" to-port="2"/>
		<edge from-layer="2793" from-port="1" to-layer="2795" to-port="3"/>
		<edge from-layer="2794" from-port="1" to-layer="2795" to-port="4"/>
		<edge from-layer="932" from-port="5" to-layer="2796" to-port="0"/>
		<edge from-layer="2795" from-port="5" to-layer="2796" to-port="1"/>
		<edge from-layer="2796" from-port="2" to-layer="2798" to-port="0"/>
		<edge from-layer="2797" from-port="1" to-layer="2798" to-port="1"/>
		<edge from-layer="2798" from-port="2" to-layer="2803" to-port="0"/>
		<edge from-layer="2799" from-port="1" to-layer="2803" to-port="1"/>
		<edge from-layer="2800" from-port="1" to-layer="2803" to-port="2"/>
		<edge from-layer="2801" from-port="1" to-layer="2803" to-port="3"/>
		<edge from-layer="2802" from-port="1" to-layer="2803" to-port="4"/>
		<edge from-layer="2774" from-port="5" to-layer="2805" to-port="0"/>
		<edge from-layer="2804" from-port="1" to-layer="2805" to-port="1"/>
		<edge from-layer="2803" from-port="5" to-layer="2806" to-port="0"/>
		<edge from-layer="2805" from-port="2" to-layer="2806" to-port="1"/>
		<edge from-layer="2806" from-port="2" to-layer="2811" to-port="0"/>
		<edge from-layer="2807" from-port="1" to-layer="2811" to-port="1"/>
		<edge from-layer="2808" from-port="1" to-layer="2811" to-port="2"/>
		<edge from-layer="2809" from-port="1" to-layer="2811" to-port="3"/>
		<edge from-layer="2810" from-port="1" to-layer="2811" to-port="4"/>
		<edge from-layer="2812" from-port="1" to-layer="2817" to-port="0"/>
		<edge from-layer="2813" from-port="1" to-layer="2817" to-port="1"/>
		<edge from-layer="2814" from-port="1" to-layer="2817" to-port="2"/>
		<edge from-layer="2815" from-port="1" to-layer="2817" to-port="3"/>
		<edge from-layer="2816" from-port="1" to-layer="2817" to-port="4"/>
		<edge from-layer="2811" from-port="5" to-layer="2818" to-port="0"/>
		<edge from-layer="2817" from-port="5" to-layer="2818" to-port="1"/>
		<edge from-layer="2818" from-port="2" to-layer="2820" to-port="0"/>
		<edge from-layer="2819" from-port="1" to-layer="2820" to-port="1"/>
		<edge from-layer="2820" from-port="2" to-layer="2825" to-port="0"/>
		<edge from-layer="2821" from-port="1" to-layer="2825" to-port="1"/>
		<edge from-layer="2822" from-port="1" to-layer="2825" to-port="2"/>
		<edge from-layer="2823" from-port="1" to-layer="2825" to-port="3"/>
		<edge from-layer="2824" from-port="1" to-layer="2825" to-port="4"/>
		<edge from-layer="2825" from-port="5" to-layer="2826" to-port="0"/>
		<edge from-layer="2827" from-port="1" to-layer="2832" to-port="0"/>
		<edge from-layer="2828" from-port="1" to-layer="2832" to-port="1"/>
		<edge from-layer="2829" from-port="1" to-layer="2832" to-port="2"/>
		<edge from-layer="2830" from-port="1" to-layer="2832" to-port="3"/>
		<edge from-layer="2831" from-port="1" to-layer="2832" to-port="4"/>
		<edge from-layer="25" from-port="1" to-layer="2833" to-port="0"/>
		<edge from-layer="2832" from-port="5" to-layer="2833" to-port="1"/>
		<edge from-layer="2833" from-port="2" to-layer="2835" to-port="0"/>
		<edge from-layer="2834" from-port="1" to-layer="2835" to-port="1"/>
		<edge from-layer="2835" from-port="2" to-layer="2840" to-port="0"/>
		<edge from-layer="2836" from-port="1" to-layer="2840" to-port="1"/>
		<edge from-layer="2837" from-port="1" to-layer="2840" to-port="2"/>
		<edge from-layer="2838" from-port="1" to-layer="2840" to-port="3"/>
		<edge from-layer="2839" from-port="1" to-layer="2840" to-port="4"/>
		<edge from-layer="2811" from-port="5" to-layer="2842" to-port="0"/>
		<edge from-layer="2841" from-port="1" to-layer="2842" to-port="1"/>
		<edge from-layer="2840" from-port="5" to-layer="2843" to-port="0"/>
		<edge from-layer="2842" from-port="2" to-layer="2843" to-port="1"/>
		<edge from-layer="2843" from-port="2" to-layer="2848" to-port="0"/>
		<edge from-layer="2844" from-port="1" to-layer="2848" to-port="1"/>
		<edge from-layer="2845" from-port="1" to-layer="2848" to-port="2"/>
		<edge from-layer="2846" from-port="1" to-layer="2848" to-port="3"/>
		<edge from-layer="2847" from-port="1" to-layer="2848" to-port="4"/>
		<edge from-layer="2849" from-port="1" to-layer="2854" to-port="0"/>
		<edge from-layer="2850" from-port="1" to-layer="2854" to-port="1"/>
		<edge from-layer="2851" from-port="1" to-layer="2854" to-port="2"/>
		<edge from-layer="2852" from-port="1" to-layer="2854" to-port="3"/>
		<edge from-layer="2853" from-port="1" to-layer="2854" to-port="4"/>
		<edge from-layer="2848" from-port="5" to-layer="2855" to-port="0"/>
		<edge from-layer="2854" from-port="5" to-layer="2855" to-port="1"/>
		<edge from-layer="2855" from-port="2" to-layer="2857" to-port="0"/>
		<edge from-layer="2856" from-port="1" to-layer="2857" to-port="1"/>
		<edge from-layer="2857" from-port="2" to-layer="2862" to-port="0"/>
		<edge from-layer="2858" from-port="1" to-layer="2862" to-port="1"/>
		<edge from-layer="2859" from-port="1" to-layer="2862" to-port="2"/>
		<edge from-layer="2860" from-port="1" to-layer="2862" to-port="3"/>
		<edge from-layer="2861" from-port="1" to-layer="2862" to-port="4"/>
		<edge from-layer="2862" from-port="5" to-layer="2863" to-port="0"/>
		<edge from-layer="2864" from-port="1" to-layer="2869" to-port="0"/>
		<edge from-layer="2865" from-port="1" to-layer="2869" to-port="1"/>
		<edge from-layer="2866" from-port="1" to-layer="2869" to-port="2"/>
		<edge from-layer="2867" from-port="1" to-layer="2869" to-port="3"/>
		<edge from-layer="2868" from-port="1" to-layer="2869" to-port="4"/>
		<edge from-layer="2768" from-port="5" to-layer="2870" to-port="0"/>
		<edge from-layer="2869" from-port="5" to-layer="2870" to-port="1"/>
		<edge from-layer="2870" from-port="2" to-layer="2872" to-port="0"/>
		<edge from-layer="2871" from-port="1" to-layer="2872" to-port="1"/>
		<edge from-layer="2872" from-port="2" to-layer="2877" to-port="0"/>
		<edge from-layer="2873" from-port="1" to-layer="2877" to-port="1"/>
		<edge from-layer="2874" from-port="1" to-layer="2877" to-port="2"/>
		<edge from-layer="2875" from-port="1" to-layer="2877" to-port="3"/>
		<edge from-layer="2876" from-port="1" to-layer="2877" to-port="4"/>
		<edge from-layer="2863" from-port="1" to-layer="2878" to-port="0"/>
		<edge from-layer="2877" from-port="5" to-layer="2878" to-port="1"/>
		<edge from-layer="2878" from-port="2" to-layer="2883" to-port="0"/>
		<edge from-layer="2879" from-port="1" to-layer="2883" to-port="1"/>
		<edge from-layer="2880" from-port="1" to-layer="2883" to-port="2"/>
		<edge from-layer="2881" from-port="1" to-layer="2883" to-port="3"/>
		<edge from-layer="2882" from-port="1" to-layer="2883" to-port="4"/>
		<edge from-layer="2826" from-port="1" to-layer="2884" to-port="0"/>
		<edge from-layer="2883" from-port="5" to-layer="2884" to-port="1"/>
		<edge from-layer="2884" from-port="2" to-layer="2889" to-port="0"/>
		<edge from-layer="2885" from-port="1" to-layer="2889" to-port="1"/>
		<edge from-layer="2886" from-port="1" to-layer="2889" to-port="2"/>
		<edge from-layer="2887" from-port="1" to-layer="2889" to-port="3"/>
		<edge from-layer="2888" from-port="1" to-layer="2889" to-port="4"/>
		<edge from-layer="2789" from-port="1" to-layer="2890" to-port="0"/>
		<edge from-layer="2889" from-port="5" to-layer="2890" to-port="1"/>
		<edge from-layer="2890" from-port="2" to-layer="2895" to-port="0"/>
		<edge from-layer="2891" from-port="1" to-layer="2895" to-port="1"/>
		<edge from-layer="2892" from-port="1" to-layer="2895" to-port="2"/>
		<edge from-layer="2893" from-port="1" to-layer="2895" to-port="3"/>
		<edge from-layer="2894" from-port="1" to-layer="2895" to-port="4"/>
		<edge from-layer="2895" from-port="5" to-layer="2896" to-port="0"/>
		<edge from-layer="2896" from-port="1" to-layer="2901" to-port="0"/>
		<edge from-layer="2897" from-port="1" to-layer="2901" to-port="1"/>
		<edge from-layer="2898" from-port="1" to-layer="2901" to-port="2"/>
		<edge from-layer="2899" from-port="1" to-layer="2901" to-port="3"/>
		<edge from-layer="2900" from-port="1" to-layer="2901" to-port="4"/>
		<edge from-layer="2901" from-port="5" to-layer="2903" to-port="0"/>
		<edge from-layer="2902" from-port="1" to-layer="2903" to-port="1"/>
		<edge from-layer="2904" from-port="1" to-layer="2909" to-port="0"/>
		<edge from-layer="2905" from-port="1" to-layer="2909" to-port="1"/>
		<edge from-layer="2906" from-port="1" to-layer="2909" to-port="2"/>
		<edge from-layer="2907" from-port="1" to-layer="2909" to-port="3"/>
		<edge from-layer="2908" from-port="1" to-layer="2909" to-port="4"/>
		<edge from-layer="2903" from-port="2" to-layer="2910" to-port="0"/>
		<edge from-layer="2909" from-port="5" to-layer="2910" to-port="1"/>
		<edge from-layer="2910" from-port="2" to-layer="2912" to-port="0"/>
		<edge from-layer="2911" from-port="1" to-layer="2912" to-port="1"/>
		<edge from-layer="2912" from-port="2" to-layer="2917" to-port="0"/>
		<edge from-layer="2913" from-port="1" to-layer="2917" to-port="1"/>
		<edge from-layer="2914" from-port="1" to-layer="2917" to-port="2"/>
		<edge from-layer="2915" from-port="1" to-layer="2917" to-port="3"/>
		<edge from-layer="2916" from-port="1" to-layer="2917" to-port="4"/>
		<edge from-layer="2917" from-port="5" to-layer="2919" to-port="0"/>
		<edge from-layer="2918" from-port="1" to-layer="2919" to-port="1"/>
		<edge from-layer="2919" from-port="2" to-layer="2921" to-port="0"/>
		<edge from-layer="2920" from-port="1" to-layer="2921" to-port="1"/>
		<edge from-layer="2921" from-port="2" to-layer="2923" to-port="0"/>
		<edge from-layer="2922" from-port="1" to-layer="2923" to-port="1"/>
		<edge from-layer="2923" from-port="2" to-layer="2925" to-port="0"/>
		<edge from-layer="2924" from-port="1" to-layer="2925" to-port="1"/>
		<edge from-layer="2925" from-port="2" to-layer="2927" to-port="0"/>
		<edge from-layer="2926" from-port="1" to-layer="2927" to-port="1"/>
		<edge from-layer="2927" from-port="2" to-layer="2928" to-port="0"/>
	</edges>
	<meta_data>
		<MO_version value="unknown version"/>
		<cli_parameters>
			<blobs_as_inputs value="True"/>
			<caffe_parser_path value="DIR"/>
			<data_type value="FP32"/>
			<disable_nhwc_to_nchw value="False"/>
			<disable_omitting_optional value="False"/>
			<disable_resnet_optimization value="False"/>
			<enable_concat_optimization value="False"/>
			<enable_flattening_nested_params value="False"/>
			<enable_ssd_gluoncv value="False"/>
			<extensions value="DIR"/>
			<framework value="onnx"/>
			<freeze_placeholder_with_value value="{}"/>
			<generate_deprecated_IR_V2 value="False"/>
			<generate_deprecated_IR_V7 value="False"/>
			<generate_experimental_IR_V10 value="True"/>
			<input value="data"/>
			<input_model value="DIR/person-reidentification-retail-0200.onnx"/>
			<input_model_is_text value="False"/>
			<input_shape value="[1,3,256,128]"/>
			<k value="DIR/CustomLayersMapping.xml"/>
			<keep_quantize_ops_in_IR value="True"/>
			<keep_shape_ops value="False"/>
			<legacy_mxnet_model value="False"/>
			<log_level value="ERROR"/>
			<mean_scale_values value="{'data': {'mean': array([123.675, 116.28 , 103.53 ]), 'scale': array([58.39757066, 57.12000914, 57.37530911])}}"/>
			<mean_values value="data[123.675,116.28,103.53]"/>
			<model_name value="person-reidentification-retail-0200"/>
			<move_to_preprocess value="False"/>
			<output value="['reid_embedding']"/>
			<output_dir value="DIR"/>
			<placeholder_data_types value="{}"/>
			<placeholder_shapes value="{'data': array([  1,   3, 256, 128])}"/>
			<progress value="False"/>
			<remove_memory value="False"/>
			<remove_output_softmax value="False"/>
			<reverse_input_channels value="True"/>
			<save_params_from_nd value="False"/>
			<scale_values value="data[58.3975706610605,57.12000913920146,57.375309109477826]"/>
			<silent value="False"/>
			<stream_output value="False"/>
			<unset unset_cli_parameters="batch, counts, disable_fusing, disable_gfusing, finegrain_fusing, input_checkpoint, input_meta_graph, input_proto, input_symbol, mean_file, mean_file_offsets, nd_prefix_name, pretrained_model_name, saved_model_dir, saved_model_tags, scale, tensorboard_logdir, tensorflow_custom_layer_libraries, tensorflow_custom_operations_config_update, tensorflow_object_detection_api_pipeline_config, tensorflow_operation_patterns, tensorflow_subgraph_patterns, tensorflow_use_custom_operations_config, transformations_config"/>
		</cli_parameters>
	</meta_data>
</net>
